MP3-ModifiedMNIST/Mini-project3/trained_models/model_ben_mar15_v2_centered_accuracy_89.ckpt (torch_old, 877554 bytes, 34 tensors)

layer1.0.weight f4 [16, 1, 4, 4]
0	0x3d268b90	0.04066044
1	0x3e55fa52	0.20896271
2	0xbe04a54b	-0.1295368
3	0xbdcaef84	-0.09908965
4	0x3b7c1c77	0.0038469115
5	0x3e2e4a34	0.17020494
6	0x3d80ebf4	0.062950045
7	0x3e84646d	0.2585787
8	0xbba73d19	-0.005103719
9	0x3dd39957	0.10331982
10	0xbdb498ff	-0.08818244
11	0xbd4f9854	-0.05068238
12	0xbe78fa5b	-0.24314253
13	0xbe81ff19	-0.25389937
14	0xbe060f56	-0.13091788
15	0x3dc3e6ab	0.09565481
16	0x3e2daebc	0.16961187
17	0x3e3b7723	0.18307166
18	0xbe20ab54	-0.15690356
19	0xbe20e3eb	-0.15711944
20	0x3dbc988f	0.09208786
21	0x3e49d7af	0.19711183
22	0x3aa8d2fd	0.0012880262
23	0x3dfba045	0.12286428
24	0xbda2867d	-0.07935808
25	0x3d60aad2	0.054850407
26	0x3e61f0cc	0.22064513
27	0xbe5b4d44	-0.21416193
28	0xbe32c553	-0.17458086
29	0xbd874f39	-0.066069074
30	0xbd62479d	-0.055244077
31	0x3e85eb51	0.26156095
32	0xbe04e6ec	-0.12978715
33	0xbcc1723c	-0.023614042
34	0x3bfd35bb	0.0077273524
35	0xbdbc9768	-0.09208566
36	0xbe4b0630	-0.19826579
37	0x3e822a04	0.2542268
38	0x3e635111	0.22198893
39	0x3e4a8069	0.19775547
40	0xbdf1fc15	-0.11815659
41	0xbe37fa97	-0.17966686
42	0x3dc1b8d2	0.0945908
43	0xbe4689c2	-0.19388488
44	0xbe576339	-0.21033944
45	0xbe20405d	-0.15649553
46	0x3e3263a7	0.17420827
47	0x3e445f3e	0.19176957
48	0xbdb862fe	-0.09003256
49	0xbc6df424	-0.01452354
50	0x3e073b55	0.13206227
51	0x3e832ce3	0.25620183
52	0x3dc9347c	0.09824464
53	0x3dc581f0	0.09643924
54	0x3e549447	0.20759688
55	0xbdf9e33c	-0.12201545
56	0x3aad1e52	0.0013207889
57	0xbe6e3ada	-0.23264638
58	0xbe6cbc10	-0.23118615
59	0xbe2d7394	-0.16938621
60	0x3d670957	0.05640539
61	0x3df6dc3e	0.120537266
62	0xbe7087d1	-0.2348931
63	0x3d554867	0.052071
64	0x3dfbfca0	0.12304044
65	0x3def76b4	0.11692563
66	0x3e0cc0b3	0.13745384
67	0x3de47fc7	0.11157184
68	0x3def21ec	0.11676392
69	0x3e1c0bf5	0.15238936
70	0xbb97294c	-0.0046130773
71	0x3d00718c	0.031358287
72	0x3e003e94	0.12523872
73	0x3e768be1	0.24076797
74	0x3e8ee827	0.27911493
75	0x3e68e59a	0.22743836
76	0x3ce9da94	0.028546609
77	0xbe79e3c8	-0.24403298
78	0x3da16c6e	0.078820094
79	0xbe1de973	-0.15421085
80	0xbe2f3c80	-0.17112923
81	0x3e741f80	0.23840141
82	0x3e5fc4f1	0.21852471
83	0xbe3601d1	-0.1777413
84	0x3d921316	0.071325466
85	0x3b966ca6	0.0045905886
86	0xbd60692d	-0.054787803
87	0xbda4e0c3	-0.080506824
88	0x3d9605b1	0.07325304
89	0xbe37bf79	-0.17944135
90	0x3d467dd8	0.048459858
91	0x3dd7ca03	0.105365776
92	0x3e5adeb0	0.21374011
93	0x3e08f953	0.1337636
94	0xbea6c444	-0.32571614
95	0xbe78af47	-0.24285613
96	0x3e25402c	0.16137761
97	0x3d93ba09	0.07213218
98	0xbe3eca22	-0.18631795
99	0xbe06b5fd	-0.1315536
100	0x3e911ee7	0.2834389
101	0x3e6ab430	0.22920299
102	0xbdc30600	-0.09522629
103	0xbd15eab7	-0.036600795
104	0xbe5f701b	-0.21820109
105	0x3d5375d9	0.05162606
106	0xbe03c25d	-0.12867112
107	0xbe21b110	-0.157902
108	0xbd50c576	-0.050969563
109	0x3cc0cad7	0.023534222
110	0xbe1a7e5e	-0.15087268
111	0x3e2db64d	0.16964073
112	0xbdd13dbb	-0.10216852
113	0x3e422bfb	0.1896209
114	0x3e47da4c	0.19516867
115	0xbe4aeeef	-0.19817708
116	0xbd0d87f1	-0.034553472
117	0xbd9d1570	-0.076701045
118	0xbd04fdef	-0.032468732
119	0x3c8ba8f3	0.017048335
120	0x3d944635	0.072399534
121	0xbe14c18c	-0.14526957
122	0xbea3ea74	-0.3201481
123	0x3d3a7dcf	0.045530137
124	0xbdd06e34	-0.101772696
125	0xbe9e0ef4	-0.30870783
126	0xbe1acf92	-0.15118244
127	0xbdccdf5e	-0.100035414
128	0xbded6fa6	-0.11593561
129	0xbe9172ea	-0.28407985
130	0xbda29ba7	-0.079398446
131	0x3d50c545	0.05096938
132	0xbe8251b7	-0.25452968
133	0xbd8cb8f9	-0.06871218
134	0x3e03dafb	0.12876503
135	0xbd075a83	-0.033045303
136	0xbb67c330	-0.0035364144
137	0xbccbe1e7	-0.024887992
138	0xba8e7c2f	-0.001087075
139	0x3de53ea0	0.111935854
140	0x3e6708c6	0.2256194
141	0x3e152ca8	0.14567816
142	0x3e42bb2a	0.1901671
143	0xbcd56336	-0.026048284
144	0xbd91e84b	-0.071243845
145	0xbda1fecf	-0.07909929
146	0x3e6d4cc4	0.23173815
147	0x3e297748	0.16549408
148	0x3c92cb16	0.017919105
149	0xbdc3ce26	-0.09560804
150	0xbeebb626	-0.46037406
151	0xbdaef528	-0.085428536
152	0xbc066e14	-0.008204956
153	0x3e7d948e	0.247637
154	0x3e391362	0.180738
155	0xbe5cfd62	-0.21581033
156	0x3e24bce2	0.16087678
157	0xbe2549de	-0.1614146
158	0x3d4d905b	0.050186496
159	0xbdd86397	-0.1056587
160	0x3d2348f3	0.03986449
161	0xbd075478	-0.03303954
162	0xbe30b22a	-0.17255464
163	0xbd718b08	-0.05897048
164	0xbbcb10ac	-0.006197056
165	0xbd8a0ea3	-0.06741073
166	0xbe1edb1e	-0.15513274
167	0x3e167d53	0.14696245
168	0xbe5b3e9e	-0.21410605
169	0xbd19901b	-0.037490945
170	0x3e8178e8	0.25287557
171	0xbd880cc1	-0.066430576
172	0x3e987f56	0.2978465
173	0x3d9967d1	0.074905045
174	0xbe808ce5	-0.25107494
175	0x3e82297a	0.2542227
176	0xbca4dda5	-0.02012522
177	0xbe19ce47	-0.15020095
178	0x3dbe4793	0.092909954
179	0xbe99fa5a	-0.30073816
180	0x3d5f7ad5	0.0545605
181	0xbdbc0c25	-0.09182004
182	0x3dbd3f09	0.092405386
183	0x3d60872d	0.054816414
184	0x3e151504	0.14558798
185	0x3dc9a6bf	0.098462574
186	0xbcf43fb8	-0.02981554
187	0xbd29f169	-0.041489992
188	0xbe4655ff	-0.19368742
189	0x3e374caa	0.17900339
190	0x3e5b3f2b	0.21410815
191	0x3e3d399e	0.1847901
192	0xbe475540	-0.19466114
193	0xbd8fa8fe	-0.070146546
194	0xbe91ea8c	-0.28499258
195	0xbe82721d	-0.25477687
196	0xbdd25a41	-0.10271121
197	0x3d6d227f	0.057894226
198	0xbe21d210	-0.15802789
199	0xbd94f795	-0.07273785
200	0x3d1c499f	0.038156148
201	0x3e3696a7	0.17830907
202	0xbdf75669	-0.12077028
203	0xbe1e3b64	-0.15452343
204	0xbdc24a4c	-0.09486827
205	0x3e5d3c29	0.2160498
206	0x3c662ff7	0.014049522
207	0x3e73ec5c	0.23820633
208	0x3d6d2d6c	0.057904646
209	0x3a00147a	0.0004885864
210	0xbb9d0f9c	-0.0047931205
211	0xbbdfb005	-0.006826403
212	0x3d06e988	0.032937557
213	0xbdd789eb	-0.10524353
214	0xbb9e52f0	-0.0048316643
215	0xbb9cc0bb	-0.0047837174
216	0xbe61def6	-0.22057709
217	0xbe269a29	-0.16269745
218	0x3e8841bd	0.26612654
219	0xbe3904ae	-0.18068191
220	0xbc3adf36	-0.011405757
221	0x3e890d23	0.26767835
222	0x3deb285d	0.11482308
223	0x3b8c4dbb	0.004281727
224	0xbe80d108	-0.25159478
225	0x3da785f0	0.081798434
226	0xbe5a72ac	-0.21332806
227	0xba283aed	-0.0006417472
228	0xbd89e1db	-0.06732532
229	0xbd53e06d	-0.0517277
230	0xbc81a27a	-0.015824545
231	0x3e654911	0.22391154
232	0x3e0ceaff	0.13761519
233	0x3e8af449	0.271395
234	0x3e0f1a67	0.13974915
235	0xbe3f8835	-0.18704303
236	0x3dfdf65d	0.12400506
237	0xbe0632b1	-0.13105275
238	0xbdb3aa62	-0.08772732
239	0x3d168cd3	0.036755394
240	0x3e07df12	0.13268688
241	0x3e4a35c8	0.19747078
242	0xbd8e2258	-0.06940144
243	0x3c8ed20d	0.017434144
244	0x3e357d9a	0.17723694
245	0xbe828323	-0.25490674
246	0x3e11d1db	0.1424021
247	0xbe72318f	-0.23651718
248	0x3d73e934	0.05954857
249	0xbc1332cd	-0.00898428
250	0xbe0cb9a7	-0.13742696
251	0x3c999a9e	0.018750485
252	0x3e696bf3	0.22795086
253	0xbd369c06	-0.04458239
254	0xbe1bb83e	-0.15207002
255	0xbdaf7ad5	-0.0856835

layer1.0.bias f4 [16]
0	0xbeaa41c6	-0.33253306
1	0x3e0f0922	0.13968328
2	0xbd2b8877	-0.04187819
3	0xbd3391d8	-0.04384026
4	0xbe88c759	-0.2671459
5	0x3e3a2b9a	0.18180695
6	0x3dc4e5da	0.09614153
7	0x3e99806c	0.2998079
8	0x3e126486	0.14296159
9	0xbdd6c939	-0.10487599
10	0xbcd0448d	-0.025423313
11	0x3d92e887	0.07173257
12	0x3e05303b	0.1300668
13	0x3de622a5	0.11237077
14	0xbe0f805a	-0.14013806
15	0xbdd33ce2	-0.10314347

layer1.1.weight f4 [16]
0	0x3e5c6ab7	0.21525083
1	0x3f0b770b	0.5447852
2	0x3e8d4f61	0.27599624
3	0x3e86fca3	0.26364622
4	0x3f6b491b	0.91908425
5	0x3e4c9418	0.19978368
6	0x3e855de4	0.26048195
7	0x3f92741a	1.1441681
8	0x3f1f3ff3	0.62206954
9	0x3db3c1ba	0.08777185
10	0x3dff20f3	0.124574564
11	0x3f55a54e	0.8345536
12	0x3f496b7d	0.7867964
13	0x3f4a2c01	0.78973395
14	0x3e8ce63a	0.275194
15	0x3f3a06cf	0.7266664

layer1.1.bias f4 [16]
0	0x3d9dbb53	0.07701745
1	0xbe9026de	-0.28154653
2	0x3d9399ba	0.072070554
3	0x3e011eb0	0.12609363
4	0xbec39183	-0.38196954
5	0x3e225cd0	0.15855718
6	0x3d96d486	0.073647544
7	0x3d94027f	0.072270386
8	0xbd1c8d7e	-0.038220875
9	0x3d823be5	0.0635908
10	0xbd9a2f42	-0.07528545
11	0xbe904e63	-0.28184804
12	0x3bc55980	0.006022632
13	0xbc834e40	-0.016028523
14	0xbd12929b	-0.035784345
15	0xbc68c296	-0.014206549

layer1.1.running_mean f4 [16]
0	0xbff975a4	-1.9489026
1	0x4100d6ab	8.052409
2	0xc0599006	-3.3994155
3	0xbfbc3c63	-1.4705929
4	0x41e4fc16	28.623089
5	0xc024e1f2	-2.5762906
6	0xc066f66e	-3.6087909
7	0xc1ad9896	-21.699505
8	0xbe2cfeae	-0.16894028
9	0xc0a791f9	-5.236569
10	0xbe7a07c1	-0.2441702
11	0x40be3a7c	5.944639
12	0xc17a9c23	-15.663119
13	0x3f8d265b	1.102733
14	0x3ebb5176	0.36585587
15	0xbefe7bfb	-0.49703965

layer1.1.running_var f4 [16]
0	0x4398104a	304.12726
1	0x44263fb2	664.99524
2	0x43fb6252	502.76813
3	0x438281e2	261.0147
4	0x45e1da76	7227.3076
5	0x43a0f82f	321.93893
6	0x43d074a6	416.91132
7	0x45867123	4302.142
8	0x440235e7	520.8422
9	0x43b32e4e	358.36176
10	0x433524b4	181.14337
11	0x440aedea	555.7174
12	0x4522417b	2596.0925
13	0x42dbcd23	109.90066
14	0x430e9710	142.59009
15	0x43ba6201	372.76566

layer2.0.weight f4 [32, 16, 2, 2]
0	0xbdbc9573	-0.09208193
1	0xbd7e023c	-0.06201385
2	0xbdce2599	-0.10065765
3	0xbcf5bd6e	-0.029997554
4	0x3d50f561	0.05101526
5	0xbcca934e	-0.024728443
6	0xbcb326cf	-0.021869091
7	0xbcabca96	-0.020970624
8	0x3db642cb	0.088994585
9	0xbe00eb66	-0.12589797
10	0x3d467f6d	0.048461366
11	0x3cf3647a	0.029710997
12	0xbe5b3650	-0.21407437
13	0x3d151187	0.03639367
14	0xbe3de56e	-0.18544552
15	0xbd63ab2a	-0.055583157
16	0xbc70bde4	-0.014693711
17	0xbe1283d9	-0.14308108
18	0x3c9cc27a	0.019135702
19	0x3d84d8f1	0.06486691
20	0x3cba34cb	0.022730252
21	0x3d45f1c8	0.048326284
22	0xbe2c318c	-0.16815776
23	0xbd03a317	-0.032137956
24	0xbce1fa3a	-0.027585138
25	0xbe160d1c	-0.14653438
26	0x3d0d70e4	0.03453149
27	0x3d8133ae	0.06308685
28	0x3d95d59f	0.073161356
29	0x3d8a7835	0.06761209
30	0x3e119026	0.14215145
31	0x3d89e7e0	0.0673368
32	0xbc46d416	-0.012135526
33	0x3c4405a6	0.011964237
34	0xbdc11de3	-0.094295286
35	0x3d2ec5fc	0.04266928
36	0x3e043f92	0.12914875
37	0x3e5361d1	0.20642783
38	0x3d65d546	0.056111597
39	0x3d3565cf	0.044286545
40	0x3d781b97	0.060573187
41	0xbd2fda85	-0.042933006
42	0xbdadb197	-0.08481138
43	0xbde8a4bf	-0.11359548
44	0x3e2d57dc	0.16928047
45	0x3e1113fd	0.14167781
46	0xbd3eaed2	-0.04655344
47	0x3d8f6560	0.070017576
48	0x3d8d1901	0.06889535
49	0x3d61cf12	0.05512912
50	0x3e1d698d	0.15372296
51	0x3d900c20	0.07033563
52	0xbc546acf	-0.012964918
53	0xbc965ba8	-0.018354252
54	0x3d5a4bbb	0.05329488
55	0x3d03619f	0.03207552
56	0xbe089c7a	-0.13340941
57	0x3d59cf0c	0.05317597
58	0x3d2cc5ac	0.042180702
59	0x3df020a9	0.117249794
60	0xbe6a8ed3	-0.22906046
61	0x3b41efe4	0.002959245
62	0xbd2e2571	-0.042516176
63	0x3dfdf4b4	0.12400189
64	0x3d1d7efc	0.03845118
65	0xbbeec475	-0.007286603
66	0x3e400974	0.18753606
67	0x3d9b60b7	0.07586806
68	0xbd048a0f	-0.032358225
69	0x3dbeb1d2	0.0931126
70	0xbda0128d	-0.07816038
71	0xba828770	-0.0009958576
72	0x3c5067c3	0.012720051
73	0xbd7cf71a	-0.061759092
74	0x3e33f97f	0.17575644
75	0x3e221d7c	0.1583156
76	0x3d6c7773	0.057731103
77	0x3d6ca201	0.057771686
78	0x3da6994d	0.081347086
79	0xbd685fcb	-0.05673198
80	0xbe0e0b60	-0.13871527
81	0xbbbcce6e	-0.005761913
82	0xbdeffd95	-0.11718289
83	0x3df55916	0.119798824
84	0xbe23aa12	-0.15982845
85	0xbde48beb	-0.111595
86	0xbe4ee28c	-0.20203608
87	0xbd708664	-0.058721915
88	0x3d209e94	0.039213732
89	0xbd6b6ccd	-0.057476807
90	0x3de3d9c9	0.111255236
91	0x3c0df9fe	0.00866556
92	0x3db32b09	0.08748443
93	0xbd5f7b84	-0.054561153
94	0x3e268c4d	0.16264458
95	0x3e318da8	0.17339194
96	0x3c0e2bf9	0.008677476
97	0x3dd70e24	0.10500744
98	0x3d5be7be	0.053687803
99	0x3e0b98f2	0.13632563
100	0xbd2f6481	-0.042820457
101	0xbcf7081b	-0.030155232
102	0xbc1c682d	-0.009546322
103	0xbd875027	-0.06607085
104	0xbd86dea8	-0.06585437
105	0xbe0b58b5	-0.13608058
106	0xbdb32214	-0.08746734
107	0x3d4c6c51	0.049907986
108	0x3d238160	0.039918303
109	0x3bdf1ab7	0.0068086046
110	0xbda41277	-0.080113344
111	0x3daeb490	0.08530533
112	0xbd6bfcba	-0.057614066
113	0xbdc3fda9	-0.09569866
114	0xbe3b4e73	-0.18291645
115	0x3b775760	0.0037741289
116	0x3d5486b0	0.05188626
117	0xbdfa276f	-0.122145526
118	0x3def16fe	0.11674307
119	0x3dc964be	0.09833668
120	0xbd9c7fe7	-0.07641583
121	0x3d8cb7ee	0.06871019
122	0xbde87d2f	-0.11352002
123	0x3d24f440	0.040271997
124	0x3d8ed0da	0.06973429
125	0xbdac16c2	-0.08402778
126	0xbe5ac8d6	-0.21365675
127	0xbddabf86	-0.106810614
128	0x3e7207dd	0.23635812
129	0x3e50f51f	0.20406006
130	0x3e035d63	0.12828593
131	0x3e027ce3	0.12742953
132	0x3d1da9e0	0.038492084
133	0x3c1380b9	0.009002858
134	0x3d896e2e	0.06710468
135	0xbaca3acf	-0.0015428903
136	0x3d386f0f	0.04502779
137	0xbd1128ac	-0.03543918
138	0x3a92e239	0.0011206336
139	0xbe449115	-0.1919597
140	0x3e4cd10c	0.2000162
141	0x3e399df8	0.18126667
142	0x3b498d46	0.0030754372
143	0x3dc2e843	0.09516957
144	0x3e017b0f	0.126446
145	0x3cff44eb	0.031160792
146	0xbdce2fd1	-0.10067714
147	0xbdecee24	-0.11568859
148	0x3dcd9607	0.10038381
149	0xbd3d4cbc	-0.046215758
150	0x3de830a2	0.11337401
151	0xbda27c7e	-0.07933901
152	0xbcb420cb	-0.021988293
153	0x3acc58c4	0.0015590419
154	0x3c7bc232	0.015366124
155	0x3da434fd	0.08017919
156	0xbe896514	-0.2683493
157	0x3ca45e83	0.020064598
158	0xbe1a7bca	-0.15086284
159	0xbd7247ba	-0.059150435
160	0x3c77b7fb	0.015119548
161	0xbdf2e965	-0.11860923
162	0x3e0987cd	0.1343071
163	0x3e0503dc	0.12989753
164	0x3e2019a5	0.15634783
165	0x3d62d91a	0.055382825
166	0xbce48b14	-0.027898349
167	0x3dea4131	0.114382155
168	0x3cd4e5c9	0.025988476
169	0x3cce9bb1	0.025220724
170	0x3bdaf221	0.006681696
171	0xbdc76bee	-0.09737383
172	0xbe04999f	-0.12949227
173	0xbd84b192	-0.06479181
174	0x3d511321	0.051043633
175	0xbe045c28	-0.1292578
176	0x3d323ae9	0.043513212
177	0x3db09d3d	0.08623741
178	0x3a8da538	0.0010806685
179	0xbd910376	-0.07080738
180	0xbddecd29	-0.10878975
181	0xbc908169	-0.017639833
182	0x3d7aab51	0.061198536
183	0x3dd7eb34	0.10542908
184	0x3da7be92	0.08190645
185	0x3ca16aef	0.01970431
186	0x3d9cba0f	0.07652675
187	0xbe039b79	-0.12852277
188	0xbe3194f8	-0.17341983
189	0x3d83fc9a	0.06444664
190	0xbe2c1635	-0.16805346
191	0x3d03c1ae	0.03216713
192	0xbe6f90f4	-0.23395139
193	0xbe81d472	-0.25357395
194	0x3c5ecabe	0.013598142
195	0x3e2033a9	0.15644707
196	0xbd572ca5	-0.05253281
197	0x3d72e00b	0.059295695
198	0x3de19e84	0.110165626
199	0x3dd6aaa2	0.104817644
200	0xbe2e100c	-0.16998309
201	0xbde332d8	-0.11093682
202	0xbd8c2778	-0.068434656
203	0x3d797954	0.060906723
204	0xbe5ec444	-0.21754557
205	0xbe976d63	-0.29575643
206	0x3deaf854	0.11473146
207	0x3d21ad25	0.039471764
208	0xbdd12d1b	-0.10213681
209	0xbd40c7d4	-0.04706557
210	0x3e1f51e5	0.15558584
211	0x3e1952cd	0.14972992
212	0xbe86141f	-0.26187226
213	0x3d086887	0.03330281
214	0x3dfb9d01	0.122858055
215	0xbc681cfe	-0.0141670685
216	0x3da473e2	0.080299154
217	0xbe7c5026	-0.24639949
218	0x3dcfc84c	0.101456255
219	0x3d154a7f	0.036447998
220	0x3d40b1f0	0.047044694
221	0x3df899eb	0.121387325
222	0xbd5e3bc2	-0.05425621
223	0x3db93b14	0.090444714
224	0xbdbccdc7	-0.092189364
225	0x3db2f93f	0.08738946
226	0xbdae6563	-0.08515432
227	0xbd089118	-0.033341497
228	0xbdc40dba	-0.09572931
229	0xbd12c8de	-0.035836093
230	0x3c9b2c25	0.018941948
231	0x3b36fdc3	0.002792225
232	0x3d8eaeda	0.06966944
233	0x3c3f59f2	0.0116791595
234	0x3b57b30c	0.0032913117
235	0xbe2c06ea	-0.16799513
236	0xbc2e4fb0	-0.010639116
237	0xbbc3296a	-0.0059558647
238	0x3e011d9c	0.12608951
239	0xbd950e23	-0.07278087
240	0x3d99c310	0.07507908
241	0xbd5fad8f	-0.054608878
242	0x3e453c91	0.19261386
243	0x3dea78ab	0.11448797
244	0xbdc862f8	-0.09784502
245	0xbdf2628b	-0.11835202
246	0xbd7cec1d	-0.061748613
247	0xbd0519ea	-0.032495417
248	0xbd032098	-0.032013506
249	0x3d262f9e	0.040572755
250	0xbd8c88a5	-0.068620004
251	0x3d565990	0.052331507
252	0xbe059e17	-0.13048588
253	0xbdd86708	-0.10566527
254	0x3bc0bfe3	0.0058822497
255	0xbd7da3cf	-0.0619238

layer2.0.bias f4 [32]
0	0xbd72852b	-0.05920903
1	0x3deb2164	0.11480978
2	0x3d030dce	0.031995587
3	0xbd9fe2a1	-0.07806898
4	0xbb6bb7f3	-0.0035967797
5	0xbdf79af3	-0.12090101
6	0x3cae9b33	0.02131424
7	0x3e1a71c1	0.15082456
8	0x3d434854	0.0476764
9	0x3e56685e	0.2093825
10	0x3dd3ef9b	0.103484355
11	0x3c85af4e	0.016318943
12	0x3d3e69f4	0.046487764
13	0xbd2aad64	-0.041669264
14	0x395ea5f3	0.0002123339
15	0x3d005f3a	0.031340815
16	0xbd3a6eb4	-0.04551573
17	0xbdd59cfd	-0.10430334
18	0xbd53eabd	-0.051737536
19	0xbdd10945	-0.10206846
20	0x3e032c74	0.12809926
21	0xbc0fd6c5	-0.008779232
22	0x3e028c22	0.12748769
23	0x3d4fbb0b	0.050715487
24	0xbd0957df	-0.033531066
25	0xbd51eef6	-0.05125328
26	0x3d18a983	0.037271034
27	0xbe3b6d16	-0.18303332
28	0xbda8cfc7	-0.082427554
29	0x3d4f22b8	0.05057022
30	0xbd17e701	-0.037085537
31	0xbd89c323	-0.067266725

layer2.1.weight f4 [32]
0	0x3f413f6b	0.75487393
1	0x3ec9b706	0.39397448
2	0x3e26078f	0.16213821
3	0x3ea67179	0.32508448
4	0x3f5da584	0.8658068
5	0x3ec8d56e	0.39225334
6	0x3e6ca7ad	0.23110838
7	0x3f5af742	0.85533535
8	0x3efe5011	0.4967046
9	0x3e0016a2	0.12508634
10	0x3f7a57b4	0.97790074
11	0x3f5a46c2	0.8526422
12	0x3f7e806d	0.9941471
13	0x3f3b692e	0.73207366
14	0x3ee18074	0.44043314
15	0x3eba49b1	0.36384347
16	0x3f5c4f0b	0.8605811
17	0x3f05f206	0.52322423
18	0x3f1c12dc	0.6096628
19	0x3dcd5860	0.10026622
20	0x3e9405cd	0.28910676
21	0x3f40ce1c	0.753145
22	0x3ef86c94	0.4852034
23	0x3e82752e	0.25480026
24	0x3dfd3f32	0.12365569
25	0x3f2b9585	0.67025024
26	0x3ed3ad47	0.41343138
27	0x3d85f77a	0.06541343
28	0x3f78e618	0.97226095
29	0x3f8549cd	1.0413147
30	0x3e9a3bc8	0.30123734
31	0x3e9800c8	0.29688096

layer2.1.bias f4 [32]
0	0xbe3ffb2c	-0.18748158
1	0xbd26aac1	-0.040690187
2	0x3c34d051	0.011035995
3	0xbdc95b29	-0.098318405
4	0xbd2f888d	-0.042854834
5	0xbcb921f5	-0.0225992
6	0xbe44e1da	-0.1922678
7	0xbe8b578a	-0.27215225
8	0xbe2555dc	-0.16146034
9	0x3c3f9f5c	0.011695709
10	0xbdada6d0	-0.084790826
11	0xbd4efbbc	-0.05053304
12	0xbec0abad	-0.37630978
13	0xbd2ef876	-0.04271742
14	0xbe46861f	-0.193871
15	0xbe4fbdc5	-0.20287235
16	0xbddf3bca	-0.10900076
17	0xbe19f74a	-0.1503574
18	0xbe442c39	-0.19157495
19	0x3e19a963	0.15006022
20	0x3ba3a727	0.0049942913
21	0xbda62464	-0.0811241
22	0x3d4f074a	0.05054406
23	0xbe0b952f	-0.13631128
24	0xbc95a58d	-0.018267417
25	0x3c4640bb	0.012100394
26	0x3ca2f4ca	0.019892115
27	0xbd947c62	-0.07250287
28	0xbe0fac6a	-0.14030614
29	0xbe43f15c	-0.1913504
30	0xbe030930	-0.12796474
31	0xbd898110	-0.0671407

layer2.1.running_mean f4 [32]
0	0xbc8bee96	-0.01708154
1	0x3e4164e2	0.1888614
2	0x3db9b0f5	0.09066955
3	0xbe830790	-0.25591707
4	0xbd8a3817	-0.067489795
5	0xbe828557	-0.25492355
6	0xbdb68b2e	-0.08913265
7	0x3ce22ac0	0.027608275
8	0xbd42f767	-0.047599223
9	0x3ee9a727	0.4563534
10	0x3e3e020b	0.18555467
11	0xbd0ff3fd	-0.035144795
12	0xbb129e01	-0.002237201
13	0xbe54e2b0	-0.207896
14	0xbe285023	-0.1643682
15	0x3dcd5a03	0.10026934
16	0xbe414a0b	-0.18875901
17	0xbdc9702a	-0.09835847
18	0xbe19afad	-0.15008421
19	0xbe9f03c0	-0.3105755
20	0x3e950305	0.29103866
21	0xbdd6a0da	-0.10479899
22	0xbd8f7be1	-0.0700605
23	0x3cc10c07	0.023565305
24	0xbc319114	-0.010837812
25	0xbdffc284	-0.12488273
26	0xbe1703ce	-0.14747545
27	0xbe552fc9	-0.2081901
28	0xbe9e8ebc	-0.30968273
29	0xbe0883c6	-0.13331518
30	0xbe112e20	-0.14177752
31	0xbe3223c4	-0.17396456

layer2.1.running_var f4 [32]
0	0x3ddee977	0.10884374
1	0x3e2fb2ab	0.17158
2	0x3da249d6	0.07924239
3	0x3e11441b	0.14186136
4	0x3e011c70	0.12608504
5	0x3db7650e	0.089548215
6	0x3d86f636	0.0658993
7	0x3dcc0617	0.09962099
8	0x3d937acf	0.07201158
9	0x3e5c3670	0.21505141
10	0x3f058f17	0.5217146
11	0x3ddf539e	0.109046206
12	0x3d7fb30c	0.06242661
13	0x3e0dfc17	0.13865696
14	0x3e572700	0.21010971
15	0x3db8c6fa	0.09022327
16	0x3eb2ad85	0.3489801
17	0x3dc1e4c6	0.09467463
18	0x3e0603fa	0.13087454
19	0x3df4f5b2	0.11960925
20	0x3de41a75	0.11137859
21	0x3eb1af95	0.3470427
22	0x3e1d9345	0.1538821
23	0x3d807b94	0.06273571
24	0x3e14f55c	0.14546722
25	0x3d81f606	0.06345753
26	0x3d3767aa	0.044776596
27	0x3dc980e9	0.09839041
28	0x3e93ba4f	0.2885308
29	0x3e04aaa5	0.1295572
30	0x3e077534	0.13228303
31	0x3d5f1f4c	0.054473206

layer3.0.weight f4 [64, 32, 2, 2]
0	0x3d70d37a	0.05879543
1	0x3cbb5083	0.02286554
2	0xbd2d85ad	-0.04236381
3	0x3d759fc0	0.059966803
4	0xbd38782b	-0.045036476
5	0x3d348f0e	0.04408174
6	0xbd9ba730	-0.07600248
7	0xbdf0b1e4	-0.1175268
8	0xbdda791a	-0.106676295
9	0x3c9f8f0e	0.019477393
10	0xbdc34125	-0.0953391
11	0x3e2d804b	0.16943471
12	0x3d81d6d9	0.06339807
13	0xbe16b1df	-0.1471629
14	0x3e760d3d	0.24028488
15	0xbcaca345	-0.021073947
16	0xbcc464ee	-0.023973908
17	0x3db3dd8d	0.08782492
18	0xbe1558fd	-0.14584728
19	0xbd072c89	-0.033001456
20	0x3d443964	0.047906294
21	0xba49a8fa	-0.0007692721
22	0xbe5f25e7	-0.21791802
23	0x3d608395	0.054812986
24	0x3d067d09	0.032834087
25	0xbcdcfa36	-0.026974779
26	0xbe05279b	-0.1300339
27	0xbc8eb98c	-0.01742246
28	0xbca7ae6d	-0.020468915
29	0xbdaf1dba	-0.08550592
30	0x3d19c8fb	0.037545186
31	0x3e0266a0	0.12734461
32	0x3d26fc8a	0.040768184
33	0x3d7b9764	0.061423674
34	0x3ba2408d	0.0049515427
35	0x3d83c154	0.06433359
36	0x3d082c08	0.033245116
37	0xbcb0b022	-0.021568362
38	0x3d3d4058	0.04620394
39	0x3d28b3a9	0.041186962
40	0x3d6c9aae	0.0577647
41	0x3d66a482	0.05630923
42	0xbac483bf	-0.0014992877
43	0xbd3c08ff	-0.045907017
44	0xbe04ac1a	-0.12956277
45	0x3d3d53dc	0.046222553
46	0xbd4ff0b7	-0.050766673
47	0xbd12bb7a	-0.035823323
48	0x3bd225d9	0.006413203
49	0xbde165e2	-0.11005761
50	0x3d8cddf1	0.068782695
51	0x3befd0dd	0.0073185996
52	0xbd9b6910	-0.075883985
53	0xbd8b8f86	-0.06814484
54	0xbbe79d63	-0.0070683225
55	0x3d19cbe5	0.037547965
56	0xbd9bd4b5	-0.0760893
57	0x3d743d09	0.05962852
58	0x3cad0e65	0.021125028
59	0xbb123437	-0.0022308955
60	0xbdc02206	-0.093814895
61	0xbd09ada3	-0.03361286
62	0x3e42e1dd	0.19031473
63	0x3cc597b1	0.024120184
64	0x3e05cfbf	0.1306753
65	0x3cf6466c	0.030062877
66	0x3d974767	0.07386666
67	0x3d9a3571	0.075297244
68	0xbdba81b6	-0.09106772
69	0xbb0e53c0	-0.00217174
70	0x3e209c1f	0.15684555
71	0xbc6376b6	-0.013883283
72	0xbde8b8a4	-0.113633424
73	0xbd6b5c9d	-0.05746137
74	0x3d92e33d	0.071722485
75	0xbc5162ae	-0.012779875
76	0x3d716601	0.05893517
77	0xbe34f99c	-0.17673343
78	0xbe2481ef	-0.1606519
79	0xbc6f3466	-0.014599895
80	0xbda79aa3	-0.081837915
81	0xbc221d8e	-0.009894742
82	0xbdb2df0a	-0.087339476
83	0x3c1a5569	0.009419777
84	0xbe4fe31a	-0.20301476
85	0xbe14cb03	-0.14530568
86	0x3df6ee6d	0.12057195
87	0xbccd2243	-0.025040751
88	0xba644910	-0.0008708397
89	0x3c116181	0.008873344
90	0xbe24b1c0	-0.16083431
91	0x3c9f3bf2	0.019437764
92	0x3cad6d72	0.021170352
93	0x3e2b637b	0.16737168
94	0xbe68e4b7	-0.22743498
95	0x3d86c997	0.06581419
96	0x3e04589a	0.12924424
97	0x3d6af23a	0.05735991
98	0xbdede846	-0.11616568
99	0xbc443e34	-0.011977721
100	0x3d3e4fc6	0.046462797
101	0x3cda74d8	0.026667044
102	0xbdb29e01	-0.08721543
103	0x3cc1d56a	0.023661334
104	0xbd832677	-0.06403821
105	0xbd6e088d	-0.058113623
106	0xbd5d72b9	-0.054064486
107	0x3d91fb23	0.07127979
108	0xbdc778c9	-0.09739835
109	0x3cce655c	0.025194816
110	0x3e16b805	0.14718635
111	0xbd33dd6c	-0.043912336
112	0x3d7faf73	0.06242318
113	0x3bdc834b	0.0067295185
114	0xbe128dbd	-0.14311881
115	0xbd8c70d1	-0.068574555
116	0x3d1b6ac1	0.037943605
117	0xbe645c8d	-0.2230093
118	0x3cf43f35	0.029815296
119	0x3b3fe824	0.0029282654
120	0xbe20cb25	-0.15702493
121	0x3dc73a29	0.0972789
122	0xbe7c12c0	-0.24616528
123	0x3daa347f	0.08310794
124	0xbd1498c6	-0.03627851
125	0xbde4c469	-0.11170275
126	0x3e9faba2	0.31185633
127	0xbc325c5b	-0.010886277
128	0xbb792c3f	-0.0038020757
129	0xbc4f8d43	-0.012667957
130	0x3d8ee48b	0.06977185
131	0xbdd3060f	-0.1030389
132	0x3d11028e	0.035402827
133	0x3c9abaab	0.018887838
134	0x3dc2a12f	0.095033996
135	0xbd7a6c96	-0.061138712
136	0xbe030c47	-0.12797652
137	0xbd363523	-0.04448427
138	0xbd982d62	-0.07430531
139	0xbdbaaa8f	-0.09114563
140	0xbe13fc2f	-0.14451669
141	0xbdababd0	-0.0838238
142	0xbd4c8d51	-0.049939457
143	0xbcef86ed	-0.029239142
144	0xb913282c	-0.00014033978
145	0xbe01a33b	-0.12659924
146	0xbcad1ecf	-0.021132855
147	0x3c91faf5	0.017819861
148	0xbdd2e8d4	-0.10298315
149	0xbdb2e0d7	-0.08734291
150	0x3d8d9eaa	0.069150284
151	0x3d900de4	0.070338994
152	0xbdb5287c	-0.088456124
153	0xbd2d16dc	-0.04225813
154	0x3d590523	0.052983414
155	0x3db76be5	0.08956126
156	0xbdd1c7c8	-0.102431834
157	0xbca89a70	-0.020581454
158	0x3db7ae68	0.08968812
159	0x3d25e1e0	0.040498614
160	0xbe3eb5bb	-0.18624012
161	0xbd74924e	-0.05970984
162	0x3ddeb3b3	0.10874119
163	0x3d3a0e49	0.04542378
164	0xbdb8fe7f	-0.09032916
165	0xbd028b3f	-0.031871077
166	0xbdea3d9a	-0.11437531
167	0xbd5fb74e	-0.054618172
168	0x3e02f935	0.12790377
169	0xbd77d85e	-0.06050908
170	0x3d7b6d0d	0.061383296
171	0xba8e7da0	-0.0010871179
172	0x3d071804	0.032981887
173	0x3e17274a	0.14761081
174	0xbd0db888	-0.03459981
175	0xbd88364f	-0.066509835
176	0xbe3c5971	-0.18393494
177	0xbcfe1660	-0.031016529
178	0x3d948614	0.07252136
179	0x3d6a4f04	0.05720426
180	0xbe2e9042	-0.17047217
181	0x3b593352	0.0033142162
182	0xbe11b018	-0.1422733
183	0xbc4c88da	-0.0124838
184	0x3dd31cfd	0.103082635
185	0x3dcfc12b	0.10144266
186	0x3e0bbb15	0.13645585
187	0x3c75b571	0.014996872
188	0xbd91ef3b	-0.07125708
189	0x3d982f86	0.074309394
190	0x3c916d38	0.017752275
191	0xbb953553	-0.004553476
192	0x3bad9eed	0.0052984864
193	0x3cf2e93b	0.029652229
194	0xbdaf2e86	-0.085537955
195	0x3da7411d	0.08166716
196	0x3d65c348	0.056094438
197	0x3dcb3d5d	0.099238135
198	0xbd462a8b	-0.048380416
199	0x3c8c7047	0.017143382
200	0x3e1b7d5a	0.15184537
201	0x3ce02d1f	0.027365265
202	0xbd9eada4	-0.07747963
203	0xbc3438f4	-0.010999907
204	0xbde41904	-0.11137584
205	0xbde57f34	-0.11205903
206	0xbda0e853	-0.07856812
207	0xbe387c33	-0.18016128
208	0x3cb0912f	0.021553604
209	0xbdf619c7	-0.120166354
210	0xbdc93653	-0.09824815
211	0xbdea91b0	-0.11453569
212	0xbd1d4ea7	-0.038405087
213	0x3c3c5b7f	0.011496424
214	0xbdd82d33	-0.10555496
215	0xbd511bfe	-0.051052086
216	0x3d2b823c	0.041872248
217	0xbe0e403c	-0.13891691
218	0x3d46eb8b	0.048564475
219	0x3bca9486	0.006182256
220	0x3cbabc47	0.022794856
221	0x3c4ec94e	0.012621237
222	0x3e3b863b	0.18312924
223	0x3dc8b56a	0.09800227
224	0xbd294f8b	-0.041335624
225	0xbd649445	-0.055805463
226	0xbc723993	-0.014784235
227	0xbcb5dbc8	-0.022199526
228	0xbd6b15c9	-0.057393823
229	0xbc8faa8f	-0.017537383
230	0x3d1d0600	0.0383358
231	0xbb1c2bb1	-0.0023829753
232	0xbdd71f0d	-0.10503969
233	0xbd05512c	-0.032548115
234	0x3bb3ef1f	0.005491152
235	0x3d2b77c9	0.041862283
236	0x3d42a1da	0.047517635
237	0x3e0a0ac9	0.13480677
238	0xbd29d3f6	-0.041461907
239	0xbdebec9b	-0.11519738
240	0x3dd4a152	0.10382332
241	0xbc69f7cc	-0.014280271
242	0x3d169ce3	0.036770713
243	0xbc6e6009	-0.014549264
244	0x3d2157e3	0.039390456
245	0x3da550c1	0.08072043
246	0xbd441b83	-0.0478778
247	0xbd3afd08	-0.045651466
248	0x3d594daa	0.05305258
249	0xbc1ee598	-0.009698294
250	0x3e193c36	0.14964375
251	0x3e008dcd	0.12554093
252	0x3d137b3a	0.03600619
253	0xbd8092b9	-0.06277985
254	0xbc93e861	-0.018055143
255	0xbde6b3ab	-0.11264738

layer3.0.bias f4 [64]
0	0xbdafefdd	-0.08590672
1	0xbcd66517	-0.02617125
2	0xbbb7eeea	-0.0056131976
3	0x3d207c88	0.039181262
4	0x3ca4181c	0.020031027
5	0xbcd5ab2a	-0.026082594
6	0x3dd91786	0.1060019
7	0x3d271e9f	0.040800687
8	0x3d3340be	0.043762915
9	0xbd9a2cb7	-0.0752806
10	0x3b7b8e5a	0.0038384409
11	0xbd9cb43c	-0.076515645
12	0xbc344c9b	-0.011004592
13	0x3d8d97b8	0.06913704
14	0xbdcc9de0	-0.0999105
15	0x3d847d0b	0.064691626
16	0x3cb246e0	0.021762311
17	0x3c3a760a	0.011380682
18	0x3d524297	0.051333036
19	0x3db189c7	0.08668857
20	0x3dcf3622	0.10117747
21	0xbce8e15b	-0.02842777
22	0xbc5dd988	-0.013540633
23	0xbd9c3d4b	-0.07628878
24	0x3da67cc7	0.08129268
25	0x3c63a8aa	0.013895193
26	0xbd00b789	-0.031425033
27	0xbd2a77a8	-0.04161802
28	0x3d7dabed	0.06193154
29	0x39f2c2d7	0.00046303004
30	0x3d8416e5	0.06449679
31	0x3d7a7a8d	0.06115203
32	0x3b74fa1b	0.003738052
33	0xbd0c8989	-0.03431085
34	0x3cc41c4c	0.023939274
35	0xbcd7930f	-0.02631524
36	0x3cbace3b	0.022803416
37	0x3e09c8e5	0.13455541
38	0x3c49d40b	0.012318621
39	0x3c5a42b2	0.013321565
40	0x3d835fa3	0.06414726
41	0x3deac142	0.11462642
42	0x3dcc5254	0.0997664
43	0xbd1fa8bb	-0.038979273
44	0x3a8ce72d	0.0010750048
45	0xbdf6aa3f	-0.120441906
46	0x3c03b37e	0.0080384
47	0xbd44cf88	-0.04804948
48	0x3cb9e213	0.022690808
49	0x3cd21bc0	0.025647998
50	0x3dd29c3d	0.10283706
51	0xbdadb3a2	-0.08481528
52	0xbd1e3579	-0.038625214
53	0x3cc3ce84	0.023902185
54	0xbb7e809a	-0.0038833977
55	0xbd52c378	-0.051455945
56	0x3c779af7	0.01511263
57	0xbd662328	-0.05618587
58	0x3c1b1a4b	0.009466718
59	0x3d96891c	0.0735037
60	0x3c88e792	0.016711984
61	0x3d2d065e	0.0422424
62	0xbb011740	-0.0019697696
63	0x3d52c683	0.051458847

layer3.1.weight f4 [64]
0	0x3e412626	0.18862209
1	0x3f3dece5	0.741896
2	0x3f4e26c3	0.80527896
3	0x3f3ae7bb	0.7300984
4	0x3ea22322	0.3166743
5	0x3f11057c	0.56648993
6	0x3e7101ac	0.23535794
7	0x3e851b53	0.2599741
8	0x3f44eb1a	0.76921237
9	0x3f3aed06	0.7301792
10	0x3f4ef5fd	0.808441
11	0x3f5ef3ba	0.8709065
12	0x3eb2bbcf	0.34908912
13	0x3f1a0a6c	0.6017215
14	0x3e8b2c91	0.2718244
15	0x3e32571f	0.17416047
16	0x3eea9b9f	0.45821854
17	0x3e9c5237	0.30531475
18	0x3f7419aa	0.9535166
19	0x3dea11ee	0.11429201
20	0x3f77d443	0.9680826
21	0x3eec3b09	0.4613879
22	0x3eba8d5c	0.36435974
23	0x3f63c1ee	0.8896779
24	0x3ec42991	0.38312963
25	0x3eea0dc4	0.45713627
26	0x3f2c26e4	0.6724684
27	0x3ed265a1	0.41093162
28	0x3f0c8894	0.548959
29	0x3f4978af	0.78699774
30	0x3f165acf	0.5873231
31	0x3f49d4b4	0.78840184
32	0x3ebe86de	0.3721227
33	0x3f0728e8	0.52796793
34	0x3effda63	0.49971303
35	0x3e9ee733	0.31035766
36	0x3efaa155	0.48951212
37	0x3f2f9d16	0.6859907
38	0x3e8a6602	0.2703095
39	0x3f5778be	0.8416861
40	0x3e491023	0.19635062
41	0x3f2e701a	0.68139803
42	0x3f1b6e4c	0.60715175
43	0x3e69cb00	0.22831345
44	0x3f5ab2a9	0.85428864
45	0x3ef236c8	0.4730742
46	0x3ec51a08	0.38496423
47	0x3e98a75d	0.29815188
48	0xbca8f164	-0.020622917
49	0x3f4f6632	0.8101531
50	0x3e93a97e	0.2884025
51	0x3f481390	0.7815485
52	0x3f31b7b0	0.6942091
53	0x3f533394	0.82500577
54	0x3f3d1554	0.7386067
55	0x3f3b1665	0.73081046
56	0x3e4cdd34	0.20006257
57	0x3f02d26e	0.5110234
58	0x3eb18d2f	0.34678027
59	0x3f5d4a7e	0.8644179
60	0x3f1feb9d	0.6246889
61	0x3f1680ff	0.5879058
62	0x3e27e8e8	0.1639744
63	0x3e65dd04	0.22447592

layer3.1.bias f4 [64]
0	0xbdcaa542	-0.09894802
1	0xbe24a52d	-0.16078635
2	0xbd5947b9	-0.053046916
3	0xbe656e85	-0.22405441
4	0xbd0fb478	-0.035084218
5	0xbd6ca119	-0.057770822
6	0xbdfaf3a2	-0.122535005
7	0xbd6cad9e	-0.05778276
8	0xbdad7ee2	-0.084714666
9	0xbd7a440e	-0.06110006
10	0xbe5a2f6d	-0.21307154
11	0xbdee2b3a	-0.116293386
12	0xbdb90292	-0.090336934
13	0xbdef3978	-0.11680883
14	0xbdddf5f1	-0.10837925
15	0xbdae9324	-0.085241586
16	0xbdbaa04a	-0.09112604
17	0xbd8d2ed4	-0.068936974
18	0xbe27b037	-0.16375814
19	0xbcf1d4dc	-0.029520445
20	0xbdd9732b	-0.1061767
21	0xbe00f1a3	-0.12592177
22	0xbdfcc3c8	-0.1234203
23	0xbddca060	-0.107727766
24	0xbdd77662	-0.105206266
25	0xbcbd1b17	-0.023084207
26	0xbda53a9f	-0.08067822
27	0xbe014ed8	-0.12627733
28	0xbdf92c1e	-0.12166618
29	0xbdeab645	-0.114605464
30	0xbe1fd595	-0.15608819
31	0xbe1c23e8	-0.15248072
32	0xbc9cc843	-0.019138461
33	0xbd4f12a9	-0.050554905
34	0xbdf37136	-0.11886828
35	0x3c43af5d	0.011943665
36	0xbd535ad2	-0.051600285
37	0xbe006620	-0.12538958
38	0xbd70e028	-0.058807522
39	0xbe3f4d54	-0.18681842
40	0xbd598f30	-0.05311507
41	0xbdf2546e	-0.1183251
42	0xbe31cef7	-0.17364107
43	0xbd9d5fe9	-0.07684309
44	0xbd24b778	-0.040214032
45	0xbe07c4b5	-0.13258632
46	0xbdd506ac	-0.10401663
47	0xbd8b74e4	-0.068094045
48	0x3a7e9bc6	0.0009712543
49	0xbe0c9bba	-0.1373128
50	0xbd4d848c	-0.050175235
51	0xbde2d41a	-0.110756114
52	0xbddb7c46	-0.10717063
53	0xbe53ef91	-0.20696856
54	0xbd9c3b67	-0.076285176
55	0xbe2dad44	-0.16960627
56	0xbd89ec42	-0.06734516
57	0x3c85bb6a	0.016324718
58	0xbdc752bb	-0.097325765
59	0xbdc20fdc	-0.09475681
60	0xbd91a721	-0.071119554
61	0xbe0cb160	-0.13739538
62	0xbd6ca1f7	-0.05777165
63	0xbe082a3f	-0.13297366

layer3.1.running_mean f4 [64]
0	0xbe5f8d99	-0.21831359
1	0xbe5ded13	-0.21672468
2	0xbdacef44	-0.08444074
3	0xbde305c2	-0.110850826
4	0xbbb40294	-0.0054934714
5	0xbdfac586	-0.12244706
6	0xbd2318c0	-0.039818525
7	0x3c1d673d	0.009607133
8	0xbc91f5d1	-0.01781741
9	0xbe19e806	-0.15029916
10	0xbd9a5fc8	-0.075378
11	0xbdf534a8	-0.11972934
12	0xbdc8c4e6	-0.098031804
13	0x3df29dce	0.11846505
14	0xbe4d9759	-0.20077266
15	0xbd079c75	-0.033108193
16	0xbd81d685	-0.063397445
17	0xbc566294	-0.013085026
18	0xbdf9b9c0	-0.12193632
19	0x3ddd7fe0	0.10815406
20	0x3c375284	0.011189107
21	0xbe15a854	-0.14614993
22	0xbe5dc685	-0.2165776
23	0xbde8f7a9	-0.113753624
24	0xbdab28e6	-0.0835741
25	0xbda86518	-0.08222407
26	0xbd1a06ee	-0.037604265
27	0xbdbdfc10	-0.09276593
28	0xbb2c6404	-0.002630473
29	0xbe52e89e	-0.20596549
30	0xbd06f260	-0.03294599
31	0xbd975998	-0.073901355
32	0xbe074dc1	-0.13213255
33	0xbddef7ac	-0.108870834
34	0xbd943b30	-0.072378516
35	0xbdac20a2	-0.08404662
36	0xbe20f80a	-0.1571962
37	0x3d5720ee	0.05252164
38	0x3c6467dc	0.013940778
39	0xbe21effb	-0.15814202
40	0x3d6bce03	0.057569515
41	0xbd1cb5dc	-0.038259372
42	0xbe078c3a	-0.13237086
43	0xbd1a4ffc	-0.037673935
44	0xbda09190	-0.07840264
45	0xbe7605d3	-0.2402566
46	0xbe547910	-0.20749307
47	0xbdb19f02	-0.086729065
48	0xbce8370e	-0.028346565
49	0xbd71e928	-0.059060246
50	0xbd88dfb5	-0.06683294
51	0xbdf49f50	-0.11944449
52	0xbdf490d8	-0.11941689
53	0xbe1923da	-0.14955083
54	0xbdc72a8b	-0.09724911
55	0xbe5049b0	-0.2034061
56	0x3c2547ea	0.010087946
57	0xbd6acd1a	-0.057324506
58	0x3c89e3cc	0.016832255
59	0x3e51711c	0.20453304
60	0x3c5f618c	0.013634097
61	0xbd48c2d2	-0.04901392
62	0xbda3b188	-0.07992846
63	0xbdd5eb22	-0.10445239

layer3.1.running_var f4 [64]
0	0x3e6cfa93	0.23142461
1	0x3dfdfc83	0.124016784
2	0x3e398079	0.18115415
3	0x3e1edc58	0.15513742
4	0x3df86dba	0.12130304
5	0x3e1d6b11	0.15372874
6	0x3da0cb19	0.07851238
7	0x3e1d12f6	0.15339264
8	0x3e6636aa	0.2248179
9	0x3ea4fc01	0.32223514
10	0x3e708b3b	0.23490612
11	0x3e7111cd	0.23541947
12	0x3de9196b	0.11381801
13	0x3e9dd8ff	0.30829617
14	0x3e0a551b	0.13509028
15	0x3dd9640c	0.106147856
16	0x3e22556d	0.158529
17	0x3dd5a852	0.10432495
18	0x3e88c33d	0.26711455
19	0x3e9a0da9	0.30088547
20	0x3eb581e0	0.3545065
21	0x3df3f94e	0.119127855
22	0x3e11d798	0.14242399
23	0x3ec62f94	0.38708174
24	0x3e886268	0.26637578
25	0x3e0e6dbe	0.13909051
26	0x3e0fc0b2	0.14038351
27	0x3e1d8e8a	0.15386406
28	0x3e374441	0.1789713
29	0x3e9e40b2	0.30908734
30	0x3e2f8fc4	0.17144686
31	0x3ecd685c	0.40118682
32	0x3e327cd7	0.17430435
33	0x3e64847d	0.22316165
34	0x3e138301	0.14405443
35	0x3e54af97	0.20770107
36	0x3e2c357a	0.16817275
37	0x3e94f4c2	0.29092985
38	0x3dfa86cf	0.12232744
39	0x3e2c25e7	0.16811334
40	0x3e963d93	0.29343852
41	0x3ed646c8	0.41850877
42	0x3e975b04	0.29561627
43	0x3dfb5bac	0.122733444
44	0x3e544ba0	0.20731974
45	0x3e131d2e	0.143666
46	0x3e54d780	0.20785332
47	0x3e436be0	0.1908412
48	0x3ecc39c2	0.39887816
49	0x3e107dc2	0.14110473
50	0x3e094ca0	0.13408136
51	0x3e823e72	0.25438267
52	0x3ead3d73	0.33835945
53	0x3e4a1f2c	0.19738454
54	0x3ea673bd	0.32510176
55	0x3e21d510	0.15803933
56	0x3e2cdb1d	0.1688046
57	0x3e74c4df	0.23903225
58	0x3e50b9fd	0.20383449
59	0x3ec08ac6	0.37605876
60	0x3e8ce769	0.27520302
61	0x3e90ff5e	0.2831983
62	0x3e43e081	0.1912861
63	0x3e61a93d	0.22037216

layer4.0.weight f4 [128, 64, 2, 2]
0	0xbe5b640a	-0.2142488
1	0x3e222025	0.15832575
2	0x3d7d61b1	0.061860744
3	0xbdc29fe3	-0.09503152
4	0xbd3853a0	-0.045001626
5	0x3d541cb6	0.051785193
6	0x3d9cc4ba	0.0765471
7	0xbc84f8a9	-0.016231852
8	0xbde781b1	-0.113040335
9	0x3c54a781	0.012979389
10	0xbd7ce713	-0.061743807
11	0xbd379fe3	-0.044830214
12	0xbd4b48a9	-0.04962984
13	0xbc940a14	-0.018071212
14	0x3d41dc99	0.04732952
15	0xbd5ef086	-0.0544286
16	0x3dddad23	0.10824039
17	0x3d9cf72a	0.0766433
18	0xbdb18236	-0.08667414
19	0x3c197afe	0.0093677025
20	0xbdc57446	-0.09641318
21	0x3cfb3b8e	0.030668046
22	0x3bf54bb7	0.0074858326
23	0x3d96f15a	0.07370253
24	0xbde72246	-0.11285834
25	0xbd12bdbe	-0.035825484
26	0x3c319ace	0.010840131
27	0x3cfda1da	0.030960966
28	0xbcf8a08b	-0.03034999
29	0xbda2f0e3	-0.07956102
30	0xbd0f504c	-0.034988686
31	0xbe2d1b7f	-0.1690502
32	0xbcced399	-0.025247382
33	0xbd917bb6	-0.07103674
34	0xbd786689	-0.06064466
35	0xbc846aeb	-0.016164264
36	0x3c44d848	0.012014456
37	0x3d9f07d0	0.07765162
38	0x3df52980	0.11970806
39	0xbe11a72a	-0.14223924
40	0x3cc46f36	0.02397881
41	0x3dbce7d5	0.09223906
42	0x39d4556c	0.00040499435
43	0xbdba0b8a	-0.09084232
44	0x3d08c724	0.03339304
45	0x3d1426c7	0.036169793
46	0xbc831e00	-0.016005516
47	0xbdd5432e	-0.10413204
48	0xbbf8c9e2	-0.0075924257
49	0xbc847255	-0.016167799
50	0xbd32eb6b	-0.043681543
51	0xbd9a32a5	-0.07529191
52	0xbdbcf244	-0.09225896
53	0x3d28374a	0.041068353
54	0xbcf55b73	-0.029950833
55	0xbd139e48	-0.03603962
56	0xbde4996d	-0.11162076
57	0x3de8d91e	0.11369537
58	0x3df56798	0.119826496
59	0xbd830a22	-0.06398417
60	0x3e07956a	0.1324059
61	0x3d179be4	0.037013903
62	0xbe0d1064	-0.13775784
63	0xbdaf964d	-0.085735895
64	0x3d15928c	0.03651671
65	0xbe007ba4	-0.12547165
66	0x3d7a4472	0.06110043
67	0x3dbf4320	0.09338975
68	0x3bbad6ee	0.005701891
69	0x3c2273b5	0.009915282
70	0xbbd0783c	-0.0063619893
71	0x3d473c4f	0.0486415
72	0xbdbe5a2a	-0.09294541
73	0x3e08017c	0.13281816
74	0xbe13366c	-0.14376229
75	0xbd3a250f	-0.045445498
76	0x3e23455a	0.15944424
77	0xbc3ecae6	-0.011645054
78	0xbe30be7b	-0.17260163
79	0x3d973750	0.07383597
80	0xbe086e5e	-0.13323352
81	0x3e1ef5c8	0.15523446
82	0x3e040807	0.12893687
83	0xbdb8b27b	-0.090184174
84	0xbd31722e	-0.04332178
85	0xbdd5aa68	-0.10432893
86	0xbce8621b	-0.028367093
87	0x3ad72a87	0.0016415872
88	0xbc925918	-0.017864749
89	0xbe186336	-0.14881596
90	0xbc9efbb5	-0.019407133
91	0xbb5ca850	-0.0033669658
92	0xbe02e088	-0.12780964
93	0xbadefb72	-0.0017012192
94	0xbd1edf76	-0.038787328
95	0xbd924566	-0.07142143
96	0xbc194388	-0.00935448
97	0xbc8bf75c	-0.017085724
98	0xbd8579f3	-0.065174006
99	0xbcaa990e	-0.020824935
100	0xbdaec961	-0.08534504
101	0xbd24d91e	-0.04024612
102	0xbcdef189	-0.027214782
103	0x3d83a989	0.06428821
104	0x3d408c49	0.047008786
105	0xbc43affd	-0.011943814
106	0x3d232189	0.039826903
107	0xbdd864c9	-0.10566098
108	0xbd5d0e76	-0.05396887
109	0xbc3c1d59	-0.011481606
110	0xbe42b135	-0.19012912
111	0x3ca9962d	0.020701492
112	0xbb0d3a48	-0.002154963
113	0x3d3ab6c3	0.04558445
114	0xbe082280	-0.1329441
115	0xbd2a3c4f	-0.04156142
116	0xbd22fdcc	-0.03979282
117	0xbd0f0aa1	-0.034922246
118	0xbdc8deaa	-0.09808095
119	0xbe24fd31	-0.1611221
120	0xbdd5b091	-0.10434068
121	0xbde0a05f	-0.10968088
122	0xbd2a3963	-0.041558634
123	0xbb7061cb	-0.0036679383
124	0xbc5892da	-0.013218606
125	0xbd938987	-0.07203966
126	0xbce7cd0e	-0.02829602
127	0x3c473eca	0.012160966
128	0x3dd1f75a	0.10252257
129	0xbd3c871e	-0.046027295
130	0xbd62f399	-0.055408094
131	0x3d4a9170	0.049455106
132	0xbe27a414	-0.16371185
133	0xbcdcdfe3	-0.026962226
134	0xbbb8fb0a	-0.0056451606
135	0x3bcca7a3	0.00624557
136	0x3c739e12	0.01486923
137	0xbdad8623	-0.0847285
138	0xbd499ab5	-0.049219806
139	0xbd7a4f34	-0.06111069
140	0x3c5849ed	0.013201219
141	0xbdbb7833	-0.091537856
142	0xbc534a6d	-0.012896162
143	0x3d5e1c26	0.054226063
144	0x3c22c4b3	0.009934592
145	0x3d37bb3f	0.044856306
146	0xbd68881a	-0.05677042
147	0x3ab11ecb	0.0013513205
148	0x3d9fc787	0.07801729
149	0x3cd11573	0.025522923
150	0xbdb90299	-0.090336986
151	0xbd329bb3	-0.043605518
152	0xbcd64390	-0.026155263
153	0xbc44fdb3	-0.012023377
154	0x3d5e0650	0.05420524
155	0xbcd2a3ae	-0.025712814
156	0x3ceb36d6	0.028712671
157	0x3d8c1edb	0.06841823
158	0xbdb1bf96	-0.0867912
159	0xbc10bead	-0.008834523
160	0x3d6de70d	0.058081675
161	0xbc0db246	-0.008648461
162	0x3cd85208	0.026406303
163	0xbd3888a5	-0.04505219
164	0xbe3527c8	-0.17690957
165	0xbd17f727	-0.037100937
166	0xbd84559d	-0.06461642
167	0xbd458fc0	-0.048232794
168	0xbbeb79d7	-0.0071861553
169	0x3d4ff01d	0.0507661
170	0x3e037016	0.12835726
171	0xbcf88369	-0.030336099
172	0x3db4d991	0.0883056
173	0x3d4926e2	0.049109347
174	0x3dae936e	0.08524214
175	0xbc3c5b46	-0.011496371
176	0x3d029415	0.031879503
177	0x3ce6faa9	0.028195696
178	0x3ca1c820	0.019748747
179	0x3db2efea	0.08737166
180	0xbe3b786d	-0.18307658
181	0x3e1ecbfd	0.15507503
182	0xbe213fdd	-0.15747018
183	0x3c9a028e	0.018800046
184	0x3a50a37a	0.000795893
185	0x3d89d0a3	0.067292474
186	0xbceb922f	-0.02875623
187	0x3d8b1b51	0.067923196
188	0xbe1ee4f8	-0.15517032
189	0x3dcba371	0.09943283
190	0xbe08bb11	-0.1335261
191	0x3c99cbad	0.018773878
192	0x3ce86b2f	0.028371422
193	0xbd536638	-0.051611155
194	0x3ce98f03	0.028510576
195	0x3d9edaee	0.07756601
196	0x3d0fc97b	0.035104256
197	0xbe33f22d	-0.17572851
198	0x3d75fc54	0.060055092
199	0xbbb3d6c7	-0.00548825
200	0xbe0aa544	-0.13539606
201	0xbbcfe836	-0.0063448204
202	0xbd26d5c8	-0.04073122
203	0x3cc79477	0.024362786
204	0xbd6cbe8f	-0.05779892
205	0xbc1951bd	-0.009357867
206	0xbddb0b24	-0.10695484
207	0xbd40a166	-0.04702892
208	0xbc21e129	-0.0098803425
209	0xbbca7ac0	-0.0061791837
210	0xbe648d23	-0.22319464
211	0xbdafa871	-0.085770495
212	0x3cb040be	0.021515246
213	0x3dce0288	0.100590765
214	0x3d470900	0.048592567
215	0x3c801ffe	0.015640255
216	0x3de47c80	0.11156559
217	0x3d7e7323	0.06212152
218	0xbda39fc7	-0.079894595
219	0xbd35abe6	-0.04435339
220	0xbcb4e57b	-0.022082081
221	0xbb9e8b11	-0.0048383554
222	0xbdbf6e47	-0.093472056
223	0x3d9ccb0a	0.07655914
224	0x3e0e747d	0.13911624
225	0x3e196d59	0.14983119
226	0x3d98ae5d	0.07455132
227	0xbe24acb7	-0.1608151
228	0xbc8432fd	-0.016137594
229	0xbd3bcb58	-0.04584822
230	0xbdff4876	-0.12464993
231	0x3dfe846e	0.12427603
232	0x3b680129	0.0035401082
233	0x3d8c046c	0.06836781
234	0x3d8635cb	0.06553229
235	0x3cc8532b	0.02445372
236	0xbd769bad	-0.060207058
237	0xbd836709	-0.06416137
238	0xbd9f175e	-0.07768129
239	0xbdbbb921	-0.0916617
240	0x3d0a2588	0.0337272
241	0x3da22ebb	0.079190694
242	0xbe4c7514	-0.19966537
243	0xbdaa8db4	-0.08327809
244	0x3db13ba9	0.086539574
245	0x3d514e34	0.05109997
246	0x3c51e57e	0.012811063
247	0x3b88e3e9	0.0041775596
248	0x3dd563cb	0.104194246
249	0x3d0596c5	0.03261449
250	0xbe53bb33	-0.2067688
251	0xbb1d3ffc	-0.0023994436
252	0xbe42755a	-0.18990079
253	0xbd727f47	-0.059203412
254	0xbc3fddb5	-0.011710574
255	0xbe2be716	-0.16787371

layer4.0.bias f4 [128]
0	0xbc37b0d2	-0.011211591
1	0x3ca4198f	0.020031719
2	0xbbcd2f52	-0.0062617445
3	0xbaa9bcb3	-0.0012949914
4	0xbcfc38fb	-0.03078889
5	0x3be6be20	0.0070417076
6	0x3d4a9b16	0.049464308
7	0xbb8de86f	-0.0043306868
8	0x3d39cbb7	0.045360293
9	0xbd6839a8	-0.05669561
10	0xbc83b59f	-0.016077815
11	0x3b8c94db	0.004290206
12	0x3ca49b37	0.020093543
13	0x3c2e5cce	0.010642244
14	0xbd568c33	-0.0523798
15	0xbc6ba782	-0.014383199
16	0xbd7a6eef	-0.06114095
17	0x3da2b161	0.079439886
18	0xbd04ae22	-0.03239263
19	0xba27a64b	-0.0006395324
20	0xbd45b804	-0.048271194
21	0x3d9b1755	0.075728096
22	0x3cab05a8	0.02087672
23	0x3d5f7493	0.054554533
24	0xbd60614b	-0.054780286
25	0x3da5187e	0.08061312
26	0x3ba9a474	0.005177075
27	0xbd180f1e	-0.037123792
28	0xbacb0ac3	-0.0015490878
29	0xbdce3275	-0.10068218
30	0x3b2b5833	0.00261451
31	0xbd7ccd93	-0.06171949
32	0xbb4ed717	-0.003156131
33	0xbc0eb96f	-0.008711203
34	0x3c59a383	0.013283613
35	0x3d58d966	0.052941702
36	0x3b25f98b	0.002532574
37	0x3c7cc905	0.015428786
38	0xbd647500	-0.055775642
39	0xbc4dc9ca	-0.012560317
40	0xbce450ed	-0.02787062
41	0x3d40e764	0.04709567
42	0xbd253448	-0.040333062
43	0x3d46068c	0.048346087
44	0xbb99bd8e	-0.004691786
45	0x3d4f8013	0.05065925
46	0x3d91a92d	0.07112346
47	0xbd217016	-0.039413534
48	0x3d3d662d	0.04624002
49	0x3d709242	0.058733232
50	0xbdbb675f	-0.09150576
51	0xbc39539d	-0.011311439
52	0xbd4c0ab9	-0.049814913
53	0xbd870cbd	-0.065942265
54	0x3c1e0f43	0.009647193
55	0x3d046c45	0.032329816
56	0x3ca811db	0.020516327
57	0x3b22d36a	0.002484525
58	0xbd16fe2a	-0.036863483
59	0xbdc7314b	-0.09726199
60	0xbc9f94a1	-0.019480051
61	0xbd0e48a2	-0.034737237
62	0xba4467cb	-0.0007492273
63	0xbd578a80	-0.05262232
64	0xbb9c7f2e	-0.004775903
65	0xbc41bcd8	-0.011824809
66	0x3ba4b8b0	0.0050268993
67	0x3d3a7f39	0.045531485
68	0xbda1357c	-0.078715295
69	0xbcb67d68	-0.022276595
70	0x3d062c0a	0.032756843
71	0xbd8fdeda	-0.070249274
72	0x3da2518f	0.07925712
73	0x3d699f5d	0.057036746
74	0x3cfece13	0.031104123
75	0x3d6cbd85	0.057797927
76	0xbcc3734e	-0.023858692
77	0xbd379a46	-0.04482486
78	0xbcdb8eca	-0.026801486
79	0xbdbd6cf5	-0.092492975
80	0x3d514ac0	0.051096678
81	0xbc84afa9	-0.016197043
82	0x3c3cf870	0.0115338415
83	0x3c4b191d	0.012396124
84	0xbcdb7dc9	-0.026793377
85	0xbc800f17	-0.015632195
86	0xbab4480a	-0.001375438
87	0xbcad06fd	-0.021121496
88	0xbcdd8c73	-0.02704451
89	0xbda936af	-0.08262383
90	0xbcd0b69f	-0.025477706
91	0x3d435711	0.047690455
92	0xbcb73687	-0.022364868
93	0x3b029ab3	0.0019928634
94	0xbd6264cb	-0.055271905
95	0xbc335fcc	-0.010948133
96	0xbc2d4151	-0.010574655
97	0xbd806aa7	-0.06270342
98	0x3cb9859d	0.02264672
99	0x3cb5f5ce	0.022211935
100	0xbbc30ae8	-0.005952228
101	0x3d3b38b4	0.045708373
102	0x3d1b18a9	0.037865315
103	0xbbc6182d	-0.0060453624
104	0xbd2ef926	-0.042718075
105	0x3ac1c6d0	0.0014783982
106	0xba62f1e5	-0.0008657261
107	0x3d82aee7	0.06381016
108	0x3d5a5709	0.05330566
109	0xbda92f0a	-0.08260925
110	0x3999c9f4	0.000293329
111	0x3d567f84	0.052367702
112	0x3b56e526	0.0032790392
113	0x3d297789	0.041373763
114	0xbd11989d	-0.035545934
115	0x3c891b4d	0.01673665
116	0xbd8c03b1	-0.068366416
117	0x3d937b74	0.07201281
118	0x3d4df4d4	0.050282314
119	0xbcf375c9	-0.02971925
120	0x3d45c8eb	0.048287313
121	0x3d551c73	0.052029084
122	0xbd6828b7	-0.056679454
123	0xbd36579d	-0.04451715
124	0xbcd9933a	-0.02655946
125	0x3d07e0ff	0.033173557
126	0xbb271a26	-0.0025497763
127	0xbcb3d837	-0.021953685

layer4.1.weight f4 [128]
0	0x3e51041b	0.20411722
1	0x3f1b8ccc	0.60761714
2	0x3f5c7cc6	0.8612789
3	0x3eadea40	0.3396778
4	0x3e9d6d5b	0.30747494
5	0x3f6a1fdb	0.9145486
6	0x3f1e456f	0.618247
7	0x3f07b52b	0.53010815
8	0x3e5056bc	0.20345587
9	0x3f6ae1b4	0.91750646
10	0x3e850fe2	0.2598868
11	0x3efc97a9	0.49334458
12	0x3e8e3f61	0.2778273
13	0x3e6151b2	0.2200382
14	0x3e5871fb	0.2113723
15	0x3f770453	0.96490973
16	0x3f506db3	0.8141739
17	0x3eb410b6	0.35169
18	0x3ebfccfd	0.3746108
19	0x3e6ff18e	0.2343199
20	0x3ec03806	0.37542742
21	0x3eed6e5d	0.46373263
22	0x3e6f1460	0.23347616
23	0x3f3e6301	0.7436982
24	0x3e93daf3	0.28877982
25	0x3f43d9b7	0.7650408
26	0x3eb74aed	0.3579935
27	0x3e3f65ef	0.18691228
28	0x3f421649	0.75815254
29	0x3f3dadc3	0.74093264
30	0x3f47368e	0.7781762
31	0x3f0b4bfe	0.5441283
32	0x3f57aef8	0.84251356
33	0x3f1f398b	0.6219718
34	0x3ed76b84	0.42074215
35	0x3eb8b9b6	0.36079186
36	0x3ea8d4f8	0.32974982
37	0x3ed56161	0.41675857
38	0x3ed1166d	0.40837422
39	0x3f48a205	0.7837222
40	0x3f282ce1	0.6569348
41	0x3ef6049e	0.48050398
42	0x3f1d5489	0.61457115
43	0x3f3f112f	0.74635595
44	0x3e73557f	0.23763083
45	0x3e1ca532	0.15297392
46	0x3f14788e	0.5799645
47	0x3e1decdc	0.15422386
48	0x3f489500	0.78352356
49	0x3f0c94ee	0.5491475
50	0x3f6d8254	0.9277699
51	0x3eb0a694	0.3450209
52	0x3eb1a787	0.34698126
53	0x3e9202ed	0.28517857
54	0x3ef6d3da	0.48208505
55	0x3f51bebe	0.81931674
56	0x3f1b7aad	0.60734063
57	0x3e80aa43	0.251299
58	0x3e9e916a	0.30970317
59	0x3f6ffede	0.9374827
60	0x3f08d1a9	0.53444916
61	0x3f4e30d7	0.80543274
62	0x3e5b62dc	0.2142443
63	0x3edfc445	0.4370443
64	0x3f1d66b8	0.6148486
65	0x3f5308f7	0.82435554
66	0x3ed44ee8	0.4146645
67	0x3ee1fd1d	0.44138423
68	0x3f5468a4	0.8297217
69	0x3e8c4159	0.27393606
70	0x3f0a800c	0.54101634
71	0x3f21511d	0.63014394
72	0x3eb19e84	0.3469125
73	0x3eac0293	0.33595714
74	0x3eb8bca8	0.36081433
75	0x3f047b92	0.51751053
76	0x3e5049da	0.20340672
77	0x3e9b6f73	0.30358467
78	0x3e320e15	0.17388184
79	0x3eefc9f4	0.46833766
80	0x3f24f313	0.644334
81	0x3f481674	0.7815926
82	0x3f05ded3	0.5229313
83	0x3efb87fb	0.49127182
84	0x3e7a462e	0.24440834
85	0x3eddaaea	0.4329446
86	0x3e79a8c3	0.24380784
87	0x3f1366a9	0.5757852
88	0x3f449832	0.7679473
89	0x3f0b7ca8	0.54487085
90	0x3f20ebb2	0.6285964
91	0x3f1a5174	0.6028054
92	0x3ef7c955	0.48395792
93	0x3e9a0f5f	0.30089852
94	0x3f715acc	0.9427917
95	0x3dfe1ba2	0.12407614
96	0x3f26815e	0.6504115
97	0x3e881dcc	0.26585233
98	0x3e2d8d99	0.16948546
99	0x3e6bedae	0.23039886
100	0x3f700549	0.93758065
101	0x3f1a697c	0.60317206
102	0x3ed63637	0.41838238
103	0x3de17ce4	0.11010149
104	0x3e9657fe	0.29364008
105	0x3f02929d	0.51004964
106	0x3e22be92	0.1589301
107	0x3e8bf0a1	0.27332023
108	0x3ebefc7f	0.37302014
109	0x3ec9fad0	0.39449167
110	0x3f2ef621	0.6834431
111	0x3f762fc7	0.9616665
112	0x3eea150d	0.45719185
113	0x3f789eb3	0.97117156
114	0x3f348c7f	0.7052688
115	0x3f25ff75	0.6484292
116	0x3edf0b6e	0.43563408
117	0x3f3bcbd1	0.73357874
118	0x3ed93e71	0.42430452
119	0x3eb7da0c	0.35908544
120	0x3e9cad0b	0.3060077
121	0x3f15940b	0.5842902
122	0x3ef39d19	0.47580793
123	0x3f421e29	0.7582727
124	0x3f3dfef5	0.7421716
125	0x3ed07d17	0.40720436
126	0x3f1d0e7e	0.6135024
127	0x3e766fb4	0.24066049
