MP3-ModifiedMNIST/Mini-project3/trained_models/model_ben_mar1.ckpt (torch_old, 383942 bytes, 14 tensors)

layer1.0.weight f4 [16, 1, 5, 5]
-0.039326843 0.011193866 -0.20345926 -0.14602484 -0.07514562 -0.02533096 -0.08854479 0.123418674
-0.013216869 0.026775863 -0.075488076 -0.06484728 -0.18908301 -0.07816691 -0.038695253 0.028685994
0.09569922 0.16662887 -0.025181184 0.012391179 0.13802217 0.23503911 0.1176619 0.2825789
0.13173641 0.1311492 0.25884518 -0.07501662 -0.22075203 -0.26848194 0.07056542 0.23946068
-0.09471668 -0.22197916 -0.3193734 -0.05751746 -0.05905086 0.08813968 -0.0007954736 -0.010007003
0.13806276 -0.048118293 -0.05511799 -0.24688852 -0.14963749 -0.047352705 0.09345812 -0.006548516
-0.19679801 -0.006106942 0.15329483 0.17976819 0.19158736 0.19302827 0.09435168 -0.10739906
0.051832605 0.054728605 0.11412886 0.1396057 0.018804075 -0.0104758665 -0.023220241 0.093041606
0.22293502 -0.06964442 -0.08016445 -0.025256533 0.013160909 0.33715716 -0.10434966 -0.08384476
0.019774765 0.11829668 0.45662105 0.14445469 -0.017921126 -0.23356196 -0.050063092 -0.26900747
-0.17434005 0.12426836 0.10220422 -0.23796716 -0.1017309 -0.013866038 -0.013787058 -0.08135923
0.13320333 -0.2113283 0.062337574 0.08367934 0.16044632 0.120178856 -0.31380886 -0.08940383
0.09261537 0.05631292 -0.13385229 -0.20271768 0.17473593 0.1479026 -0.03621629 -0.02912134
-0.20716466 -0.08316633 -0.25826916 -0.20392464 -0.056442957 0.0014030586 -0.23623148 -0.08533366
-0.2563497 0.07777871 0.06982074 -0.22846626 -0.15575294 -0.04472895 -0.013432813 0.041908484
0.0933167 0.036027916 -0.063749835 0.10011465 -0.16822504 -0.21161059 -0.14425674 -0.112928756
-0.038097747 -0.19564039 0.07437269 0.077889875 -0.13320889 0.03436174 0.029801387 0.19077872
0.09215257 -0.012754403 -0.033324 0.04569922 0.3857081 0.18490593 0.18578239 0.029820768
-0.116733775 0.14651567 0.2648224 0.08754305 0.04645238 -0.08825156 -0.20804244 -0.14561932
-0.02384827 0.06581547 0.04155671 -0.20203058 0.09438969 -0.013272606 0.016718352 -0.098183274
-0.076112516 -0.06617292 -0.1360843 -0.08938005 -0.07267439 0.09544394 -0.015576622 0.1365028
-0.21183923 -0.085948534 0.3130953 0.0019517944 0.25495026 0.096333355 -0.24339956 0.23078972
0.12365215 0.04643339 0.25442782 -0.16004573 0.062308367 0.00063703954 0.17037106 0.014513208
-0.034660205 -0.0013322227 -0.085388094 -0.026741816 -0.18595247 -0.015962021 0.03965014 0.046211105
-0.12683803 0.070948884 -0.14953877 -0.23069409 -0.15959632 0.034736447 -0.07918285 -0.026124978
0.15826964 0.13913584 -0.10312139 -0.07352213 -0.10322871 0.31081718 -0.059545986 0.10410859
0.0002209284 -0.0590319 0.23780414 0.018195609 0.043981988 -0.057181455 -0.11198485 0.21323684
-0.06767058 -0.08507971 0.18730836 -0.20985484 0.018139564 0.11659097 -0.005337446 0.016587852
-0.1866347 0.17654642 -0.021085393 -0.08733753 -0.22844285 -0.08580749 0.19003242 0.31519577
0.27042994 0.27320504 0.17243527 -0.036377084 0.020450125 0.03194229 0.053826 0.14294548
0.052200444 -0.019504387 0.036505546 0.041625556 0.15994623 -0.18307242 -0.03753864 -0.1501575
-0.01275713 0.007817915 -0.102826826 -0.06852685 -0.0025105579 -0.14763348 -0.0935676 -0.11835405
00000000: 2f15 21bd 7a66 373c a057 50be 8987 15be
00000010: f2e5 99bd e082 cfbc f956 b5bd eec2 fc3d
00000020: 918b 58bc 0e59 db3c 7e99 9abd a7ce 84bd
00000030: fa9e 41be f915 a0bd ea7e 1ebd e4fe ea3c
00000040: f4fd c33d c2a0 2a3e c548 cebc 5f04 4b3c
00000050: af55 0d3e 18ae 703e b9f8 f03d 2eae 903e
00000060: e9e5 063e fa4b 063e 5b87 843e 50a2 99bd
00000070: d20c 62be 7776 89be 9a84 903d 2e35 753e
00000080: d2fa c1bd 814e 63be e984 a3be 6e97 6bbd
00000090: 51df 71bd 9482 b43d 5487 50ba 6af4 23bc
000000a0: 5360 0d3e b017 45bd 67c3 61bd 58d0 7cbe
000000b0: 923a 19be e9f4 41bd f966 bf3d ef94 d6bb
000000c0: 6b85 49be be1c c8bb 52f9 1c3e 2715 383e
000000d0: 7a2f 443e 34a9 453e 743b c13d 0af4 dbbd
000000e0: 6d4e 543d 1a2b 603d 64bc e93d ccf4 0e3e
000000f0: 010b 9a3c f8a2 2bbc 6038 bebc 998c be3d
00000100: 1449 643e bca1 8ebd 422d a4bd cae6 cebc
00000110: daa0 573c dd9f ac3e 46b5 d5bd cdb6 abbd
00000120: b0fe a13c 8845 f23d 3cca e93e eeeb 133e
00000130: 53cf 92bc de2a 6fbe f50e 4dbd 59bb 89be
00000140: 3386 32be 6980 fe3d 7250 d13d aaad 73be
00000150: 4a58 d0bd 612e 63bc 1de3 61bc ab9f a6bd
00000160: 7466 083e 7266 58be af55 7f3d 1360 ab3d
00000170: 0a4c 243e 5520 f63d 8eab a0be 5b19 b7bd
00000180: 21ad bd3d 60a8 663d 9310 09be 3995 4fbe
00000190: faed 323e c773 173e 8857 14bd e08f eebc
000001a0: f922 54be 1c53 aabd db3b 84be 9fd1 50be
000001b0: bb30 67bd d6e6 b73a aae6 71be 6ac3 aebd
000001c0: 4540 83be 724a 9f3d 2dfe 8e3d 0ff3 69be
000001d0: b37d 1fbe b435 37bd 4d15 5cbc 3ba8 2b3d
000001e0: d31c bf3d 0292 133d 468f 82bd e908 cd3d
000001f0: 2f43 2cbe 72b0 58be 0ab8 13be 3147 e7bd
00000200: 620c 1cbd f455 48be b550 983d ba84 9f3d
00000210: e967 08be e5be 0c3d 0a22 f43c 7f5b 433e
00000220: 7dba bc3d d8f7 50bc bf7e 08bd 1b2f 3b3d
00000230: 887b c53e fb57 3d3e bd3d 3e3e af4a f43c
00000240: 1e12 efbd 3408 163e cd96 873e c549 b33d
00000250: da44 3e3d 3cbd b4bd 1409 55be 3b1d 15be
00000260: 725d c3bc 43ca 863d 5e37 2a3d 1be1 4ebe
00000270: 624f c13d 5875 59bc edf4 883c 5014 c9bd
00000280: e1e0 9bbd ab85 87bd af59 0bbe e30c b7bd
00000290: 50d6 94bd 1d78 c33d 1735 7fbc 64c7 0b3e
000002a0: 62ec 58be c905 b0bd 074e a03e 5ad3 ff3a
000002b0: d788 823e 6c4a c53d bc3d 79be 2454 6c3e
000002c0: 573d fd3d f030 3e3d 5d44 823e 07e3 23be
000002d0: 0f37 7f3d 00ff 263a c075 2e3e cec8 6d3c
000002e0: dcf7 0dbd fa9d aeba f4df aebd a711 dbbc
000002f0: 536a 3ebe c9c2 82bc 2f68 223d db47 3d3d
00000300: d4e1 01be a64d 913d b120 19be 123b 6cbe
00000310: 386d 23be ce47 0e3d 9e2a a2bd 0d04 d6bc
00000320: 7011 223e a079 0e3e 4f31 d3bd c592 96bd
00000330: 9369 d3bd 6e23 9f3e 7ee6 73bd e236 d53d
00000340: 04a9 6739 6fcb 71bd ee82 733e f50e 953c
00000350: 7526 343d 1a37 6abd 5058 e5bd c25a 5a3e
00000360: e096 8abd 453e aebd c3cd 3f3e 30e4 56be
00000370: 6c99 943c 3fc7 ee3d bee5 aebb 3fe3 873c
00000380: 2b1d 3fbe 96c8 343e 46bb acbc 05de b2bd
00000390: ecec 69be d6bb afbd dc97 423e 5761 a13e
000003a0: cb75 8a3e 88e1 8b3e df92 303e 2300 15bd
000003b0: 0587 a73c ebd5 023d a778 5c3d 4d60 123e
000003c0: 22d0 553d aac7 9fbc d786 153d 8f7f 2a3d
000003d0: f2c8 233e 5677 3bbe 1ec2 19bd e3c2 19be
000003e0: 4803 51bc b616 003c df96 d2bd ce57 8cbd
000003f0: 2c88 24bb 3b2d 17be 5fa0 bfbd 9c63 f2bd

layer1.0.bias f4 [16]
0.12360692 0.015901545 -0.08353024 0.20839337 0.022920504 -0.16702434 0.19701011 0.0988326
-0.061538246 0.09024313 -0.12624326 -0.06951338 0.1660124 0.05631796 -0.07529426 -0.08160811
00000000: a025 fd3d f543 823c e711 abbd 1265 553e
00000010: c8c3 bb3c 6e08 2bbe 05bd 493e bf68 ca3d
00000020: 870f 7cbd 64d1 b83d ea45 01be 085d 8ebd
00000030: 28ff 293e a9ad 663d e133 9abd 2722 a7bd

layer1.1.weight f4 [16]
0.18917774 0.19549784 0.36176333 0.40778023 0.25776762 0.17709737 0.1746526 0.190301
0.38658553 0.19644685 0.1732055 0.17219418 0.29936495 0.42751113 0.15983188 0.45653036
00000000: cfb7 413e 9630 483e 0b39 b93e 92c8 d03e
00000010: 1efa 833e 0359 353e 22d8 323e 44de 423e
00000020: 8aee c53e 5d29 493e c85c 313e ac53 303e
00000030: 5d46 993e bde2 da3e f8aa 233e 59be e93e

layer1.1.bias f4 [16]
-0.1516236 -0.32404646 -0.6432503 -0.44709864 -0.3568236 -0.29229745 -0.21297105 -0.12688325
-0.46693522 -0.3461702 -0.24653967 -0.3105402 -0.4220994 -0.737187 -0.26610854 -0.7324743
00000000: 3843 1bbe 6be9 a5be 0dac 24bf 1dea e4be
00000010: 95b1 b6be 03a8 95be 1515 5abe afed 01be
00000020: 2212 efbe 383d b1be e574 7cbe 20ff 9ebe
00000030: 6a1d d8be 4ab8 3cbf 613f 88be 7083 3bbf

layer1.1.running_mean f4 [16]
30.272705 -118.216736 222.849 -122.06847 -163.73325 88.75778 -69.04576 -21.051996
53.183582 123.65108 -86.565834 100.19468 80.050865 356.23523 50.37363 169.36552
00000000: 802e f241 f86e ecc2 58d9 5e43 0e23 f4c2
00000010: b6bb 23c3 fc83 b142 6e17 8ac2 7d6a a8c1
00000020: fdbb 5442 5a4d f742 b521 adc2 ad63 c842
00000030: 0b1a a042 1c1e b243 997e 4942 935d 2943

layer1.1.running_var f4 [16]
2284.0735 6877.4707 15381.782 5538.236 7859.5474 5521.4546 2410.384 1575.8245
3235.627 5257.1196 4732.074 4965.8145 4161.8022 34770.32 2870.0247 10805.912
00000000: 2dc1 0e45 c4eb d645 2157 7046 e311 ad45
00000010: 619c f545 a38b ac45 25a6 1645 62fa c444
00000020: 083a 4a45 f548 a445 98e0 9345 842e 9b45
00000030: 6b0e 8245 52d2 0747 6560 3345 a6d7 2846

layer2.0.weight f4 [32, 16, 5, 5]
-0.088869125 -0.11760837 -0.049961273 0.017073689 0.070100985 -0.22318363 -0.10888725 -0.056018416
0.011882526 0.020765383 -0.21211079 -0.012879952 0.028361604 0.06601207 0.026600389 -0.042049285
0.054717563 0.09509461 0.08746258 0.0806985 0.027772415 0.06859629 0.04796364 0.059509777
0.025509391 -0.008173142 -0.057160202 0.03830948 -0.041833006 0.014091225 -0.110819854 -0.18547629
-0.043515876 0.0033882353 0.04479014 -0.15728593 -0.13438624 -0.041832704 -0.006884177 0.13422164
-0.014304409 0.019351272 0.12285361 -0.00053280074 0.032845255 0.106815696 0.039930668 0.14680764
0.06939379 0.040950518 0.016580358 0.03779142 -0.05451099 -0.0041258615 0.05176586 0.11222303
0.01896821 -0.090613745 -0.0949313 -0.009078391 0.16903397 0.026949275 -0.024091609 -0.07330976
-0.05297023 0.07839332 0.08259858 0.035391573 -0.06398817 0.04983208 0.11291519 0.11661584
0.12780787 0.05031942 0.15771325 0.032948963 -0.004081041 0.04203807 0.052865684 0.0541804
-0.022166617 -0.031171955 0.06332035 0.10732093 0.06407902 0.0023235807 -0.016863642 0.023767555
0.061375894 0.028543362 0.0028291785 -0.04400016 0.038575057 0.003568667 0.033398308 -0.005563376
0.002740974 0.04877151 0.09133134 0.050186727 0.019651989 0.0500945 -0.04757651 -0.0429343
-0.06636531 0.02324534 -0.06063922 -0.113807194 -0.13795505 -0.14673847 -0.03879907 -0.07152055
-0.05233137 -0.02606813 -0.1751695 -0.045460626 -0.016581923 0.05482582 -0.08522259 -0.12312407
0.021176027 0.02930672 0.055869058 -0.042775948 -0.11330058 0.0050598728 -0.080577716 -0.04005224
-0.023141798 -0.00073562167 0.025900096 0.003891692 0.013636326 0.071501106 -0.027400093 -0.054578748
-0.09389527 -0.09508137 -0.057304263 -0.0804107 -0.011564441 -0.14169823 -0.0944274 -0.0027183886
-0.047669675 0.056547377 0.025637804 0.074649155 0.09597753 0.07801723 -0.026915852 -0.004937242
0.028710717 0.032899644 -0.009038017 0.047091924 0.07067364 0.037717625 -0.01867557 -0.108137876
0.019166354 0.022254612 -0.059347056 -0.10018982 -0.15062016 0.05701018 -0.0018245343 -0.025797818
-0.12346395 -0.08799733 -0.07269247 0.0063934317 -0.034186095 -0.05690534 -0.01421595 0.071311645
0.015253664 -0.02302681 0.034693263 0.048094634 -0.054450367 -0.14355838 -0.078225195 0.009329941
0.029215813 -0.1552025 -0.105964586 -0.025644956 0.00826406 0.04643999 -0.11327912 -0.09210219
0.022166379 0.008227564 0.04146513 -0.06986023 -0.052174866 -0.00917822 -0.02618415 -0.08983405
0.06714511 0.018247757 -0.022715311 -0.058037356 -0.03634397 0.0350114 0.013463852 -0.036342252
-0.0890107 -0.067224674 0.06297435 0.00795092 -0.062182046 -0.05175337 -0.07210964 0.064986356
-0.022718301 -0.054945763 -0.04226191 -0.057621613 0.023298018 -0.006971253 0.0038451208 -0.003560204
-0.018564463 -0.28936565 -0.2043998 -0.018008191 0.08275909 0.26577386 -0.26437673 -0.30670628
-0.08981067 0.038369074 0.10080451 -0.06494064 -0.11319561 0.10930645 0.10707875 0.14584331
0.21267872 0.24273044 0.32516155 0.31554052 0.2990753 0.21573387 0.20327638 0.23660612
0.33013496 0.36434728 -0.047739975 0.04212519 0.0845258 0.049512118 -0.06620041 0.0043544965
00000000: 0401 b6bd a8dc f0bd 31a4 4cbd 1fde 8b3c
00000010: 1b91 8f3d 408a 64be 4700 dfbd 9173 65bd
00000020: edae 423c 2a1c aa3c 9233 59be 6f06 53bc
00000030: 9856 e83c 5631 873d 0fe9 d93c df3b 2cbd
00000040: 861f 603d f6c0 c23d 951f b33d 4145 a53d
00000050: fa82 e33c 367c 8c3d 8675 443d 86c0 733d
00000060: 12f9 d03c a4e8 05bc d120 6abd 67ea 1c3d
00000070: 1659 2bbd e2de 663c 85f5 e2bd 7fed 3dbe
00000080: b43d 32bd 280d 5e3b de75 373d 900f 21be
00000090: 8c9c 09be c558 2bbd aa94 e1bb 6671 093e
000000a0: 0a5d 6abc 8f86 9e3c ac9a fb3d a7ab 0bba
000000b0: bf88 063d 30c2 da3d 578e 233d be54 163e
000000c0: 551e 8e3d bbbb 273d 88d3 873c 2dcb 1a3d
000000d0: ea46 5fbd 3c32 87bb 7008 543d 30d5 e53d
000000e0: 3863 9b3c b393 b9bd 576b c2bd 88bd 14bc
000000f0: 3e17 2d3e bac4 dc3c c45b c5bc 6d23 96bd
00000100: 50f7 58bd ad8c a03d 7229 a93d c1f6 103d
00000110: 3b0c 83bd b91c 4c3d 1440 e73d 49d4 ee3d
00000120: 11e0 023e bc1b 4e3d 957f 213e 7ef5 063d
00000130: 41ba 85bb 1c30 2c3d b089 583d 44ec 5d3d
00000140: c496 b5bc 545c ffbc 1aae 813d 13cb db3d
00000150: dc3b 833d 3747 183b 9f25 8abc 2db4 c23c
00000160: 4a65 7b3d c5d3 e93c bd69 393b 8339 34bd
00000170: e100 1e3d 4ce0 693b aacc 083d fb4c b6bb
00000180: eaa1 333b a3c4 473d ed0b bb3d 9990 4d3d
00000190: 35fd a03c e42f 4d3d 96df 42bd e0db 2fbd
000001a0: 89ea 87bd 036d be3c d560 78bd bf13 e9bd
000001b0: 1744 0dbe 9c42 16be c6eb 1ebd 5e79 92bd
000001c0: 6b59 56bd d58c d5bc a25f 33be ec34 3abd
000001d0: d0d6 87bc 0a91 603d 2e89 aebd 7928 fcbd
000001e0: 5979 ad3c a514 f03c f4d6 643d d535 2fbd
000001f0: 220a e8bd 4acd a53b ee05 a5bd d10d 24bd
00000200: de93 bdbc bcd6 40ba 702c d43c c20b 7f3b
00000210: e66a 5f3c 2c6f 923d 2976 e0bc f78d 5fbd
00000220: 2a4c c0bd 05ba c2bd e0b7 6abd 5dae a4bd
00000230: c878 3dbc 5719 11be 2763 c1bd fe26 32bb
00000240: 4741 43bd 399e 673d 5f06 d23c a8e1 983d
00000250: de8f c43d 7fc7 9f3d a27e dcbc 96c8 a1bb
00000260: bd32 eb3c c7c1 063d 3114 14bc 76e3 403d
00000270: 57bd 903d cc7d 1a3d 82fd 98bc 6477 ddbd
00000280: c202 9d3c 4e4f b63c e615 73bd 5230 cdbd
00000290: 2c3c 1abe 8283 693d 3625 efba f255 d3bc
000002a0: abda fcbd f237 b4bd cadf 94bd fe7f d13b
000002b0: b806 0cbd 9315 69bd 04ea 68bc d70b 923d
000002c0: 81ea 793c b8a2 bcbc 861a 0e3d e1fe 443d
000002d0: 5907 5fbd f800 13be 8834 a0bd 9cdc 183c
000002e0: 0056 ef3c 67ed 1ebe f603 d9bd 5f15 d2bc
000002f0: fb65 073c dc37 3e3d e2fe e7bd 13a0 bcbd
00000300: 4496 b53c e8cc 063c 57d7 293d e112 8fbd
00000310: 50b5 55bd 3f60 16bc 2480 d6bc eafa b7bd
00000320: 6083 893d 527c 953c 7615 babc 94b8 6dbd
00000330: 6add 14bd 1d68 0f3d 7d97 5c3c 9ddb 14bd
00000340: 3e4b b6bd 17ad 89bd b2f8 803d 9344 023c
00000350: 9ab2 7ebd 57fb 53bd 38ae 93bd 9117 853d
00000360: bb1b babc cf0e 61bd d31a 2dbd a404 6cbd
00000370: 7cdb be3c 1c6f e4bb 6cfe 7b3b 5052 69bb
00000380: 8014 98bc bc27 94be 2e4e 51be ea85 93bc
00000390: 997d a93d 8313 883e 635c 87be 9b08 9dbe
000003a0: a8ee b7bd e428 1d3d 9872 ce3d 99ff 84bd
000003b0: 1ad3 e7bd 0fdc df3d 1b4c db3d f357 153e
000003c0: 73c8 593e 548e 783e 937b a63e 878e a13e
000003d0: 6620 993e 57e9 5c3e af27 503e e048 723e
000003e0: 7307 a93e ba8b ba3e fe8a 43bd 778b 2c3d
000003f0: dd1b ad3d 38cd 4a3d 1594 87bd 2ab0 8e3b

layer2.0.bias f4 [32]
0.01870434 0.07769039 0.008619309 -0.011524212 -0.020109743 0.04038513 -0.07709544 -0.008992124
-0.106936716 0.08106965 0.027732236 0.062289204 -0.029438443 0.09704127 -0.13409404 0.1288937
-0.08173178 -0.05217781 -0.09033122 0.14910029 0.036078148 0.18153927 -0.015919799 0.120687015
0.107560456 -0.04502764 -0.075133584 0.02249198 0.09609041 0.12650588 0.30619952 0.007120283
00000000: d839 993c 241c 9f3d 0138 0d3c 0cd0 3cbc
00000010: 30bd a4bc e16a 253d 37e4 9dbd b453 13bc
00000020: a301 dbbd d807 a63d b72e e33c f722 7f3d
00000030: e428 f1bc 93bd c63d f34f 09be b6fc 033e
00000040: fe62 a7bd 66b8 55bd 93ff b8bd bfad 183e
00000050: aec6 133d 6ee5 393e 3d6a 82bc c12a f73d
00000060: a848 dc3d e76e 38bd a3df 99bd 1a41 b83c
00000070: 0dcb c43d c28a 013e 2fc6 9c3e 4351 e93b

layer2.1.weight f4 [32]
0.3204325 0.3503411 0.47070858 0.046462163 0.47423083 0.4718782 0.38158423 0.32702014
0.51235944 0.31428048 0.6612745 0.55748105 0.3441106 0.27276918 0.5564423 0.33660242
0.44852257 0.5368145 0.42707393 0.2894685 0.43036413 0.6121779 0.4408639 0.62234414
0.5836493 0.12744649 0.25246042 0.27581993 0.42480218 0.31414652 0.25146434 0.39034653
00000000: bb0f a43e e95f b33e b700 f13e 1c4f 3e3d
00000010: 62ce f23e 059a f13e 025f c33e 2f6f a73e
00000020: fd29 033f 5fe9 a03e 4949 293f 14b7 0e3f
00000030: 442f b03e 67a8 8b3e 0173 0e3f 2757 ac3e
00000040: c0a4 e53e ad6c 093f 6fa9 da3e 3735 943e
00000050: b058 dc3e b1b7 1c3f eab8 e13e f251 1f3f
00000060: 0a6a 153f 5581 023e 7e42 813e 4538 8d3e
00000070: ac7f d93e d0d7 a03e efbf 803e 80db c73e

layer2.1.bias f4 [32]
-0.5639887 -0.44681138 -0.43580297 -0.06894098 -0.43584052 -0.31450483 -0.51799804 -0.2651915
-0.367875 -0.209916 -0.42877114 -0.33471462 -0.37214634 -0.45656252 -0.6060375 -0.4802894
-0.39269942 -0.35221392 -0.3068577 -0.35594884 -0.21717171 -0.3250111 -0.4094808 -0.45962042
-0.30092764 -0.108799525 -0.31455845 -0.18188897 -0.2699631 -0.25278327 -0.37357196 -0.27540255
00000000: 9061 10bf 76c4 e4be 9121 dfbe ee30 8dbd
00000010: 7d26 dfbe c706 a1be 859b 04bf 2ec7 87be
00000020: 1d5a bcbe 38f4 56be e487 dbbe b75f abbe
00000030: f789 bebe 90c2 e9be 4625 1bbf 7ee8 f5be
00000040: e60f c9be 6255 b4be 741c 9dbe ed3e b6be
00000050: 4362 5ebe db67 a6be 78a7 d1be 5e53 ebbe
00000060: 3013 9abe 49d2 debd ce0d a1be 1a41 3abe
00000070: 9a38 8abe cf6c 81be d344 bfbe 9001 8dbe

layer2.1.running_mean f4 [32]
0.04286906 0.056359835 -0.08706114 -0.11065446 -0.06833177 -0.08950655 -0.019571275 -0.08906644
-0.2399096 -0.050325282 -0.034836102 -0.08864327 -0.02233761 0.13816674 -0.17761363 0.100302935
-0.14378682 -0.108303964 -0.15651079 0.085350744 -0.067770086 0.0016499278 -0.111579545 2.3322693e-05
0.0006647517 -0.15601696 -0.056183618 -0.24988337 -0.011591017 -0.016632449 0.35323834 -0.06126669
00000000: 7897 2f3d 92d9 663d 1c4d b2bd ce9e e2bd
00000010: 87f1 8bbd 364f b7bd f053 a0bc 7768 b6bd
00000020: ddaa 75be e221 4ebd 4db0 0ebd 9a8a b5bd
00000030: 5dfd b6bc 957b 0d3e 59e0 35be a06b cd3d
00000040: da3c 13be 78ce ddbd 5d44 20be 5fcc ae3d
00000050: 0bcb 8abd 6442 d83a d183 e4bd 1aa5 c337
00000060: bb42 2e3a e9c2 1fbe cb20 66bd 6de1 7fbe
00000070: 40e8 3dbc c640 88bc a8db b43e c8f2 7abd

layer2.1.running_var f4 [32]
0.022686603 0.015565303 0.039820913 0.019265324 0.029739259 0.045301735 0.021404294 0.036605235
0.04842917 0.031658407 0.047688805 0.07361646 0.032399464 0.017299974 0.015892796 0.017146418
0.026033605 0.021515023 0.023252388 0.031500492 0.06988021 0.12639126 0.037043966 0.052080702
0.040791262 0.045880966 0.0153496815 0.09333319 0.03808918 0.051266544 0.02155658 0.026505657
00000000: 41d9 b93c 9d05 7f3c 411b 233d 50d2 9d3c
00000010: bf9f f33c 508e 393d 0f58 af3c 5fef 153d
00000020: aa5d 463d 3fac 013d 5655 433d 3ac4 963d
00000030: 4db5 043d adb8 8d3c 9c31 823c a576 8c3c
00000040: 6d44 d53c 4640 b03c cb7b be3c a906 013d
00000050: 5b1d 8f3d b66c 013e 6abb 173d 9352 553d
00000060: bd14 273d aeed 3b3d 3b7d 7b3c 7925 bf3d
00000070: 6603 1c3d defc 513d 6d97 b03c 6422 d93c

fc.weight f4 [10, 8192]
-0.0014214057 -0.0031086183 -0.017055409 -0.010055375 -0.035885584 -0.02556531 -0.029926589 -0.03218511
-0.03561573 -0.023756266 -0.038588915 -0.011560109 -0.02635533 -0.03166563 -0.006444525 -0.009285009
0.0048323367 -0.025126494 -0.034153868 -0.054227617 -0.012401327 -0.07039176 -0.06408963 -0.048526127
-0.046976876 -0.08073334 -0.13049524 -0.09079267 -0.09193534 0.01004408 -0.0023977936 0.0033867126
-0.023580575 0.022613922 -0.031035347 -0.004174458 -0.047295775 -0.09992612 -0.11261031 -0.10755675
-0.12574981 -0.104303 -0.1162675 -0.056187324 -0.07122673 -0.0033814213 -0.072528906 -0.00927156
-0.08852218 0.040662903 0.04392566 -0.025639243 -0.112706654 -0.0680953 -0.07793042 -0.071258865
-0.056395933 -0.047917634 -0.040315256 -0.05469147 -0.036631268 -0.05518199 -0.051804416 -0.0721407
-0.0049403263 0.12997918 0.08662947 -0.012529839 -0.040407017 0.021180054 0.03158559 0.0323554
0.03189944 0.026966922 0.020219117 -0.03603535 -0.047630932 -0.11131887 -0.0495246 -0.061751127
0.020153651 0.05881683 0.082857735 0.07060779 0.031989694 0.045625657 0.05556862 0.033995263
0.04988088 0.053519797 0.001243687 0.00598112 0.0085717095 -0.12048669 -0.116343156 -0.05235623
0.029671494 0.067472085 0.10984668 0.06713246 0.05516879 0.04165793 0.09419842 0.055649493
0.08354027 0.071661636 0.039924614 0.04996503 0.017802969 -0.064864844 -0.07703674 -0.025704587
0.08214864 0.15703186 0.07434189 0.04544896 0.0443456 0.032576717 0.060734905 0.051065106
0.07608797 0.09832778 0.057685714 0.029847737 -0.04376813 -0.16775003 -0.09040541 -0.055989414
-0.0071654823 0.040119823 0.04057363 0.034825757 -0.0204686 -0.014107316 -0.026489891 0.09934135
0.06384438 -0.0053227497 -0.01684795 -0.017314948 -0.041306358 -0.09398747 -0.12119139 -0.06933968
-0.0028484704 0.015341117 0.06554996 0.040237706 -0.02038744 0.038856074 -0.03594843 0.040183485
0.043057367 -0.044659514 0.0046746605 0.019398158 -0.0064416616 -0.048066422 -0.1304099 -0.009867909
0.076209985 0.115223385 0.05442029 -0.0007067296 0.007847476 -0.009302315 -0.06408186 0.037776537
0.0388236 0.0031143883 -0.019810714 -0.020379568 -0.05199089 -0.14569086 -0.13211113 -0.12520173
0.03210283 0.11686215 0.11691985 0.002511817 -0.006783695 0.012081443 0.011991632 0.060936056
0.06759062 0.059024286 0.013272518 -0.02821085 -0.027420852 -0.12711151 -0.09194899 -0.08506369
-0.016684795 0.06483565 0.09489268 0.09920767 0.08134838 0.07264335 0.07031932 0.1297663
0.11951601 0.06152507 0.07050038 0.023437513 -0.0012607418 0.017259944 0.005184267 -0.025958637
0.03606435 0.091988534 0.07746058 0.097598545 0.08402335 0.07100185 0.07763473 0.044783868
0.06739788 0.1008752 0.07775879 0.071974896 -0.033122033 -0.087544106 0.011202181 0.046465743
0.017412363 0.026760962 0.08211273 0.095230885 0.10477524 0.06826212 0.014184927 0.022019302
0.12931731 0.06854806 0.037603527 0.039215483 -0.03789548 -0.0633542 0.0052437964 0.012126913
-0.0042312914 -0.05000057 -0.046696875 -0.041386027 0.045470625 0.02307475 -0.04838322 0.01619055
0.026563406 -0.04551831 -0.010873543 -0.0012990786 -0.014387613 -0.050529163 -0.0053865477 -0.002175683
00000000: 764e baba f6b9 4bbb c9b7 8bbc 4dbf 24bc
00000010: c3fc 12bd 576e d1bc 9b28 f5bc 89d4 03bd
00000020: cde1 11bd 809c c2bc 690f 1ebd 9d66 3dbc
00000030: 22e7 d7bc d2b3 01bd 982c d3bb 2620 18bc
00000040: 9458 9e3b 14d6 cdbc ede4 0bbd c71d 5ebd
00000050: ef2e 4bbc 8e29 90bd 6d41 83bd 55c3 46bd
00000060: d36a 40bd 8557 a5bd 8ba0 05be 82f1 b9bd
00000070: 9848 bcbd ed8f 243c 4d24 1dbb 9cf3 5d3b
00000080: 0d2c c1bc d540 b93c d73d febc e4c9 88bb
00000090: 37b9 41bd 11a6 ccbd 3ca0 e6bd b746 dcbd
000000a0: 8fc4 00be d09c d5bd a81d eebd ae24 66bd
000000b0: 52df 91bd d69a 5dbb 098a 94bd bee7 17bc
000000c0: 1e4b b5bd 258e 263d 65eb 333d 6409 d2bc
000000d0: bfd2 e6bd 8c75 8bbd fc99 9fbd 2bf0 91bd
000000e0: 6cff 66bd 4845 44bd 9c21 25bd 2a04 60bd
000000f0: ab0a 16bd 8306 62bd de30 54bd 81be 93bd
00000100: 76e2 a1bb 4319 053e cb6a b13d f449 4dbc
00000110: d481 25bd cb81 ad3c e45f 013d 1987 043d
00000120: fda8 023d bce9 dc3c 90a2 a53c ce99 13bd
00000130: a718 43bd 26fb e3bd 4fda 4abd c0ee 7cbd
00000140: 4519 a53c ebe9 703d 51b1 a93d d19a 903d
00000150: a007 033d f8e1 3a3d ec9b 633d 9e3e 0b3d
00000160: e54f 4c3d 9337 5b3d 3603 a33a 45fd c33b
00000170: 5b70 0c3c bac1 f6bd 5245 eebd 7c73 56bd
00000180: a211 f33c ce2e 8a3d 4cf7 e03d be7c 893d
00000190: abf8 613d 81a1 2a3d 1aeb c03d b9f0 633d
000001a0: 2917 ab3d 56c3 923d fe87 233d 22a8 4c3d
000001b0: 88d7 913c dcd7 84bd 70c5 9dbd 6d92 d2bc
000001c0: 8c3d a83d f6cc 203e 9040 983d b028 3a3d
000001d0: bba3 353d 2a6f 053d 2ac5 783d a529 513d
000001e0: 02d4 9b3d 1360 c93d db47 6c3d 3e83 f43c
000001f0: 3646 33bd aac6 2bbe 7926 b9bd 2855 65bd
00000200: 6ccc eabb af54 243d 8930 263d 74a5 0e3d
00000210: c4ad a7bc 5f22 67bc 5401 d9bc 7a73 cb3d
00000220: d8c0 823d 766a aebb b604 8abc 14d8 8dbc
00000230: db30 29bd 817c c0bd 3133 f8bd f601 8ebd
00000240: 67ad 3abb 4f59 7b3c 0f3f 863d 4bd0 243d
00000250: 9003 a7bc 8c27 1f3d a93e 13bd 7097 243d
00000260: ec5c 303d e5ec 36bd e52d 993b e3e8 9e3c
00000270: 9314 d3bb 4ce1 44bd 2c8a 05be 03ad 21bc
00000280: fb13 9c3d 3dfa eb3d cfe7 5e3d d243 39ba
00000290: b392 003c bd68 18bc 5a3d 83bd 92bb 1a3d
000002a0: 7f05 1f3d c41a 4c3b 144a a2bc 0df3 a6bc
000002b0: 66f4 54bd fc2f 15be 2448 07be e234 00be
000002c0: 427e 033d 6c55 ef3d ad73 ef3d 4c9d 243b
000002d0: c249 debb 3ff1 453c 8d78 443c 1698 793d
000002e0: f36c 8a3d 73c3 713d fa74 593c 711a e7bc
000002f0: b2a1 e0bc 8529 02be c14f bcbd df35 aebd
00000300: 8dae 88bc 8ec8 843d 1857 c23d 642d cb3d
00000310: fb99 a63d 09c6 943d 9303 903d 75e1 043e
00000320: cfc4 f43d b601 7c3d 8162 903d 0700 c03c
00000330: 7a3f a5ba ba64 8d3c c9e0 a93b 35a7 d4bc
00000340: 36b8 133d 7c64 bc3d a7a3 9e3d bfe1 c73d
00000350: 6f14 ac3d 6b69 913d f5fe 9e3d 4a6f 373d
00000360: e607 8a3d a897 ce3d 0040 9f3d 9367 933d
00000370: f8aa 07bd 534a b3bd 5a89 373c dd52 3e3d
00000380: 5fa4 8e3c ce39 db3c b82a a83d 6908 c33d
00000390: 6794 d63d 03cd 8b3d e567 683c d361 b43c
000003a0: c26b 043e ed62 8c3d 2806 1a3d 6aa0 203d
000003b0: 4a38 1bbd d9bf 81bd 27d4 ab3b f6af 463c
000003c0: a5a6 8abb 66cd 4cbd 3945 3fbd 6584 29bd
000003d0: 683f 3a3d 4207 bd3c 7c2d 46bd 0ba2 843c
000003e0: 809b d93c 6871 3abd f226 32bc d845 aaba
000003f0: 06ba 6bbc abf7 4ebd a381 b0bb e795 0ebb

fc.bias f4 [10]
-0.04967737 0.072757676 -0.046499405 -0.002480321 0.0102409 -0.0142944595 -0.021779694 0.009930219
-0.009555902 0.08688947
00000000: 7f7a 4bbd fa01 953d 2976 3ebd e28c 22bb
00000010: 73c9 273c 4f33 6abc 546b b2bc 5bb2 223c
00000020: 5c90 1cbc 1bf3 b13d
