MP3-ModifiedMNIST/Mini-project3/trained_models/model_john_mar3.ckpt (torch_old, 875606 bytes, 32 tensors)

layer1.0.weight f4 [16, 1, 2, 2]
0.14776827 0.30977386 -0.10059489 -0.49769047 -0.16976626 0.14290982 0.039047334 0.46585882
-0.023421966 0.1060456 -0.28386256 -0.07021591 -0.3441192 -0.30895394 -0.37343112 -0.1611589
0.2394411 0.4280307 -0.21298131 -0.20374253 -0.018871166 0.25469327 -0.33225328 0.30076894
-0.032977045 -0.05314133 0.5223242 -0.42045552 -0.3066045 0.007401938 -0.18795334 0.47448552
-0.28522572 -0.288767 -0.4532538 -0.3898238 -0.49193034 0.31986964 0.0714185 -0.028899731
0.041986186 0.03686277 0.113864265 -0.5939907 -0.3592208 -0.21464506 0.3133998 0.36896214
-0.22100472 -0.07568635 0.34873676 0.49770337 0.38725156 0.032512102 0.41006508 -0.19985434
0.0017106666 -0.37833497 -0.29276735 -0.42111692 0.0048936494 0.05803806 -0.48056227 0.060053315
00000000: 9150 173e ae9a 9e3e b204 cebd 49d1 febe
00000010: 35d7 2dbe f456 123e 19f0 1f3d 0c85 ee3e
00000020: 6cdf bfbc 6f2e d93d 6f56 91be 5ccd 8fbd
00000030: 6430 b0be 362f 9ebe 5d32 bfbe d706 25be
00000040: 0c30 753e d726 db3e c617 5abe e2a1 50be
00000050: b497 9abc 2867 823e 1a1d aabe 63fe 993e
00000060: f012 07bd b9aa 59bd 0ab7 053f f245 d7be
00000070: 44fb 9cbe f58b f23b d776 40be c4ef f23e
00000080: 1b09 92be 45d9 93be e210 e8be fc96 c7be
00000090: 4bde fbbe f4c5 a33e dd43 923d 21bf ecbc
000000a0: b5f9 2b3d 6afd 163d ab31 e93d c60f 18bf
000000b0: caeb b7be eacb 5bbe f075 a03e 9be8 bc3e
000000c0: 104f 62be 7201 9bbd a08d b23e fad2 fe3e
000000d0: d645 c63e 692b 053d 0df4 d13e 9ea6 4cbe
000000e0: 7238 e03a 1fb5 c1be 9ae5 95be a39c d7be
000000f0: e85a a03b 51b9 6d3d 420c f6be 77fa 753d

layer1.0.bias f4 [16]
0.28230616 -0.06743669 0.019732874 0.11586795 0.30179894 0.47575155 -0.3759496 -0.17799
0.1997284 0.41872603 0.4264543 0.44528663 0.1084776 -0.40504846 0.0464197 -0.31281847
00000000: 6f8a 903e 3f1c 8abd d6a6 a13c 2d4c ed3d
00000010: 6485 9a3e b595 f33e 777c c0be 0343 36be
00000020: 9a85 4c3e 4263 d63e 3858 da3e 9cfc e33e
00000030: 8129 de3d 8362 cfbe 9522 3e3d be29 a0be

layer1.1.weight f4 [16]
0.21200642 1.0687609 0.97411335 0.20056583 0.60976774 0.42733657 0.39256793 0.36668485
0.8950426 0.20149663 0.8759874 0.66010743 1.0012088 0.85224956 0.24093871 0.19457023
00000000: 3618 593e 28cd 883f 7e5f 793f 2161 4d3e
00000010: bd19 1c3f dccb da3e aafe c83e 1ebe bb3e
00000020: 8321 653f 2255 4e3e b640 603f cdfc 283f
00000030: 9c27 803f 072d 5a3f a3b8 763e 6b3d 473e

layer1.1.bias f4 [16]
0.3720838 -0.30259457 0.2858908 0.17021187 0.02929684 -0.22211841 0.05070306 0.11084784
0.28309458 0.2980197 0.24644482 -0.011636009 -0.22332998 -0.20881614 0.2367773 0.013083352
00000000: c581 be3e aded 9abe 4760 923e 054c 2e3e
00000010: edff ef3c 0273 63be 03ae 4f3d 3104 e33d
00000020: c6f1 903e 0a96 983e 085c 7c3e f6a4 3ebc
00000030: 9db0 64be e6d3 55be c075 723e 8e5b 563c

layer1.1.running_mean f4 [16]
-14.506839 50.696823 -28.029007 -126.01317 26.98022 22.541702 1.2643929 -2.0080745
-150.36516 -13.840485 -42.29725 11.117828 58.95641 67.021164 -115.700874 -38.198982
00000000: 031c 68c1 8cc9 4a42 683b e0c1 be06 fcc2
00000010: 7ed7 d741 6855 b441 a0d7 a13f 4b84 00c0
00000020: 7b5d 16c3 a072 5dc1 6230 29c2 a0e2 3141
00000030: 5dd3 6b42 d60a 8642 d966 e7c2 c2cb 18c2

layer1.1.running_var f4 [16]
439.0081 1351.8048 423.2886 6860.6914 637.87775 473.0184 335.67056 393.53683
9758.553 303.22488 1053.1215 497.7626 1876.1139 2248.4924 5873.331 797.5422
00000000: 0981 db43 c1f9 a844 f1a4 d343 8865 d645
00000010: 2d78 1f44 5b82 ec43 d5d5 a743 b7c4 c443
00000020: 367a 1846 c99c 9743 e3a3 8344 9de1 f843
00000030: a583 ea44 e187 0c45 a68a b745 b362 4744

layer2.0.weight f4 [32, 16, 2, 2]
-0.0028517486 -0.047864534 -0.14549 -0.14811525 0.03309972 -0.04886798 -0.162284 -0.076496236
-0.09759344 -0.00018643406 -0.012121306 -0.05224079 -0.07739641 -0.047499947 -0.10559293 -0.01160575
-0.1698263 0.069740444 0.14860529 -0.04384449 -0.17838502 -0.08966006 -0.08240107 -0.07152021
0.06305293 0.1545555 -0.005149484 -0.022222182 -0.046787657 -0.074982844 0.02358628 -0.10094259
-0.03145287 -0.0963899 -0.0045463936 0.015018054 -0.15244232 -0.07635705 0.022881279 -0.095299274
0.02932037 -0.006359658 0.06945767 0.060917344 0.20787323 0.20735417 0.09606367 0.040117614
-0.15931879 -0.11606805 -0.06328166 -0.029872965 -0.19700648 -0.12085778 -0.22547537 -0.22438034
-0.09324506 0.0046393736 0.017711075 -0.20404741 -0.01515617 -0.17855665 -0.097656354 -0.14086534
0.12996769 0.08078242 -0.17179279 -0.12918724 -0.011711581 -0.17508043 -0.022628246 -0.07117261
-0.060643535 -0.012233109 0.06273251 0.066064045 0.18637174 0.15312439 -0.15268315 -0.0062298016
-0.021810327 -0.028049128 0.11424566 0.11653469 0.026700713 -0.008038703 -0.04225147 -0.02236651
-0.0045258016 0.009440276 -0.12206076 -0.12160448 0.009023992 -0.05169979 0.053628877 -0.09684358
-0.107373 -0.07888503 0.0010597433 0.03881871 0.032487098 0.21639636 -0.057111554 -0.08411383
0.045967218 -0.04707244 -0.022970684 -0.0011557763 0.07215663 0.13552783 -0.0026817592 0.14940804
0.21311261 0.21226498 0.059468083 -0.044478144 -0.13693409 -0.18309817 -0.06287737 -0.112594016
-0.029958779 0.023930645 0.058639914 -0.17871544 0.07318981 0.25720638 -0.046451166 -0.074712746
-0.079469346 0.15436366 -0.11601282 0.035405453 -0.11992509 -0.13840118 -0.049105756 0.047924533
0.007911529 0.056150477 0.024629306 -0.052415933 0.09096095 0.021517161 -0.04351712 0.09314825
-0.06010177 0.06987622 -0.16799669 0.059660178 0.07289646 -0.023546165 -0.045098897 -0.063921586
0.061067976 0.24909101 0.064189665 0.19784084 0.08854302 0.05508285 -0.1165054 0.026974319
-0.205857 0.022465615 -0.027248956 -0.040391173 -0.016915996 0.20890489 0.011800189 0.09571512
-0.024555216 -0.03156 0.033858407 0.08155659 0.2050562 0.09039137 -0.022424223 0.025142945
-0.121683255 -0.03762255 -0.12386987 -0.18198788 -0.015735226 -0.072525814 -0.024870245 0.14516012
0.026183011 0.016456228 -0.08766564 0.15172625 0.040081818 0.16457567 -0.07137371 0.053694066
0.02876823 0.070289366 -0.05802101 0.12252846 -0.14783593 -0.109216966 -0.0108158365 -0.167006
0.11071488 -0.057250377 -0.0035787304 0.005266085 -0.04582904 0.05020593 -0.042521447 0.06347501
0.0018081437 -0.07041682 0.10354025 0.13391507 -0.0351081 0.0036805188 -0.20549846 0.008128867
0.09773145 -0.0051741954 0.09788712 0.11939117 -0.11236131 -0.120509714 0.004128288 0.019462334
0.0015638247 -0.023902446 -0.043677907 -0.017362418 0.09867491 0.08493925 0.00020715094 0.028103119
0.05833703 -0.108535096 -0.035055637 -0.061719347 0.16864607 0.04220941 -0.05378626 0.1552096
0.02430714 0.026831731 0.11050879 0.049274098 -0.18892542 -0.1327405 0.22968763 0.09220169
-0.055532683 0.14287959 0.10463478 0.11172476 -0.07117768 0.07880831 -0.030711258 0.12898803
00000000: 67e4 3abb 9a0d 44bd 55fb 14be 86ab 17be
00000010: 9293 073d ca29 48bd c72d 26be 0faa 9cbd
00000020: 12df c7bd 837d 43b9 7198 46bc 70fa 55bd
00000030: 0282 9ebd 4e8f 42bd 1b41 d8bd 0b26 3ebc
00000040: f2e6 2dbe 14d4 8e3d fc2b 183e 4896 33bd
00000050: 90aa 36be b29f b7bd e4c1 a8bd 3079 92bd
00000060: e521 813d cc43 1e3e 01bd a8bb 4b0b b6bc
00000070: 6aa4 3fbd 9b90 99bd 0438 c13c fdba cebd
00000080: bad4 00bd 1168 c5bd eaf9 94bb 490e 763c
00000090: d719 1cbe 1661 9cbd 8571 bb3c 442c c3bd
000000a0: 4631 f03c ae64 d0bb d33f 8e3d 7784 793d
000000b0: b8dc 543e a754 543e 08bd c43d 5e52 243d
000000c0: 7724 23be 16b5 edbd d199 81bd 26b8 f4bc
000000d0: 11bc 49be 4984 f7bd 04e3 66be f6c3 65be
000000e0: 44f7 bebd e305 983b d116 913c cef1 50be
000000f0: 9651 78bc 8ed7 36be 0e00 c8bd 013f 10be
00000100: 4016 053e 4171 a53d 73ea 2fbe a949 04be
00000110: eee1 3fbc 4948 33be df5e b9bc f2c2 91bd
00000120: 5b65 78bd 616d 48bc e779 803d 964c 873d
00000130: 3cd8 3e3e a4cc 1c3e f958 1cbe 5d23 ccbb
00000140: 92ab b2bc 49c7 e5bc a1f9 e93d bda9 ee3d
00000150: 74bb da3c c4b4 03bc e10f 2dbd f939 b7bc
00000160: 2d4d 94bb 63ab 1a3c fefa f9bd c50b f9bd
00000170: 5ed9 133c 29c3 53bd f4a9 5b3d ed55 c6bd
00000180: 60e6 dbbd 798e a1bd 16e7 8a3a 5e00 1f3d
00000190: 3111 053d 0297 5d3e ceed 69bd df43 acbd
000001a0: 1f48 3c3d 08cf 40bd 042d bcbc 6b7d 97ba
000001b0: dbc6 933d cfc7 0a3e 74c0 2fbb 6cfe 183e
000001c0: 313a 5a3e fe5b 593e ce94 733d b72e 36bd
000001d0: 7338 0cbe 167e 3bbe dac5 80bd b197 e6bd
000001e0: 1d6c f5bc 330a c43c 6830 703d 2e01 37be
000001f0: 8ae4 953d 8eb0 833e 9443 3ebd ff02 99bd
00000200: d3c0 a2bd 8211 1e3e 2198 edbd 4f05 113d
00000210: 499b f5bd 0ab9 0dbe 1e23 49bd 844c 443d
00000220: 5c9f 013c 0bfe 653d 66c3 c93c 17b2 56bd
00000230: bc49 ba3d c244 b03c 023f 32bd 82c4 be3d
00000240: 462d 76bd 431b 8f3d 5307 2cbe 3b5e 743d
00000250: bd4a 953d e3e3 c0bc 9fb9 38bd 52e9 82bd
00000260: 6a22 7a3d b711 7f3e df75 833d ca96 4a3e
00000270: 0b56 b53d 8e9e 613d 629a eebd 3ff9 dc3c
00000280: 2dcc 52be cf09 b83c 3439 dfbc 3771 25bd
00000290: 6a93 8abc 2aeb 553e 9455 413c 4a06 c43d
000002a0: 0528 c9bc 0f45 01bd 1daf 0a3d 2407 a73d
000002b0: 41fa 513e 1c1f b93d 01b3 b7bc 94f8 cd3c
000002c0: 1235 f9bd 1a1a 1abd 7daf fdbd 085b 3abe
000002d0: 29e7 80bc 6a88 94bd afbc cbbc dba4 143e
000002e0: c17d d63c 36cf 863c 0b8a b3bd 205e 1b3e
000002f0: d52c 243d 8686 283e 612c 92bd 4fee 5b3d
00000300: 5aab eb3c dff3 8f3d 70a7 6dbd 34f0 fa3d
00000310: 4d62 17be 25ad dfbd e834 31bc 9f03 2bbe
00000320: 7cbe e23d 5f7f 6abd 2289 6abb 1f8f ac3b
00000330: 3bb7 3bbd bca4 4d3d f82a 2ebd 30ff 813d
00000340: 3cff ec3a b236 90bd e90c d43d 0821 093e
00000350: 83cd 0fbd dc34 713b 306e 52be f02e 053c
00000360: 6d27 c83d 4c8c a9bb 0b79 c83d 5c83 f43d
00000370: b01d e6bd cccd f6bd 9746 873b 796f 9f3c
00000380: 40f9 cc3a 10cf c3bc 9be7 32bd a13b 8ebc
00000390: 1216 ca3d a1f4 ad3d a836 5939 8338 e63c
000003a0: cff2 6e3d a647 debd 8096 0fbd 6dcd 7cbd
000003b0: 8eb1 2c3e c6e3 2c3d fb4e 5cbd 44ef 1e3e
000003c0: c41f c73c 38ce db3c 6f52 e23d a3d3 493d
000003d0: aa75 41be 20ed 07be 3c33 6b3e 3dd4 bc3d
000003e0: 3d76 63bd 074f 123e c24a d63d f3cf e43d
000003f0: 9ac5 91bd 4066 a13d 2d96 fbbc 7015 043e

layer2.0.bias f4 [32]
-0.063681744 0.13278168 0.05077774 -0.039591413 -0.13842668 0.10040355 0.15123741 0.05208033
0.121486776 0.07045514 0.03662533 -0.14902897 0.08948692 -0.10526144 0.06823475 0.023848537
0.057307594 -0.099900514 -0.13352185 0.055922333 -0.2678996 -0.07774891 0.13459837 -0.056989394
-0.031396933 -0.0024729406 -0.06281693 -0.031769786 0.1437895 0.012365149 0.0053143166 -0.006612457
00000000: 936b 82bd ecf7 073e 52fc 4f3d 9b2a 22bd
00000010: b9bf 0dbe 60a0 cd3d fbdd 1a3e 2f52 553d
00000020: 0fce f83d c94a 903d 7104 163d 0d9b 18be
00000030: eb44 b73d 4f93 d7bd a9be 8b3d 025e c33c
00000040: 5ebb 6a3d a498 ccbd f4b9 08be d10e 653d
00000050: 232a 89be d23a 9fbd 28d4 093e b66d 69bd
00000060: 129a 00bd 0f11 22bb 2aa6 80bd 0921 02bd
00000070: 8e3d 133e 3297 4a3c b823 ae3b 4fad d8bb

layer2.1.weight f4 [32]
0.8664519 0.522797 0.4990591 0.42677352 0.7677236 0.44342446 0.6576622 0.28052884
0.45890528 0.82359934 0.66690385 0.77522004 0.61985993 0.5218704 0.48838025 0.6976364
0.5598068 0.46787024 0.61318165 0.82784677 0.5275901 0.3318387 0.57179683 0.3489438
0.76902527 0.38697174 0.9629538 0.6802126 0.22692992 0.9120466 0.21299769 0.5193875
00000000: cbcf 5d3f 06d6 053f ad84 ff3e 0f82 da3e
00000010: 8989 443f 8808 e33e 8d5c 283f 7aa1 8f3e
00000020: a2f5 ea3e 68d7 523f 36ba 2a3f d274 463f
00000030: 24af 1e3f 4c99 053f fa0c fa3e 4d98 323f
00000040: 804f 0f3f b08c ef3e 79f9 1c3f c4ed 533f
00000050: 2510 073f c3e6 a93e 4761 123f c3a8 b23e
00000060: d7de 443f 2921 c63e 2484 763f 6a22 2e3f
00000070: 5160 683e e37b 693f 111c 5a3e 94f6 043f

layer2.1.bias f4 [32]
0.03348505 0.042874087 0.11265936 -0.039564867 0.14235805 -0.09174514 -0.27932 0.08081128
0.03206047 -0.07246424 0.048097063 0.13630143 -0.024717247 0.0053672763 0.105956435 0.11067667
0.20856176 0.13924915 0.029703664 0.11263428 0.05466769 -0.0061203446 -0.060872417 0.09308817
-0.14635263 0.059379164 -0.17923169 0.036287155 -0.0056645917 -0.07556967 -0.0033333877 0.06949107
00000000: 9f27 093d bd9c 2f3d f3b9 e63d c50e 22bd
00000010: 4fc6 113e e0e4 bbbd 0803 8fbe 6280 a53d
00000020: d751 033d 2268 94bd 6d01 453d 9a92 0b3e
00000030: d37b cabc fadf af3b b0ff d83d 73aa e23d
00000040: 3791 553e 5497 0e3e 1955 f33c cdac e63d
00000050: 3aeb 5f3d 2c8d c8bb 5b55 79bd 03a5 be3d
00000060: 77dd 15be 9137 733d 8388 37be d7a1 143d
00000070: 0a9e b9bb 45c4 9abd f774 5abb 5651 8e3d

layer2.1.running_mean f4 [32]
-0.21971843 0.13744766 0.082166746 0.010954762 -0.12428616 0.106496416 0.12330573 0.049603976
0.14208163 0.14634252 0.106892236 -0.13266389 0.16971457 -0.076299034 0.07526194 0.054465704
0.07854799 -0.10333479 -0.11093642 0.107306324 -0.25400758 -0.016664343 0.13758966 -0.019455198
-0.07282349 -0.0062658773 -0.13377182 0.04632571 0.20832512 0.007600568 0.017161543 0.018211735
00000000: defd 60be 14bf 0c3e 0a47 a83d 9a7b 333c
00000010: be89 febd cb1a da3d b787 fc3d 8a2d 4b3d
00000020: d97d 113e d0da 153e 51ea da3d 0bd9 07be
00000030: a8c9 2d3e ab42 9cbd ef22 9a3d 6e17 5f3d
00000040: c5dd a03d 31a1 d3bd a232 e3bd 6bc3 db3d
00000050: 480d 82be a983 88bc 4ee4 0c3e 8260 9fbc
00000060: 7b24 95bd fd51 cdbb 7bfb 08be 07c0 3d3d
00000070: 2e53 553e 2f0e f93b 5d96 8c3c c730 953c

layer2.1.running_var f4 [32]
0.006664523 0.00059212936 0.002144978 0.0013638161 0.0020171897 0.00058975606 0.0016682034 0.0008997351
0.0012262795 0.002920876 0.0036039928 0.0015466135 0.0023424854 0.002076665 0.0009882844 0.0014804179
0.0014810428 0.00128046 0.0013213377 0.0031262727 0.0008771255 0.0066071977 0.0011665459 0.0015898539
0.0023526077 0.0009124114 0.002923711 0.002317246 0.0019946482 0.0016000753 0.0011214088 0.00090160547
00000000: 1262 da3b 2139 1b3a c292 0c3b 13c2 b23a
00000010: d432 043b dc99 1a3a 9ea7 da3a 33dc 6b3a
00000020: 1dbb a03a 2b6c 3f3b f730 6c3b bdb7 ca3a
00000030: 6284 193b a818 083b 5289 813a 950a c23a
00000040: 8d1f c23a 1cd5 a73a bc30 ad3a 27e2 4c3b
00000050: e5ee 653a 3181 d83b c9e6 983a a562 d03a
00000060: 352e 1a3b e42e 6f3a bb9b 3f3b f0dc 173b
00000070: a5b8 023b 9eb9 d13a 3cfc 923a b859 6c3a

layer3.0.weight f4 [64, 32, 2, 2]
-0.05328808 -0.007869297 0.009957579 -0.0042799353 -0.02087513 -0.08074482 0.08523572 0.06569568
0.06776258 -0.054703064 -0.040398873 -0.07834274 0.09461971 -0.11587088 -0.044814132 0.07050898
-0.09539278 -0.18569331 0.11758756 0.009794438 0.071602814 0.002247547 -0.12447094 0.006570378
0.14046018 0.11023238 -0.042724445 0.12564875 0.106248386 0.09623323 0.11681777 0.020785166
0.013812258 -0.08683871 -0.06248388 -0.08864596 0.024332598 0.06572833 -0.081531554 0.11024837
-0.049058005 -0.086539604 -0.045290474 0.074871115 0.023397237 0.15565369 0.018146828 0.035217736
0.015374248 -0.044701427 -0.016024422 0.067880705 -0.043877468 0.13650751 0.049084604 0.012279283
0.037412938 -0.038866494 -0.25044644 0.076056294 0.02567561 -0.03588775 0.029776251 -0.011277143
0.02778713 0.0333876 0.01601087 0.22714566 0.006689771 -0.06372332 -0.07685339 0.1517427
0.026736474 0.044720095 0.094557576 0.13039508 -0.0631198 -0.0825594 -0.068932764 -0.04221745
-0.0019795196 -0.041435264 -0.026793966 0.06481277 0.027016016 -0.014048771 0.0100385295 0.03263141
-0.08169861 0.10522539 -0.027079005 -0.121971846 -0.04297693 -0.08391754 -0.028475331 0.051320966
-0.11232608 0.09838423 0.07144928 -0.08571408 0.06974867 -0.10347827 0.038300265 0.038409956
-0.12763113 0.20038944 0.009625221 0.033044886 0.14220159 -0.0119187245 0.00015208544 0.09066475
-0.010362184 0.06575112 0.057148844 0.048038255 -0.13376738 0.022375008 0.07687312 0.098264545
0.014370964 0.026206061 0.011603351 -0.062499 -0.09741871 0.04268703 -0.023065267 0.22457418
-0.08970641 -0.0016898098 -0.030470876 -0.02634807 0.075238876 0.06997566 -0.033590373 0.11332899
-0.06716357 0.07185625 -0.060565747 -0.0866747 0.23231795 0.07492516 0.10188751 -0.030309958
0.04585608 0.067379236 0.15167667 -0.06455525 0.07389966 -0.0061600315 0.030727101 0.023745004
-0.016650643 -0.024795834 0.05986188 -0.044941638 0.008964647 0.11032409 0.062118962 0.12934895
-0.075224824 0.006141555 -0.14380518 -0.014707428 0.03278812 0.05102703 -0.022241542 0.19756642
-0.023224944 -0.17777765 -0.008463997 -0.040536504 -0.04283479 0.054808587 -0.13558474 0.09946765
-0.0024380737 0.06243818 -0.049795654 -0.21732005 0.073585786 0.04093368 -0.028124867 0.07479628
-0.17848152 0.043231416 -0.067718476 -0.17902517 -0.17637509 -0.15127128 -0.1305191 0.027339917
0.087762125 0.04957339 -0.18660218 0.060153216 -0.16146809 -0.100382105 0.0067748553 -0.05914668
0.09352876 0.04071164 -0.069739245 0.13219759 -0.019720536 -0.058539186 -0.054403476 -0.12744007
0.08417612 -0.02485195 -0.15660587 0.022314437 0.042097986 0.01876305 -0.09803646 0.040645923
-0.004995454 -0.04594763 -0.14387684 -0.019313069 -0.03130736 0.039305814 -0.03721957 0.08380907
-0.062298644 0.031571966 0.09390258 0.104488716 0.23214053 -0.006140431 0.12616685 -0.009637091
0.029359823 -0.04146751 0.013996405 -0.058021884 0.051515374 0.18195906 0.01101165 0.06647369
-0.050707955 0.020415615 0.030990653 0.092203476 0.15790376 -0.110241614 0.26927012 -0.114620246
-0.102606066 0.040640175 0.07248064 0.039031517 -0.06874897 0.09296294 -0.015134453 -0.02864775
00000000: 9a44 5abd 39ee 00bc 1d25 233c b33e 8cbb
00000010: 5202 abbc 8a5d a5bd 1190 ae3d 758b 863d
00000020: 1cc7 8a3d 5210 60bd 4a79 25bd 2972 a0bd
00000030: fbc7 c13d b64d edbd 068f 37bd 0367 903d
00000040: 4a5d c3bd 6326 3ebe bfd1 f03d da78 203c
00000050: 7fa4 923d 954b 133b 9fea febd 534c d73b
00000060: cbd4 0f3e 84c1 e13d d4ff 2ebd 11aa 003e
00000070: c198 d93d ed15 c53d 283e ef3d a745 aa3c
00000080: cf4c 623c 7ed8 b1bd 19ef 7fbd 038c b5bd
00000090: 2855 c73c 939c 863d 04fa a6bd e6c9 e13d
000000a0: 0cf1 48bd ad3b b1bd 8182 39bd 0756 993d
000000b0: 90ab bf3c ae63 1f3e a8a8 943c 7940 103d
000000c0: 45e4 7b3c d818 37bd a645 83bc 0a05 8b3d
000000d0: dcb8 33bd a0c8 0b3e f00c 493d 0c2f 493c
000000e0: 4f3e 193d 7932 1fbd 843a 80be 67c3 9b3d
000000f0: a855 d23c 09ff 12bd 53ed f33c c4c3 38bc
00000100: d6a1 e33c 70c1 083d 3a29 833c df98 683e
00000110: de35 db3b 5f81 82bd 4f65 9dbd 7062 1b3e
00000120: 7306 db3c 6b2c 373d 67a7 c13d 4a86 053e
00000130: f444 81bd e714 a9bd 9f2c 8dbd 34ec 2cbd
00000140: d4ba 01bb 06b8 29bd 057f dbbc 8fbc 843d
00000150: b150 dd3c d12c 66bc a578 243c 83a8 053d
00000160: 9a51 a7bd 6980 d73d cad4 ddbc 60cc f9bd
00000170: 9408 30bd f6dc abbd 1945 e9bc ef35 523d
00000180: 370b e6bd ac7d c93d 0054 923d dd8a afbd
00000190: 64d8 8e3d 6aec d3bd bde0 1c3d c253 1d3d
000001a0: bcb1 02be e432 4d3e 1ab3 1d3c 135a 073d
000001b0: 4b9d 113e c146 43bc 2079 1f39 71ae b93d
000001c0: 26c6 29bc 86a8 863d e814 6a3d c3c3 443d
000001d0: 51fa 08be cb4b b73c a86f 9d3d ec3e c93d
000001e0: 3174 6b3c 18ae d63c fb1b 3e3c f4fe 7fbd
000001f0: 7683 c7bd 98d8 2e3d 5ff3 bcbc c6f6 653e
00000200: ffb7 b7bd 9c7c ddba 0f9e f9bc e8d7 d7bc
00000210: d716 9a3d 664f 8f3d 0f96 09bd 0819 e83d
00000220: 0e8d 89bd 5f29 933d ca13 78bd 8182 b1bd
00000230: c2e4 6d3e 5d72 993d 66aa d03d 974c f8bc
00000240: 96d3 3b3d 20fe 893d 2151 1b3e 8b35 84bd
00000250: b458 973d 17da c9bb 67b7 fb3c e284 c23c
00000260: ee66 88bc a220 cbbc bb31 753d b914 38bd
00000270: 74e0 123c 99f1 e13d 7470 7e3d 0d74 043e
00000280: 790f 9abd 193f c93b aa41 13be 6df7 70bc
00000290: d64c 063d b801 513d e533 b6bc da4e 4a3e
000002a0: 3d42 bebc 580b 36be 94ac 0abc 9b09 26bd
000002b0: 8873 2fbd f87e 603d bad6 0abe b2b5 cb3d
000002c0: 17c8 1fbb 2dbf 7f3d 87f6 4bbd 2689 5ebe
000002d0: 25b4 963d 13aa 273d 1f66 e6bc cb2e 993d
000002e0: dcc3 36be 6d13 313d fcaf 8abd 6052 37be
000002f0: ac9b 34be dce6 1abe cda6 05be f6f7 df3c
00000300: a1bc b33d 780d 4b3d a414 3fbe 3863 763d
00000310: e457 25be 2295 cdbd 9bff dd3b ca43 72bd
00000320: 028c bf3d 40c1 263d 73d3 8ebd ce5e 073e
00000330: f68c a1bc c9c6 6fbd 2ed6 5ebd a67f 02be
00000340: 8864 ac3d 5196 cbbc 4a5d 20be c4cc b63c
00000350: f06e 2c3d f8b4 993c 57c7 c8bd 577c 263d
00000360: e8b0 a3bb 9533 3cbd 7354 13be 7136 9ebc
00000370: 253c 00bd 22ff 203d 8c73 18bd 17a4 ab3d
00000380: dd2c 7fbd 9b51 013d ff4f c03d 2efe d53d
00000390: 3fb6 6d3e ab35 c9bb e231 013e e4e4 1dbc
000003a0: 0384 f03c d6d9 29bd 2d51 653c 5ba8 6dbd
000003b0: c901 533d 7a53 3a3e 356a 343c 5c23 883d
000003c0: 25b3 4fbd a63e a73c 1ce0 fd3c 2dd5 bc3d
000003d0: 86b1 213e 5bc6 e1bd c6dd 893e 05be eabd
000003e0: 2123 d2bd 5076 263d bb70 943d 83df 1f3d
000003f0: 43cc 8cbd 5b63 be3d 7ff6 77bc b0ae eabc

layer3.0.bias f4 [64]
0.0025505065 -0.03555036 0.016266944 0.05494256 -0.020232374 -0.051290665 -0.04746313 0.061944366
0.06283756 0.048190914 0.00022797247 0.08489202 -0.00455891 -0.061244044 0.08642587 -0.020412248
-0.021904213 0.04159516 0.019249722 0.0049083787 -0.06987543 0.07327324 0.05023153 0.07464031
-0.08768422 -0.10292536 -0.039768428 -0.06962843 -0.08529229 -0.07862678 0.0690634 -0.15935259
0.01776702 0.0070122886 -0.06845546 0.0043507656 0.07798487 -0.012376699 0.031312626 -0.021454219
-0.050253805 0.0994518 0.2177156 0.01943742 0.05510088 0.090105 0.08558062 -0.18635061
0.03985103 0.061295092 0.059968416 0.029424923 0.027503327 0.17600244 0.018030548 -0.059614927
-0.0420864 0.039864328 0.14456055 0.102234446 -0.05225325 0.10335421 -0.013510875 0.094447315
00000000: 6626 273b 419d 11bd 4142 853c 730b 613d
00000010: 5dbe a5bc 2916 52bd b368 42bd 60b9 7d3d
00000020: fbb0 803d d663 453d e50b 6f39 dedb ad3d
00000030: e962 95bb 09db 7abd 0c00 b13d 9637 a7bc
00000040: 7770 b3bc b05f 2a3d 98b1 9d3c 77d6 a03b
00000050: d91a 8fbd 4810 963d 94bf 4d3d 05dd 983d
00000060: c993 b3bd 88ca d2bd 38e4 22bd 5a99 8ebd
00000070: b9ad aebd 1407 a1bd 1d71 8d3d 532d 23be
00000080: 248c 913c 57c7 e53b 6032 8cbd de90 8e3b
00000090: 88b6 9f3d a3c7 4abc ab41 003d c2c0 afbc
000000a0: efd6 4dbd 63ad cb3d d7f0 5e3e 393b 9f3c
000000b0: 76b1 613d f888 b83d e444 af3d b2d2 3ebe
000000c0: d53a 233d 9010 7b3d 71a1 753d 890c f13c
000000d0: a84e e13c fc39 343e cdb4 933c c82e 74bd
000000e0: ca62 2cbd c748 233d ae07 143e 4b60 d13d
000000f0: 8107 56bd 5fab d33d b85c 5dbc 986d c13d

layer3.1.weight f4 [64]
0.85248154 0.43328375 0.37037992 0.8198431 0.23164664 0.9106943 0.8668272 1.0270927
0.63947606 0.5867362 0.71907794 0.5472974 0.38741592 0.7386504 0.44419715 0.83813727
0.5731647 0.66448385 0.4261401 1.0467099 0.77416337 1.0627359 0.7794329 0.55143243
0.9619778 0.6469221 0.8921189 0.6427285 0.8669409 0.5527649 0.8424606 0.6681907
0.37713227 0.8392653 0.52073866 0.33204657 0.9723038 0.35833985 0.77473354 0.9876405
0.5814172 0.31648406 0.5612519 0.61710507 0.61176115 0.91426414 0.9639068 0.51946026
0.6258827 0.28846774 0.6562437 0.9062428 0.5209518 0.6647041 0.5990082 0.37260166
1.1094664 0.7339293 1.0261691 0.381384 0.60401225 0.5567763 0.7524381 0.6057525
00000000: 3b3c 5a3f 5ed7 dd3e 70a2 bd3e 3de1 513f
00000010: c734 6d3e 4323 693f 63e8 5d3f c677 833f
00000020: b4b4 233f 5834 163f 7e15 383f af1b 0c3f
00000030: 615b c63e 3118 3d3f cf6d e33e 2a90 563f
00000040: ecba 123f 9d1b 2a3f 092f da3e 97fa 853f
00000050: 922f 463f bb07 883f ea88 473f ad2a 0d3f
00000060: 2d44 763f b09c 253f e761 643f db89 243f
00000070: d7ef 5d3f 0082 0d3f 7fab 573f 8c0e 2b3f
00000080: 7b17 c13e 17da 563f 214f 053f 0202 aa3e
00000090: e7e8 783f 5278 b73e f054 463f 02d6 7c3f
000000a0: c2d7 143f 330a a23e 34ae 0f3f 99fa 1d3f
000000b0: 619c 1c3f 370d 6a3f 99c2 763f 59fb 043f
000000c0: d939 203f 0bb2 933e 96ff 273f 87ff 673f
000000d0: 195d 053f 0c2a 2a3f 9a58 193f a5c5 be3e
000000e0: ff02 8e3f cae2 3b3f 8259 833f c344 c33e
000000f0: 8ca0 1a3f e488 0e3f c99f 403f 9912 1b3f

layer3.1.bias f4 [64]
0.011849361 0.010213197 -0.1928171 -0.01355617 -0.34449768 -0.030289523 0.0050306586 -0.04237532
-0.010871907 -0.028320748 -0.23698933 -0.118962124 -0.24038443 -0.001294552 -0.37777567 0.01969311
0.07983991 0.16575435 -0.21561404 -0.07862207 -0.17521368 0.010869474 -0.046963017 -0.21272804
0.023980984 0.2106138 -0.17291571 0.008110948 0.03889697 -0.1635002 0.075719625 0.104793444
-0.38465652 -0.08361765 0.16886932 -0.3365376 -0.1774176 -0.31107056 -0.0033113 -0.0063551473
0.007439678 -0.33645102 0.023225026 -0.17327249 -0.005038779 0.057289336 -0.10325719 0.09317597
0.10480062 -0.34251845 0.061999034 0.01293565 0.16123399 0.1372294 0.05248749 -0.42440864
-0.08229045 -0.03179152 -0.07994232 -0.23185605 -0.07858801 0.08564178 0.09053694 0.10664305
00000000: d223 423c 4155 273c d971 45be b31a 5ebc
00000010: 0062 b0be bc21 f8bc 39d8 a43b be91 2dbd
00000020: 1520 32bc ea00 e8bc 55ad 72be 6aa2 f3bd
00000030: 5627 76be f5ad a9ba d06b c1be 7253 a13c
00000040: 1b83 a33d 82bb 293e edc9 5cbe 9c04 a1bd
00000050: 376b 33be e115 323c 4b5c 40bd 61d5 59be
00000060: c573 c43c 25ab 573e d110 31be c8e3 043c
00000070: 6e52 1f3d 996c 27be e412 9b3d f29d d63d
00000080: b3f1 c4be bb3f abbd 14ec 2c3e a84e acbe
00000090: f6ac 35be a444 9fbe 6502 59bb d73e d0bb
000000a0: 8bc8 f33b 4f43 acbe 6942 be3c 586e 31be
000000b0: 581c a5bb 39a8 6a3d 8178 d3bd 0bd3 be3d
000000c0: b5a1 d63d 945e afbe b3f2 7d3d 0cf0 533c
000000d0: 861a 253e dd85 0c3e 1ffd 563d 174c d9be
000000e0: e587 a8bd d337 02bd cdb8 a3bd ac6b 6dbe
000000f0: c0f2 a0bd f564 af3d 6e6b b93d ac67 da3d

layer3.1.running_mean f4 [64]
0.04092114 -0.034600735 0.044838965 0.07243442 0.013965718 -0.037900917 -0.034692254 0.07466096
0.07150929 0.076751664 0.013284298 0.08320049 0.028610846 -0.054433238 0.099984065 -0.020703534
-0.00092038844 0.05175652 0.046870027 -0.078087114 -0.066006936 0.10081944 0.06554908 0.09489225
-0.07522946 -0.09165109 -0.04089799 -0.05624365 -0.054190174 -0.059362154 0.08504647 -0.14547962
0.0068977736 0.010514226 -0.061463363 0.02131177 0.091571316 0.002717111 0.05317831 0.013207641
-0.04101675 0.13508493 0.22519195 0.052334912 0.06905368 0.11825305 0.09837548 -0.17122866
0.038373265 0.11180242 0.060262498 0.07352796 0.031660367 0.17635275 0.02459054 -0.042695303
-0.18205059 0.07064794 0.07443084 0.10884316 -0.050521374 0.109382436 -0.021914026 0.10940524
00000000: ed9c 273d 80b9 0dbd 10a9 373d 7f58 943d
00000010: 78d0 643c fe3d 1bbd 7719 0ebd d8e7 983d
00000020: 7673 923d fa2f 9d3d 62a6 593c 0565 aa3d
00000030: 4b61 ea3c 63f5 5ebd 72c4 cc3d 759a a9bc
00000040: 3946 71ba a5fe 533d c9fa 3f3d 23ec 9fbd
00000050: a52e 87bd 6c7a ce3d 993e 863d de56 c23d
00000060: e711 9abd 91b3 bbbd a784 27bd be5f 66bd
00000070: 84f6 5dbd bb25 73bd d82c ae3d 9cf8 14be
00000080: b806 e23b dc43 2c3c 02c1 7bbd 0596 ae3c
00000090: be89 bb3d 8f11 323b 80d1 593d dd64 583c
000000a0: 2e01 28bd b453 0a3e b898 663e 225d 563d
000000b0: 046c 8d3d a82e f23d 1579 c93d 9156 2fbe
000000c0: 492d 1d3d abf8 e43d cfd5 763d d495 963d
000000d0: 4dae 013d d195 343e 1a72 c93c 45e1 2ebd
000000e0: 786b 3abe deaf 903d 326f 983d 2ae9 de3d
000000f0: 80ef 4ebd e603 e03d 0b85 b3bc db0f e03d

layer3.1.running_var f4 [64]
0.0022520705 0.0012020638 0.0025443917 0.0015822365 0.0020394411 0.002062475 0.0021825295 0.0018067121
0.0011930127 0.001746372 0.0016340393 0.0012572481 0.0016661959 0.0025804932 0.0027733576 0.001674636
0.0011127116 0.0016126212 0.001802882 0.008091469 0.0014110984 0.0028423383 0.0020917587 0.001282806
0.0014840262 0.001922576 0.0017022109 0.0014977857 0.0019043825 0.0017653549 0.000934036 0.0013279153
0.0023743513 0.0016813984 0.0013521862 0.002480962 0.0037047674 0.0024122398 0.0018119314 0.002773985
0.0010325271 0.0020281686 0.0015359032 0.0016656307 0.001164518 0.001663626 0.0030943057 0.0016453681
0.0016778052 0.0028816033 0.0014725743 0.0022452965 0.0012240581 0.0013492552 0.0019834514 0.002600715
0.009946129 0.0020732079 0.0063646445 0.0015719263 0.0015435783 0.0010488848 0.0018276995 0.0017499424
00000000: 7997 133b 918e 9d3a cfbf 263b 0c63 cf3a
00000010: 25a8 053b 972a 073b c508 0f3b 33cf ec3a
00000020: dd5e 9c3a 85e6 e43a 432d d63a 3fca a43a
00000030: 4264 da3a 7e1d 293b 38c1 353b 767f db3a
00000040: 68d8 913a 975e d33a ae4e ec3a 1592 043c
00000050: 9bf4 b83a 8646 3a3b e315 093b d423 a83a
00000060: a883 c23a f2fe fb3a b81c df3a 5951 c43a
00000070: 799c f93a 7b63 e73a 18da 743a 720d ae3a
00000080: 019b 1b3b 5e62 dc3a d73b b13a a397 223b
00000090: afcb 723b ab16 1e3b 547e ed3a bfcb 353b
000000a0: dc55 873a 06eb 043b 5c50 c93a 4b51 da3a
000000b0: bda2 983a 070e da3a d6c9 4a3b 64a9 d73a
000000c0: cde9 db3a 48d9 3c3b 6503 c13a d325 133b
000000d0: 9370 a03a 7ed9 b03a cbfc 013b c270 2a3b
000000e0: 17f5 223c a8de 073b 828e d03b 1809 ce3a
000000f0: e551 ca3a bc7a 893a 6b8f ef3a 535e e53a

layer4.0.weight f4 [128, 64, 2, 2]
0.14058091 0.09745434 0.04537068 0.12296883 0.039712626 0.0025720026 -0.07962367 0.0031098756
0.050376043 0.030948285 -0.06145069 -0.056127463 0.03170219 -0.11567504 0.045671858 -0.12228048
-0.060781244 -0.10900608 -0.1096464 -0.07405513 -0.11196976 0.030344626 0.17743939 0.03146827
-0.124215625 0.10470335 -0.034659475 -0.034239963 0.05116651 0.07291111 0.13523293 0.049929727
0.058984403 -0.04380735 -0.040413834 -0.026692174 -0.04887822 0.051415194 -0.021278556 0.06159998
-0.016935641 -0.048624054 -0.03810415 -0.05173703 0.0781627 0.0831042 -0.0797456 -0.17669973
0.04137207 -0.01337495 -0.08636182 -0.0633604 -0.01988901 -0.11721054 0.12469304 0.06769802
-0.005043219 -0.054609764 -0.11313723 0.024875296 -0.12222052 0.042870123 -0.08855451 -0.086537495
-0.06035379 -0.033461962 -0.08511114 0.056479074 0.08204804 -0.015906185 0.14035642 0.0050915363
0.05724256 -0.033576615 -0.041338142 -0.07914765 0.022787374 0.08181702 -0.04526163 0.10311648
-0.118410416 0.076077774 -0.11345078 -0.018876936 0.118326366 0.032697186 -0.022693131 -0.032281563
0.117113136 -0.19219728 0.10934466 -0.12863472 0.11532444 -0.013670219 0.04078623 0.0394085
-0.0782786 0.06825871 -0.06896625 0.048110854 0.20555024 0.09851135 0.13222952 0.14520788
-0.114356324 -0.12020892 0.15046205 -0.19376074 0.16644172 -0.13085914 0.12320909 -0.15873599
0.008615385 0.13688876 0.068399094 0.033802353 -0.02763108 -0.026749898 0.0053817118 -0.032326046
0.050551653 0.020487292 0.014527061 -0.01989504 0.08978339 0.11614305 -0.010245577 0.18164602
-0.05877821 -0.035841413 -0.017365117 -0.020611301 -0.16238141 0.038274158 -0.10402654 -0.08610502
0.17041788 0.031751968 0.19408874 -0.07438902 -0.033475384 0.019188419 -0.11930182 -0.058018006
-0.04969569 -0.0062664016 -0.0030133892 0.014741083 0.028514817 -0.098173805 -0.06118442 0.0588161
-0.033016577 0.0065756557 -0.030189212 0.03309565 -0.035243917 0.045983557 0.03699299 0.049215857
-0.1562676 0.007991508 -0.017545871 0.096737854 0.027813096 0.010889421 -0.10670972 -0.0035927137
-0.085009485 -0.007552717 -0.027452007 0.073731236 0.08245773 -0.014869755 -0.06806317 -0.039535344
-0.06927065 0.10422573 0.12488882 0.028053312 0.12571768 0.06004519 0.10675054 -0.03848895
-0.07599478 0.027392644 -0.044068206 0.09226735 -0.019154536 -0.12052484 0.015818996 -0.024914233
-0.09751545 -0.05164401 0.0440857 -0.09756417 -0.07338709 0.012107802 -0.050528664 -0.057700798
0.044806145 -0.0043037585 0.12492364 0.13203204 0.05875363 -0.08676515 0.057923917 -0.02979259
-0.14751343 -0.1325297 -0.08305441 -0.124617934 -0.13145655 0.13951877 -0.08752964 0.1430426
-0.18870865 -0.060585678 0.12413144 -0.0076633478 0.0066265273 -0.009216596 -0.08638653 -0.06074306
0.0059249173 -0.026918484 -0.0129168 0.10770316 0.006346861 0.021256285 0.048578743 -0.0432454
0.021922674 0.054303184 -0.037893567 0.07584828 -0.020439245 -0.047704283 -0.047720984 0.009828907
0.029985102 -0.12978853 0.05632771 -0.031163024 0.061275885 0.05206207 0.013255557 -0.22701867
-0.16020437 -0.047239 0.12381116 -0.06713298 -0.11237512 0.06803452 -0.17489447 0.016930105
00000000: 71f4 0f3e 2496 c73d 9bd6 393d 15d7 fb3d
00000010: b5a9 223d 0b8f 283b bc11 a3bd 0ecf 4b3b
00000020: 1c57 4e3d 4287 fd3c b8b3 7bbd e9e5 65bd
00000030: 28da 013d 09e7 ecbd 6a12 3b3d 306e fabd
00000040: c1f5 78bd 943e dfbd 4b8e e0bd 37aa 97bd
00000050: 6750 e5bd 4b95 f83c acb2 353e dfe4 003d
00000060: c364 febd b66e d63d 18f7 0dbd 343f 0cbd
00000070: f993 513d 6c52 953d 807a 0a3e 1d83 4c3d
00000080: a199 713d 566f 33bd fa88 25bd 8ca9 dabc
00000090: 8734 48bd bd98 523d 5e50 aebc 4350 7c3d
000000a0: 9dbc 8abc 042a 47bd 1913 1cbd 35ea 53bd
000000b0: c413 a03d 8932 aa3d a951 a3bd c6f0 34be
000000c0: c275 293d 9b22 5bbc 77de b0bd 19c3 81bd
000000d0: 47ee a2bc 140c f0bd 115f ff3d 42a5 8a3d
000000e0: 9641 a5bb 7dae 5fbd 7eb4 e7bd 47c7 cb3c
000000f0: c14e fabd 9598 2f3d 115c b5bd 923a b1bd
00000100: 8935 77bd 690f 09bd c04e aebd 9a56 673d
00000110: ce08 a83d b04d 82bc 98b9 0f3e e7d6 a63b
00000120: 2d77 6a3d a287 09bd 2f52 29bd 2a18 a2bd
00000130: 96ac ba3c af8f a73d 4264 39bd bc2e d33d
00000140: 2981 f2bd aace 9b3d e258 e8bd cea3 9abc
00000150: 1855 f23d 7ced 053d f2e6 b9bc ac39 04bd
00000160: 03d9 ef3d 5dcf 44be 18f0 df3d d2b8 03be
00000170: 382f ec3d 0ef9 5fbc 760f 273d cf6a 213d
00000180: 8850 a0bd 39cb 8b3d 2d3e 8dbd e30f 453d
00000190: c37b 523e 52c0 c93d 2d67 073e 60b1 143e
000001a0: a633 eabd 1830 f6bd b912 1a3e 3769 46be
000001b0: b36f 2a3e f0ff 05be 0c55 fc3d b08b 22be
000001c0: 8b27 0d3c 912c 0c3e d314 8c3d 5674 0a3d
000001d0: 935a e2bc 9a22 dbbc 1259 b03b 5168 04bd
000001e0: 400f 4f3d f7d4 a73c e902 6e3c ecfa a2bc
000001f0: 5be0 b73d 68dc ed3d 11dd 27bc 6a01 3a3e
00000200: 6cc1 70bd 72ce 12bd 4a41 8ebc 08d9 a8bc
00000210: 5047 26be 5dc5 1c3d de0b d5bd d457 b0bd
00000220: 0682 2e3e 5a0e 023d 33bf 463e 4559 98bd
00000230: 7c1d 09bd 0831 9d3c 8354 f4bd 4aa4 6dbd
00000240: b58d 4bbd 6356 cdbb 487c 45bb 9584 713c
00000250: e897 e93c 590f c9bd 849c 7abd 27e9 703d
00000260: 643c 07bd 9978 d73b 5e4f f7bc 4e8f 073d
00000270: ed5b 10bd 4159 3c3d f685 173d 9196 493d
00000280: 9d04 20be d0ee 023c 5cbc 8fbc 7f1e c63d
00000290: 4ad8 e33c 8b69 323c a08a dabd bc73 6bbb
000002a0: 7419 aebd c87c f7bb 08e3 e0bc 6700 973d
000002b0: 99df a83d 46a0 73bc b464 8bbd d0ef 21bd
000002c0: c5dd 8dbd 4d74 d53d b6c5 ff3d 0fd0 e53c
000002d0: 23bc 003e f2f1 753d 07a0 da3d 97a6 1dbd
000002e0: 27a3 9bbd 8a66 e03c dd80 34bd aaf6 bc3d
000002f0: f9e9 9cbc bad5 f6bd d796 813c ef18 ccbc
00000300: 2eb6 c7bd ab88 53bd 3593 343d b9cf c7bd
00000310: f84b 96bd cd5f 463c 25f7 4ebd ac57 6cbd
00000320: a686 373d 8b06 8dbb f7d7 ff3d 6833 073e
00000330: a5a7 703d edb1 b1bd a141 6d3d 970f f4bc
00000340: c30d 17be deb5 07be 6e18 aabd b037 ffbd
00000350: 8c9c 06be 02de 0e3e bd42 b3bd c279 123e
00000360: d73c 41be b028 78bd a038 fe3d d21c fbbb
00000370: 5723 d93b 3501 17bc 6ceb b0bd b7cd 78bd
00000380: cf25 c23b 2784 dcbc fca0 53bc 7993 dc3d
00000390: 54f9 cf3b a921 ae3c 81fa 463d 1722 31bd
000003a0: 2e97 b33c 046d 5e3d 4936 1bbd 5856 9b3d
000003b0: 3470 a7bc 9165 43bd 1477 43bd 6d09 213c
000003c0: 51a3 f53c 49e7 04be e3b7 663d 9949 ffbc
000003d0: 6cfc 7a3d 0a3f 553d d62d 593c 9577 68be
000003e0: 9d0c 24be af7d 41bd b590 fd3d 047d 89bd
000003f0: ed24 e6bd af55 8b3d 8917 33be 01b1 8a3c

layer4.0.bias f4 [128]
0.16070206 0.10845944 -0.06858253 -0.018991401 -0.07676352 0.12754108 -0.067917496 0.012261072
0.0064071165 0.015704492 -0.024179159 0.041665718 -0.14624596 -0.03238477 -0.10690675 -0.01200836
0.07018141 0.03147308 -0.09564209 -0.038130444 -0.06025559 -0.06969697 0.02598712 -0.11803102
-0.0042313337 -0.05936276 -0.049766608 0.062330324 -0.061064914 0.105668336 0.056378704 0.0069785467
0.083279006 0.03532054 0.020448888 0.017848969 0.010609067 0.076948665 0.03510743 0.05608677
-0.057323456 0.038646113 0.039238017 -0.06275791 0.01621736 -0.044916596 -0.051889263 -0.027465813
0.046344727 0.052173924 -0.04748942 0.016106362 0.00554831 0.10950651 -0.028460681 0.014295948
0.0010856764 -0.0042014993 0.0046773003 0.001725006 0.0050439197 0.044160597 0.0071998686 -0.027666906
-0.013248365 -0.0058605354 -0.1283385 0.08141717 -0.10204382 -0.054509513 0.035289925 -0.020167638
0.09815299 -0.062319923 -0.015078289 -0.0034334154 -0.046759274 0.0023691852 0.09596097 -0.018297361
-0.13234726 0.0024206291 -0.023876924 -0.102460064 -0.014487371 0.083710276 -0.040458415 -0.023268973
-4.9906273e-05 0.11193505 0.116495535 0.052483063 0.055641863 -0.02441381 0.017422548 -0.0003484909
-0.025734155 -0.037876163 -0.050211787 -0.013061581 0.07449943 -0.010891699 -0.007413418 0.0015914751
0.19261685 0.051922794 -0.10433435 0.030375991 -0.08847117 0.055873945 -0.07738403 0.009491739
0.042026848 0.08191944 -0.020479891 0.09677541 -0.011496683 0.058485527 0.1274721 -0.054288883
-0.024223113 0.022402428 0.007812505 -0.01652602 -0.029256769 0.021539893 -0.026336743 0.008072947
00000000: 158f 243e fc1f de3d ff74 8cbd db93 9bbc
00000010: 3136 9dbd 219a 023e 5418 8bbd aae2 483c
00000020: caf2 d13b b5a6 803c 5f13 c6bc aca9 2a3d
00000030: 80c1 15be e5a5 04bd edf1 dabd b6be 44bc
00000040: 45bb 8f3d ebe9 003d 00e0 c3bd ab2e 1cbd
00000050: 91ce 76bd 49bd 8ebd f1e2 d43c 3fba f1bd
00000060: 00a7 8abb 5e26 73bd 12d8 4bbd 154e 7f3d
00000070: 341f 7abd a468 d83d 5bed 663d 4bac e43b
00000080: 2f8e aa3d 45ac 103d 6d84 a73c 0038 923c
00000090: a7d1 2d3c 4397 9d3d cfcc 0f3d 3ebb 653d
000000a0: 00cc 6abd 634b 1e3d 0bb8 203d 3887 80bd
000000b0: 45da 843c 77fa 37bd d689 54bd fcff e0bc
000000c0: f8d3 3d3d 53b4 553d 4484 42bd 7df1 833c
000000d0: 99ce b53b f344 e03d 6026 e9bc 8d39 6a3c
000000e0: 414d 8e3a bbac 89bb 0a44 993b 9919 e23a
000000f0: 7747 a53b bee1 343d e0ec eb3b b5a5 e2bc
00000100: ac0f 59bc bc09 c0bb 2b6b 03be 0cbe a63d
00000110: 5afc d0bd 5e45 5fbd 2b8c 103d 9a36 a5bc
00000120: 6f04 c93d 2d43 7fbd ee0a 77bc 2703 61bb
00000130: a786 3fbd 5544 1b3b 2f87 c43d 59e4 95bc
00000140: 0a86 07be 6ba3 1e3b 8a99 c3bc 95d6 d1bd
00000150: 705c 6dbc 4b70 ab3d b9b7 25bd 939e bebc
00000160: 7452 51b8 343e e53d 3695 ee3d 7bf8 563d
00000170: b9e8 633d 78ff c7bc bbb9 8e3c a8b5 b6b9
00000180: 6fd0 d2bc 0924 1bbd e0aa 4dbd 3e00 56bc
00000190: 2893 983d 1973 32bc 42ec f2bb 0b99 d03a
000001a0: 5a3d 453e ffac 543d 3fad d5bd 12d7 f83c
000001b0: 5f30 b5bd 14dc 643d 857b 9ebd 3d83 1b3c
000001c0: 5824 2c3d 61c5 a73d 72c5 a7bc 3032 c63d
000001d0: 955c 3cbc 858e 6f3d 0c88 023e 055e 5ebd
000001e0: 8d6f c6bc 4c85 b73c 0500 003c 9361 87bc
000001f0: e4ab efbc 6e74 b03c 27c0 d7bc 6544 043c

layer4.1.weight f4 [128]
0.6809137 0.8316521 0.61060816 0.6663116 0.77032065 0.75361145 0.9374398 0.6304662
0.6519833 0.58903146 0.7390558 0.85293436 0.9117205 0.59011626 0.87043035 0.98588896
0.68241155 0.6540345 0.7353166 0.6677916 0.9584283 0.74800456 0.6611177 0.5770775
0.6118026 0.79753447 0.66256803 0.61302996 0.5603066 0.64024687 0.50370944 0.71831584
0.84724444 0.5976752 0.7466899 0.8092677 0.7863033 0.73943555 0.76614565 0.5201638
0.927273 0.65880984 0.73078674 0.6348271 0.58265924 0.6461576 0.61262226 0.4383635
0.878634 0.67369086 0.7231819 0.58993953 0.6400353 0.7037797 0.7139593 1.1338909
0.6548532 0.6694413 0.7615398 1.0840458 0.6551532 0.683604 0.65739596 0.67710644
0.5790691 0.6874396 0.8695285 0.5782773 0.5972454 0.7304288 1.0055746 0.66043675
0.87781024 0.67919606 0.60840327 0.7660648 0.8682006 0.6443766 0.6886068 0.7966008
0.6870112 0.84107316 0.6439629 0.61548346 0.7249925 0.98064303 0.8188384 0.7914324
0.665503 0.7128886 0.6782587 0.58802414 0.7852943 0.56069356 0.77379453 0.6196616
0.6664974 0.7089277 0.48897785 0.9267696 0.7425537 0.8870773 0.6246781 0.74006903
0.7017098 0.9841737 0.69064665 1.1231112 0.6700942 0.86066884 1.0159659 0.73341006
0.8648815 0.8935173 0.66218114 0.7590932 0.6501061 0.6089981 0.62035227 0.723627
0.91659987 0.6548042 0.6611539 0.64052224 0.7146008 0.5887036 0.73145974 0.6656514
00000000: 5c50 2e3f 27e7 543f d150 1c3f 6693 2a3f
00000010: bc33 453f aeec 403f 0efc 6f3f 3c66 213f
00000020: 61e8 263f c4ca 163f c332 3d3f e859 5a3f
00000030: 8466 693f dc11 173f 86d4 5e3f 3863 7c3f
00000040: 86b2 2e3f ce6e 273f b53d 3c3f 64f4 2a3f
00000050: 8f5b 753f 3a7d 3f3f 023f 293f 5abb 133f
00000060: 189f 1c3f 382b 4c3f 0f9e 293f 88ef 1c3f
00000070: 4170 0f3f 38e7 233f 1af3 003f 8ce3 373f
00000080: 03e5 583f 3e01 193f 1227 3f3f 2b2c 4f3f
00000090: 2c4b 493f a64b 3d3f 1f22 443f 7429 053f
000000a0: c361 6d3f c3a7 283f d714 3b3f 0784 223f
000000b0: 2829 153f 966a 253f d0d4 1c3f 2e71 e03e
000000c0: 28ee 603f 0177 2c3f 7322 393f 4706 173f
000000d0: 5ad9 233f e82a 343f 09c6 363f 5623 913f
000000e0: 76a4 273f 8160 2b3f 46f4 423f 03c2 8a3f
000000f0: 1fb8 273f ac00 2f3f 1a4b 283f d956 2d3f
00000100: df3d 143f 0bfc 2f3f 6b99 5e3f fb09 143f
00000110: 13e5 183f 62fd 3a3f abb6 803f 6212 293f
00000120: 2cb8 603f cbdf 2d3f 51c0 1b3f d31c 443f
00000130: 6542 5e3f ddf5 243f 8948 303f 08ee 4b3f
00000140: f7df 2f3f 9250 573f c1da 243f 5390 1d3f
00000150: 1c99 393f 6c0b 7b3f 659f 513f 509b 4a3f
00000160: 685e 2a3f de7f 363f 5da2 2d3f c088 163f
00000170: 0c09 493f 9d89 0f3f 6617 463f 25a2 1e3f
00000180: 939f 2a3f 497c 353f 4e5b fa3e c640 6d3f
00000190: 0018 3e3f 7f17 633f e7ea 1f3f 2a75 3d3f
000001a0: 41a3 333f cff2 7b3f 38ce 303f 1cc2 8f3f
000001b0: 4b8b 2b3f cb54 5c3f 2c0b 823f c3c0 3b3f
000001c0: e068 5d3f 8dbd 643f b484 293f ef53 423f
000001d0: 5a6d 263f 4de7 1b3f 68cf 1e3f 9e3f 393f
000001e0: 4aa6 6a3f 40a1 273f 6241 293f 44f9 233f
000001f0: 14f0 363f 47b5 163f f240 3b3f 2168 2a3f

layer4.1.bias f4 [128]
-0.030259805 -0.007773623 -0.1860325 -0.35316014 -0.16333754 0.22393024 -0.004755419 -0.13442302
-0.24891564 0.11372475 -0.18536559 -0.023206238 -0.05701198 0.085519955 -0.017369447 -0.03896185
-0.43772423 0.050759297 0.051966835 -0.107167915 -0.17479733 0.0036354144 -0.34960523 0.021125602
0.08182561 -0.2958626 -0.61554694 -0.25600192 0.042761423 0.014960924 -0.16436067 0.028490543
-0.048592385 -0.17176723 -0.22019361 -0.085110694 -0.07458515 -0.1830952 -0.30382568 -0.34291717
0.06815734 -0.33146948 -0.123457 -0.22519787 -0.012242889 -0.35279003 -0.01470884 -0.2529049
-0.21934007 0.06295037 -0.1245591 -0.005382979 -0.36552083 -0.44690856 0.08539007 -0.13937595
-0.4938271 0.014470116 -0.0154483905 -0.12237091 -0.613962 -0.23515749 -0.4877342 -0.018171567
-0.09152121 -0.039651163 0.090224385 -0.063320346 -0.13062817 -0.24572779 -0.21053901 -0.33563283
0.058202043 0.07284714 0.11081764 -0.17792647 0.01873327 -0.2236489 -0.24362195 -0.38491893
-0.027271787 0.024199737 -0.5626524 0.0511899 -0.18192166 -0.0016823013 0.07850857 -0.09466595
-0.25714967 -0.16368833 0.00074775587 -0.55210227 -0.267496 -0.30247936 0.097608194 0.08140732
-0.26295045 -0.5430926 0.07807099 -0.025192207 -0.06150389 -0.34874755 -0.2996612 -0.47807562
0.008135188 0.05828692 -0.24202134 -0.10080489 0.06913398 -0.24918616 -0.0065515977 -0.37375605
-0.050079577 -0.06507657 -0.44282666 -0.1777257 -0.3404174 -0.5797262 -0.059571356 -0.34127057
0.102184296 -0.32712153 -0.5907313 -0.41810644 0.00062221393 -0.33982083 -0.026799196 -0.27984297
00000000: 69e3 f7bc e0b9 febb 4e7f 3ebe 68d1 b4be
00000010: f541 27be f84d 653e 59d3 9bbb 30a6 09be
00000020: bee3 7ebe 86e8 e83d 7ad0 3dbe 021b bebc
00000030: 6585 69bd 1625 af3d 5f4a 8ebc 7696 1fbd
00000040: 641d e0be fbe8 4f3d 2ddb 543d da7a dbbd
00000050: 12fe 32be 2240 6e3b 75ff b2be 990f ad3c
00000060: 2f94 a73d 4d7b 97be 7c94 1dbf af12 83be
00000070: 9a26 2f3d aa1e 753c 2a4e 28be 0065 e93c
00000080: cf08 47bd c0e3 2fbe 6f7a 61be 844e aebd
00000090: 19c0 98bd 4f7d 3bbe 0a8f 9bbe d792 afbe
000000a0: 1396 8b3d 5eb6 a9be 06d7 fcbd 459a 66be
000000b0: 6696 48bc e5a0 b4be 59fd 70bc c07c 81be
000000c0: af9a 60be 20ec 803d d718 ffbd b363 b0bb
000000d0: 8c25 bbbe 33d1 e4be fde0 ae3d 92b8 0ebe
000000e0: e8d6 fcbe 1114 6d3c 3f1b 7dbc 9a9d fabd
000000f0: 9d2c 1dbf 20cd 70be 4cb8 f9be 8adc 94bc
00000100: 796f bbbd 4269 22bd 90c7 b83d 19ae 81bd
00000110: 64c3 05be 11a0 7bbe 8a97 57be 11d8 abbe
00000120: 4465 6e3d e230 953d 5cf4 e23d 5b32 36be
00000130: 8476 993c 3804 65be 0878 79be 1814 c5be
00000140: 1569 dfbc 873e c63c fd09 10bf 80ac 513d
00000150: ac49 3abe aa80 dcba 1ac9 a03d 39e0 c1bd
00000160: 1fa9 83be ea9d 27be 0c05 443a 9356 0dbf
00000170: 3cf5 88be 93de 9abe cee6 c73d e2b8 a63d
00000180: 71a1 86be 1e08 0bbf afe3 9f3d e35f cebc
00000190: 81eb 7bbd 0a8f b2be 316d 99be 54c6 f4be
000001a0: 7449 053c 44be 6e3d 71d4 77be cb72 cebd
000001b0: 1e96 8d3d a82a 7fbe c9ae d6bb f45c bfbe
000001c0: 3e20 4dbd dd46 85bd 2dba e2be bafd 35be
000001d0: 304b aebe f068 14bf 1801 74bd 04bb aebe
000001e0: 0046 d13d 797c a7be 2b3a 17bf 0c12 d6be
000001f0: 121c 233a fffc adbe fd89 dbbc 9447 8fbe

layer4.1.running_mean f4 [128]
0.17143932 0.10367334 -0.063165076 -0.008745958 -0.059813116 0.1330384 -0.031416718 0.02256876
0.025531922 -0.0027051303 -0.007453246 0.05905547 -0.1308549 -0.026475135 -0.095565416 -0.076776095
0.024999764 0.054693688 -0.088561885 -0.02603181 -0.027969237 -0.058942657 0.037032988 -0.105804935
-0.00636212 -0.03496195 -0.047235344 0.10016415 -0.051533442 0.11585804 0.06697811 0.005963145
0.101610504 0.03837195 0.022141429 0.023730526 0.040064324 0.094224975 0.025801951 0.054802924
-0.039282165 0.041080903 0.06357844 -0.00727006 0.028619407 -0.03944461 -0.045363538 -0.009706781
0.09501112 0.049753457 -0.027258571 0.021064635 0.014009296 0.13190365 -0.015464758 -0.107715115
0.0028899997 -0.005824988 0.01984318 -0.11957925 -0.005332271 0.054476537 0.02418003 -0.007860216
0.004061407 -0.0002782206 -0.117541775 0.12039899 -0.09669067 -0.058175445 -0.021356523 -0.015018595
0.110125564 -0.057077877 -0.0033861226 0.035265762 -0.02679406 0.017020963 0.100626096 -0.007407164
-0.121413775 0.014865148 -0.049606632 -0.09082648 0.0028969331 0.12062374 -0.022854147 -0.018517643
0.004487843 0.12332952 0.12856911 0.048931815 0.12928694 -0.013447597 0.011653685 0.011729269
-0.020071523 -0.046226505 -0.045841806 -0.0041749375 0.08813927 -0.0775885 -0.0042923205 -0.013002053
0.20013227 0.054112423 -0.10666762 -0.030324647 -0.079946876 0.09550699 -0.06473982 0.019660907
0.053484604 0.11595514 -0.007952835 0.1053746 -0.0149076395 0.06393903 0.13437568 -0.019984268
-0.013434243 0.0388284 0.02600397 0.0003862729 0.00017203021 0.04250757 -0.007442642 0.025636949
00000000: ca8d 2f3e b052 d43d b15c 81bd 354b 0fbc
00000010: 99fe 74bd 383b 083e d1ae 00bd 1fe2 b83c
00000020: 5228 d13c 8e48 31bb 5c3a f4bb 26e4 713d
00000030: d4fe 05be 62e2 d8bc cdb7 c3bd c93c 9dbd
00000040: 4ecc cc3c 7d06 603d ef5f b5bd aa40 d5bc
00000050: be1f e5bc db6d 71bd e7af 173d 42b0 d8bd
00000060: 5579 d0bb 4334 0fbd d979 41bd dd22 cd3d
00000070: bb14 53bd fb46 ed3d d22b 893d 7c66 c33b
00000080: 2b19 d03d e82b 1d3d f161 b53c 8566 c23c
00000090: 7d1a 243d 06f9 c03d 9d5e d33c 0879 603d
000000a0: 56e6 20bd 7344 283d 6a35 823d af39 eebb
000000b0: 3f73 ea3c ac90 21bd 1ecf 39bd 3109 1fbc
000000c0: 3195 c23d 48ca 4b3d 5e4d dfbc be8f ac3c
000000d0: 3f87 653c c011 073e e55f 7dbc be99 dcbd
000000e0: 2666 3d3b 8adf bebb 2a8e a23c f7e5 f4bd
000000f0: 55ba aebb ca22 5f3d 3315 c63c 23c8 00bc
00000100: 8d15 853b 23de 91b9 beb9 f0bd bf93 f63d
00000110: c205 c6bd 6049 6ebd e0f3 aebc 8e10 76bc
00000120: 8389 e13d 7eca 69bd b6e9 5dbb d572 103d
00000130: 377f dbbc 8c6f 8b3c 0e15 ce3d ccb7 f2bb
00000140: c9a7 f8bd f38c 733c 5330 4bbd 3c03 babd
00000150: 79da 3d3b 9409 f73d 9f38 bbbc 50b2 97bc
00000160: c10e 933b 3094 fc3d 9fa7 033e ba6c 483d
00000170: cc63 043e 4f53 5cbc 19ef 3e3c 1f2c 403c
00000180: 096d a4bc 0158 3dbd 9ec4 3bbd eacd 88bb
00000190: 5d82 b43d b8e6 9ebd 98a6 8cbb 9006 55bc
000001a0: 79ef 4c3e fda4 5d3d 8e74 dabd 656b f8bc
000001b0: 30bb a3bd 2b99 c33d 5096 84bd e90f a13c
000001c0: ac12 5b3d e379 ed3d 9c4c 02bc a3ce d73d
000001d0: 2c3f 74bc 77f2 823d c799 093e 0cb6 a3bc
000001e0: 4d1b 5cbc 870a 1f3d 4706 d53c ac84 ca39
000001f0: 0263 3439 6b1c 2e3d 68e1 f3bb 9404 d23c

layer4.1.running_var f4 [128]
0.0024021298 0.0023616503 0.002016679 0.0018783543 0.0026484868 0.0028268879 0.003312943 0.0017859613
0.0027706036 0.0018695791 0.002537161 0.0020744046 0.0028812552 0.0015152361 0.002245709 0.008191079
0.0046985997 0.002525596 0.0030076548 0.0023887365 0.003654268 0.001995149 0.0017763271 0.0025206127
0.0013972461 0.0026779033 0.0026247895 0.0022760942 0.0014657953 0.0017226759 0.0021446333 0.0013547924
0.0023215434 0.0014193592 0.0024124081 0.0026488206 0.0029601993 0.0028501812 0.0032070982 0.0013811168
0.0018526184 0.0014383378 0.001690645 0.003606144 0.0015800062 0.0021747807 0.0020370125 0.0010935424
0.0035690505 0.0016829962 0.0015309966 0.0021357078 0.001602627 0.0022396264 0.0019667684 0.013415117
0.0018702002 0.0020056316 0.0016682907 0.010466551 0.0013738461 0.0017551128 0.0021896272 0.0018158413
0.0017829261 0.0018165224 0.001761203 0.0025461577 0.0022428865 0.0019784137 0.005180554 0.0011318363
0.002003941 0.002166903 0.0015746054 0.0039586555 0.0025368796 0.0022574356 0.0020450933 0.0018369037
0.0017373323 0.001732168 0.0038962986 0.001831179 0.0021648614 0.003223169 0.0025972496 0.0022350373
0.0018534629 0.0022356086 0.0015584882 0.0022869427 0.004623611 0.001891685 0.0026166183 0.0016983475
0.0015708129 0.0029165985 0.0016682232 0.003052608 0.0028315873 0.004150195 0.0022278833 0.0023919826
0.0023664704 0.0028603293 0.0017374867 0.0042017507 0.002346847 0.0033207687 0.0024437788 0.0016949666
0.0032391183 0.0027560366 0.001973437 0.0019726437 0.0026359952 0.0018863265 0.0013268898 0.003236847
0.0020527411 0.0022707388 0.0019413808 0.0019956504 0.0024061475 0.0016120396 0.0014876801 0.0019530001
00000000: 0d6d 1d3b ebc5 1a3b 422a 043b 1d33 f63a
00000010: 3c92 2d3b 4f43 393b f61d 593b eb16 ea3a
00000020: 0493 353b aa0c f53a 8046 263b bcf2 073b
00000030: 71d3 3c3b e39a c63a bf2c 133b e033 063c
00000040: b6f6 993b 7884 253b 131c 453b 598c 1c3b
00000050: 727c 6f3b 0cc1 023b a6d3 e83a dd30 253b
00000060: cd23 b73a c37f 2f3b a904 2c3b 862a 153b
00000070: ee1f c03a 69cb e13a fa8c 0c3b 4a93 b13a
00000080: 0925 183b cb09 ba3a 7e19 1e3b d697 2d3b
00000090: e7ff 413b 1bca 3a3b 2e2e 523b 9706 b53a
000000a0: 8fd3 f23a 9c86 bc3a a298 dd3a 0f55 6c3b
000000b0: 3618 cf3a c486 0e3b 667f 053b 3255 8f3a
000000c0: bbe6 693b fb97 dc3a b9ab c83a 3bf7 0b3b
000000d0: 3d0f d23a b2c6 123b e6e4 003b 14cb 5b3c
000000e0: 8121 f53a ea70 033b 8caa da3a e67b 2b3c
000000f0: a012 b43a d00b e63a d97f 0f3b 8601 ee3a
00000100: 13b1 e93a 6118 ee3a 2bd8 e63a 70dd 263b
00000110: 64fd 123b 46a8 013b a3c1 a93b 205a 943a
00000120: 8d54 033b 9a02 0e3b fd62 ce3a 9cb7 813b
00000130: c741 263b 7cf1 133b f906 063b 43c4 f03a
00000140: 33b7 e33a ea09 e33a 0b59 7f3b 2c04 f03a
00000150: 59e0 0d3b cd3b 533b 9e36 2a3b b479 123b
00000160: e5ef f23a 4a83 123b 3046 cc3a 88e0 153b
00000170: a981 973b 6af2 f73a 927b 2b3b 169b de3a
00000180: bce3 cd3a 6724 3f3b 48a8 da3a 440e 483b
00000190: 2792 393b 5cfe 873b ae01 123b cfc2 1c3b
000001a0: c916 1b3b 5d74 3b3b 61bc e33a d7ae 893b
000001b0: 8fcd 193b 41a1 593b ce27 203b a429 de3a
000001c0: 6347 543b 9f9e 343b c754 013b 7847 013b
000001d0: a9c0 2c3b 9d3e f73a 09eb ad3a 4821 543b
000001e0: 4887 063b add0 143b ee75 fe3a 75c9 023b
000001f0: 75b0 1d3b 134b d33a 43fe c23a cffb ff3a
