MP3-ModifiedMNIST/Mini-project3/trained_models/model_ben_mar15_accuracy_82.ckpt (torch_old, 877554 bytes, 34 tensors)

layer1.0.weight f4 [16, 1, 4, 4]
00000000: 97c5 4a3d 9ced 523e 6252 33be 9640 82be
00000010: 3f44 6dbb 99ad d43d 5145 133d 9b7b 5b3e
00000020: 76f7 8e3d e052 d33d 8127 cabc c400 613d
00000030: 46e3 76be ce0a 87be a981 f1bd c132 ff3c
00000040: 1a31 243e 47ab 3a3e 44dc d9bd 3f2c 3bbe
00000050: 35d6 0d3e 12d6 873e 5e6b d43d 03c2 293e
00000060: b007 8fbc a5cb 153e 94f9 9b3e 83c1 27be
00000070: 5cf2 26be 5ff0 ebbd f884 0dbe c2f2 dc3d
00000080: ab6e 81be 4e7e b1bd 3a27 6abd 869d 26be
00000090: e0e0 82be b8d2 853e 2c0e 403e d1fc 4f3e
000000a0: e4e3 6ebd 24cd 1bbe 8af5 f03d d3e3 4ebe
000000b0: 2164 27be c8b9 98bd 42d9 583e d443 053e
000000c0: 77d7 cebd 4f3b dfbc fee3 e33d 49c9 7f3e
000000d0: f1b2 2a3d c5f8 913d ba3d 793e de66 babd
000000e0: c912 86bd 78c8 89be a8e7 83be aa03 44be
000000f0: c555 633d c3c9 103e 588c 55bd bac4 1c3e
00000100: 0933 053e 4cad 4b3e 83a1 5d3e e4e2 033e
00000110: f135 003e f966 653e a39e 2c3e 2cd7 a03d
00000120: de98 0d3e 5d74 5c3e 5709 293e bfaa 2b3e
00000130: 289c ecbb 22ee 1fbe 0d91 4abd d296 8bbe
00000140: cb41 2ebe ba82 703e 4a27 823e 6d04 afbd
00000150: 7d7e 62bc 3eaf 06be 5a43 c8bd 8c06 60bd
00000160: 42e4 1a3d d7bf 41be 562d f63d 2710 1b3e
00000170: 06e2 103e d52c 353d 5c7e bfbe ff30 81be
00000180: b07d 2f3e 4ccc 433d c430 4ebe 12fc 2dbe
00000190: 0ebd 933e a5ed 663e fee5 a3bd a131 443c
000001a0: 87dd 80be 44ac 453d 9f3c 04be 6e73 0abe
000001b0: cc77 82bd 67f6 bf3d ef39 e1bd 20f1 143e
000001c0: 517f 39bd aae9 da3d 056f 153e ef88 0dbe
000001d0: afc4 c33c d26c 35be 4094 36be 03d3 b7bd
000001e0: 91ac 013e d370 5abe 74e1 ffbe 57d1 a5bd
000001f0: 4ae2 3bbc de6f 0abe 1710 1fbe 9366 0fbe
00000200: a253 1ebe 1a29 6cbe 1e6d f1bd f438 873d
00000210: ec08 58be f796 0c3d faf8 373e 60b6 e13d
00000220: 7fdb 02bd 1b6f 003d ba69 443d 4328 7c3e
00000230: 756d 1b3e 103e b93d e241 243e b77a 3c3e
00000240: a797 b8bd fd26 36be 1688 663e 658d 343c
00000250: 6c5e d8bb 55f7 3dbe d927 53be ef0e 93be
00000260: b899 7abd 9603 2f3e aa7b 713e 7e59 6fbe
00000270: e9c2 9a3d 3a06 69be 3aea c73a 2f4d 26be
00000280: c8ef 6bbc b3cd 19be 99c2 47be 38ab 97be
00000290: 08b6 033e 9eff e13d 1ec0 bbbc 44e7 7b3d
000002a0: 192e c0bd 65a9 7a3d 5ccd 973e 4320 dcbd
000002b0: 2cc5 8d3e 7cee d03d 225b d7bd b51d 403e
000002c0: 81e5 74bc f266 2ebd ae5e 143e 2b87 52be
000002d0: 72e3 99bc 9df5 7b3b 7672 1e3e 78e2 f53d
000002e0: a44a 883c 7236 1e3e 12fc 093e dac6 1f3e
000002f0: 09ec 95be 103d 293e 1157 273e ac43 703e
00000300: 9bf6 09be 2eb1 95bd 7266 34be 49be 86be
00000310: 7370 1ebd d2a2 033e ccb0 31bd 7d18 99bc
00000320: b6db b53d 919a 3d3e 900c 08be 5e60 44be
00000330: 9686 353c 787d 843e e767 383d c56e 923e
00000340: 83a1 dd3d 3e83 1e3c 726f 8e3a 9355 cbbb
00000350: 48d6 613d 6858 f9bd 59f7 86bb 713d 52bc
00000360: af44 44be 5922 cfbd a413 a23e 979e 2fbe
00000370: 9c89 c43c 0238 823e 39a0 0d3e a7a5 07bd
00000380: 5528 68be 6263 093e 03c1 44be 574f 123d
00000390: a8b0 a5bd 37fc 82bd af7e 17bd e306 783e
000003a0: 9946 923d dfb1 8c3e cdf7 2a3e 6af2 66be
000003b0: 0b6c ea3d f415 febd 630c fabd 6988 323c
000003c0: 2dbd 3b3e 141b 643e d163 1ebd 79bb 383c
000003d0: 9af6 713e 461b 66be a3dd f83d 729b 76be
000003e0: fc8d 883d afb1 ddbc d50d 0abe 8fb7 2ebd
000003f0: a860 293e 9790 a9bd c269 1bbe a79e ddbd
0.049504843 0.20598453 -0.17511895 -0.254399 -0.0036204008 0.103846736 0.035954777 0.2143387
0.06980793 0.103185415 -0.02467704 0.05493237 -0.24110135 -0.2637543 -0.11792309 0.031152131
0.16034356 0.182294 -0.106377155 -0.18278597 0.13851245 0.2653051 0.10372041 0.16577916
-0.01745972 0.14628465 0.3046385 -0.16382413 -0.1630339 -0.115204565 -0.13820255 0.1078849
-0.25279745 -0.08666669 -0.057166316 -0.16271028 -0.2556219 0.26137328 0.18755406 0.20311286
-0.058322802 -0.15214974 0.11765583 -0.20204096 -0.1634679 -0.0745731 0.21176627 0.13014156
-0.100996904 -0.02724996 0.111274704 0.24979128 0.041674558 0.07127527 0.24339953 -0.091016516
-0.06546552 -0.26910758 -0.25762677 -0.19142023 0.055501718 0.14139466 -0.052135795 0.1530942
0.1300775 0.19890326 0.21643643 0.1287952 0.12520577 0.22402562 0.1685739 0.07853541
0.13827845 0.21528764 0.16507469 0.16764353 -0.0072207637 -0.15618184 -0.049454737 -0.27263504
-0.17017286 0.23487368 0.254206 -0.08545766 -0.0138241025 -0.13152787 -0.09778471 -0.054693744
0.03781534 -0.18920837 0.12020366 0.1514288 0.14148721 0.04423221 -0.37401092 -0.25232694
0.1713779 0.047802255 -0.2013579 -0.16990688 0.28855175 0.22551592 -0.08002852 0.011974723
-0.25169012 0.04825999 -0.1291375 -0.13520595 -0.06370506 0.093731694 -0.10997378 0.14545107
-0.045287434 0.10689099 0.14593132 -0.13821767 0.023897497 -0.17717293 -0.1782999 -0.08975794
0.12663485 -0.21332102 -0.49976695 -0.08096569 -0.011467526 -0.13519236 -0.15533482 -0.14003973
-0.15461591 -0.23062554 -0.117883906 0.0660266 -0.21097153 0.03432366 0.17966071 0.110211134
-0.03194761 0.03135596 0.04795239 0.24624734 0.15178473 0.090450406 0.16040757 0.18406187
-0.090133004 -0.1778831 0.2251285 0.011020039 -0.006603053 -0.18551381 -0.2062067 -0.2872233
-0.061181754 0.17091212 0.2358233 -0.23373982 0.075567074 -0.22756281 0.00152523 -0.1624038
-0.01440043 -0.15019874 -0.19507827 -0.29622817 0.12862408 0.11035083 -0.022918757 0.06149985
-0.093837924 0.061196703 0.29648864 -0.10748341 0.27689493 0.10201737 -0.10515429 0.18761332
-0.014947296 -0.042578645 0.14489242 -0.20559375 -0.018785212 0.0038445957 0.15473351 0.12006086
0.016637154 0.15450457 0.13475063 0.156032 -0.29281643 0.165272 0.16341807 0.23463315
-0.13472979 -0.07309185 -0.17617205 -0.2631705 -0.03868146 0.1285508 -0.043381497 -0.018688435
0.08879797 0.18515994 -0.13286042 -0.19177386 0.011079451 0.25876975 0.045020964 0.28600135
0.108218215 0.009674845 0.0010866954 -0.0062052696 0.055135995 -0.12175065 -0.0041188416 -0.012832032
-0.19166826 -0.10113973 0.3165561 -0.17150341 0.023991399 0.25433356 0.13830651 -0.033116963
-0.22671635 0.13416818 -0.19214253 0.035720196 -0.08090335 -0.063957624 -0.03698605 0.24221377
0.07142372 0.27479455 0.16696091 -0.22553411 0.11446389 -0.12406531 -0.12209394 0.0108967805
0.18333884 0.22275954 -0.03866941 0.011275166 0.23629227 -0.22471341 0.12151649 -0.24082735
0.06667706 -0.027062265 -0.13481839 -0.042655524 0.16540778 -0.082795314 -0.15177062 -0.10821276

layer1.0.bias f4 [16]
00000000: 90d5 59be 724c 293e 3a35 adbd 30dd e5bd
00000010: db5b 2dbe ff10 163e a65f 583d 190c 953e
00000020: 90b1 fb3d 172a 9abd 75e6 08be 2e67 373d
00000030: 2203 583e c86b bb3d 4154 7abd 6c3c 2ebe
-0.21272874 0.16533068 -0.08457418 -0.11223829 -0.16929571 0.14654921 0.052825592 0.29110792
0.12289727 -0.07527559 -0.13369162 0.044776134 0.21094945 0.09151417 -0.061115507 -0.17015237

layer1.1.weight f4 [16]
00000000: 830b 1e3e 26f0 0d3f 58dc 313e 12ff 243e
00000010: 8902 743f 4a2b 2d3e 458e 953e a5cf 813f
00000020: 1861 1e3f e891 b33c 6950 0a3e c2c9 653f
00000030: 04e5 e23e 5f13 333f 9494 593e 5759 1c3f
0.15434079 0.5544456 0.1736921 0.16112927 0.9531637 0.16911045 0.29210106 1.0141493
0.61866903 0.02192016 0.13507237 0.89760983 0.4431535 0.6995143 0.21248084 0.6107382

layer1.1.bias f4 [16]
00000000: ad09 123e 3bee 18bf 1c34 8b3d b07c 49bd
00000010: 10d2 81bf 2c90 6a3e b339 2f3e ad78 db3d
00000020: 0848 18bf 465f d53b 4665 13be 8cd9 3bbf
00000030: 05ea e23d c747 b7bd f6b7 f3bc b64a d0bd
0.14261504 -0.5973851 0.067970484 -0.049191177 -1.0142231 0.2290656 0.17111854 0.107163765
-0.5948491 0.0065116016 -0.14394102 -0.73378825 0.11079792 -0.08949237 -0.029750805 -0.101705

layer1.1.running_mean f4 [16]
00000000: 5204 bec1 6b65 9e42 8d69 1bc2 df3d 01c0
00000010: 5871 2743 12ba 2cc2 6096 48c1 645c 26c3
00000020: 76b4 7a42 6d18 cfc2 df9e e341 71fc ca42
00000030: f1f6 fac0 92fd 0142 41bd 03c0 446e 93c0
-23.75211 79.19808 -38.853077 -2.0194013 167.44275 -43.18171 -12.536713 -166.3609
62.67623 -103.54771 28.452574 101.49305 -7.842644 32.497627 -2.0584261 -4.60721

layer1.1.running_var f4 [16]
00000000: 1fd7 2544 2689 2545 eccd af44 766b e443
00000010: accc 1846 c5ff 8244 7389 4244 4461 1446
00000020: 86d5 3645 b326 5845 12a6 a144 282d 7a45
00000030: 73cd a044 7086 1144 d6b0 8243 d9bf 9844
663.36127 2648.5718 1406.435 456.83954 9779.168 1047.9928 778.14764 9496.316
2925.3452 3458.4187 1293.1897 4002.8223 1286.4203 582.1006 261.38153 1221.9952

layer2.0.weight f4 [32, 16, 2, 2]
00000000: 07c7 533e 0977 0d3e 2c7a fbbd ce61 253d
00000010: 8e5f f6bc 35e3 71bb 0f2d 01be 49be b7bd
00000020: 295d 263e 50be 03bd 2eb4 4c3d e0b9 4b3d
00000030: 15ce cb3d 645b 013e 1994 a63d 78e2 dc3c
00000040: b15f 59bd dfe4 0bbe fded 81bd 14b7 6c3c
00000050: 1072 403e d98f 193d 9d34 58bd 4322 59bd
00000060: 494e 003e c032 b23d 92de dd3d e31d 7f3d
00000070: edbc 233e 6378 013e d164 033e b903 3d3c
00000080: b01a 8abd 6b7f 10bd 2c60 8fbd 0b75 b93c
00000090: 3e18 333e 124b 1d3e 9fd9 f03d 8ab3 da3b
000000a0: 23d7 bcbd 9d8d e5bd 3114 aebd b9d7 33bd
000000b0: 2d9c 163d cef9 ca3c d8d6 debd 28ff aa3d
000000c0: 38b7 fb3d 4f58 283e d7b5 423e db28 293e
000000d0: 2dbc 48bd fe7a 383b 2e48 ee3d 781d d53d
000000e0: 90ff 063c fdb8 583d 7a94 d03d ced8 eb3c
000000f0: 0934 35bd 8248 ce3d 1f51 013d de0d 4c3d
00000100: 46d0 df3d 830c 0a3e 3ffd 193e 85cb 90ba
00000110: d9d1 dbbd 4d3b 90bd ff2f adbd 1f2b 353d
00000120: bd6f 07be 8570 d3bd 41e0 c8bc f44e 953d
00000130: 1919 9dbd 1c66 1fbd 28ef 31be 871d 9dbe
00000140: 1614 6cbe b64f 0bbe 24af debd 5998 ba3d
00000150: 59d2 dfbd de1a 01be 9799 4ebe fe8e 7abe
00000160: e0ef b63d de28 eb3c 02b2 323c 4c91 d9bd
00000170: 396d a63d c794 60bd cc02 a23d de71 cc3d
00000180: 9948 013d 1213 133e 58b3 bd3d 77ae dc3d
00000190: 9ec9 2abd ee41 343d 1bd3 7b3c 2dab b8bd
000001a0: fb7f fcbd fab5 6d3d 0c33 edbd f36b d63d
000001b0: 3706 d03c 73a4 54bd c7f9 70bd 5f98 083e
000001c0: 9e05 353d e469 e03d 70b3 8fbd 256d e13d
000001d0: a2f5 af3d 0b85 57bd f0b5 8d3d 2244 2f3d
000001e0: 3dbd 01be 2a9f a93d a9fe 94bd c8c7 c0bd
000001f0: c23f 9f3d d82a 88bc 94c0 3bbe 3baf 52be
00000200: 2fbb 2c3e 32bc 023e ae1d c03c 0edb b93d
00000210: 1ee1 bf3d ff63 233c 621a a3bd 927b 36bc
00000220: 2da9 cb3c 29ba e2bd 12de 76bb 1018 a4bd
00000230: afc7 c63c 7e0b b0bb b48c 9e3d 4521 103e
00000240: 56ec fc3d cd35 123d 6ad7 1ebe 3064 d2bd
00000250: 2356 123e eedc 9cbd f969 6f3d eabc 2bbd
00000260: e8e5 673d 0fa0 41bb 0eb3 d1bd 75ef 613d
00000270: 305f 43be 811c a33d 6f13 ebbd 6685 d43c
00000280: 28ac 83bc fc02 1cbe 4cfb 533e 2bec 393e
00000290: b9d8 073e 07b4 b53d 1207 79bd fa28 0f3e
000002a0: 2e46 a3bd da88 0ebd a6a8 9d3d 573a 59bd
000002b0: 6e44 33be 8ab5 40bd 7471 8e3c c87b c5bd
000002c0: b53a 15bc e37b b2bc 66c7 3b3d 6c97 02be
000002d0: 38df d1bd 91af 743c 710f b33d 3d53 a73d
000002e0: e5ca 323e 7e60 83bd 7812 533e 0f72 85bd
000002f0: f0cd efbd 58b5 353d 229f 3bbe d115 673c
00000300: e7de 0dbe 1811 44be 1c87 d83d da4f 5f3e
00000310: 7871 c4bc 0d1c 303c bb9c 353e a0a6 3d3e
00000320: b628 db3c a2c6 67bd 421a 10bd 7686 803c
00000330: b62e a03d f32e febd 3e54 473c ebe4 5fbd
00000340: cab2 01be 3694 0abe 4e02 773e 6d9d 513e
00000350: fcd8 f9bd 295c cf3d f7a1 f03d a919 213d
00000360: fe99 373d 8adc fcbd 1943 d13d 8d03 a83c
00000370: a787 e4bc b6e6 c53b 162d 9f3b ebb9 b93d
00000380: 40da aebc 8191 183a 8546 2abd b207 063a
00000390: 0c6e a1bd beaf 1e3c 7d7f 963d 119c 253c
000003a0: 26f1 003e 85a7 c93b 4ce1 82bc ae31 36bd
000003b0: 5a6c ebbc 17ee 8bbd c555 e33d 3efb 013d
000003c0: 3351 343c d4c9 8dbd 9cee 993d 37cc 8b3d
000003d0: 6f29 cfbd bbb6 d7bd a1e5 a6bd f241 02bd
000003e0: e37e 893c eb63 acbb f3f4 42bd e1d1 60bc
000003f0: 9e16 01bd 0b4f 80bd 17ee aebc 585e 04bd
0.20681392 0.1381494 -0.12279162 0.040376477 -0.03007486 -0.0036909108 -0.12614845 -0.08971841
0.16246475 -0.032163918 0.04997652 0.04973781 0.099514164 0.12632519 0.08133716 0.026963457
-0.053069774 -0.13661526 -0.06344221 0.014447946 0.18793511 0.0374907 -0.05278455 -0.05301119
0.12529863 0.08701086 0.108334675 0.06228436 0.15990038 0.1264358 0.12831427 0.011536532
-0.067433715 -0.035277765 -0.07000765 0.022638818 0.17489716 0.15360668 0.11760258 0.0066742348
-0.092207216 -0.11208651 -0.08499945 -0.0439069 0.036770035 0.02477732 -0.10880822 0.083494484
0.122908056 0.16439937 0.19014679 0.16519491 -0.049007583 0.002814948 0.11634861 0.10406011
0.008239642 0.052910794 0.1018457 0.028789904 -0.044239078 0.100724235 0.031571504 0.049817912
0.10928397 0.13481335 0.15038012 -0.0011046982 -0.10733385 -0.07042561 -0.0845642 0.044230577
-0.13226219 -0.10324196 -0.024520995 0.0729045 -0.076708026 -0.03891574 -0.17376387 -0.3068659
-0.23054537 -0.13604626 -0.10873249 0.09111089 -0.109287925 -0.12607905 -0.20175777 -0.2446861
0.08932471 0.02870601 0.010906698 -0.10623416 0.08126301 -0.054829385 0.0791069 0.09982656
0.031563375 0.14362743 0.09262723 0.10775464 -0.041696183 0.044008188 0.015370156 -0.09017024
-0.12329098 0.058034874 -0.11582002 0.104698084 0.025393588 -0.051914643 -0.058831956 0.13339375
0.04419481 0.10957697 -0.07016647 0.11007146 0.085917726 -0.052617114 0.069194674 0.042789586
-0.12669845 0.08282311 -0.07275135 -0.09413105 0.07775833 -0.016621992 -0.18335181 -0.20574658
0.1686828 0.12767103 0.023451652 0.090749845 0.093691096 0.009972571 -0.079640165 -0.01113786
0.024860943 -0.110706635 -0.0037668985 -0.08012402 0.024265138 -0.0053724637 0.07741681 0.14075191
0.12349765 0.03569584 -0.15511861 -0.102730155 0.14290671 -0.076593265 0.058450673 -0.04192821
0.05661574 -0.0029544865 -0.1023923 0.055160005 -0.1907928 0.07964421 -0.11478316 0.025942516
-0.016073301 -0.15235513 0.20701331 0.18156497 0.13266267 0.08872228 -0.06079776 0.13980475
-0.0797237 -0.03479848 0.07698183 -0.053034153 -0.17506573 -0.04704813 0.017388083 -0.0964275
-0.009108235 -0.02178759 0.045844458 -0.12753075 -0.10247654 0.014934436 0.087431796 0.08170173
0.1746021 -0.06414889 0.20612514 -0.065158956 -0.11709201 0.044362396 -0.18322423 0.0141043225
-0.13854562 -0.19147146 0.10572645 0.21807805 -0.023979887 0.010748875 0.17735569 0.18520594
0.02675281 -0.056585915 -0.03518129 0.015689116 0.078214094 -0.124112986 0.012166081 -0.054661673
-0.12665859 -0.135331 0.24121973 0.2047021 -0.121995896 0.10125 0.11749642 0.039331112
0.044824593 -0.12346752 0.10217876 0.020509506 -0.027896715 0.006039466 0.0048576696 0.09068664
-0.021344304 0.00058200216 -0.04157116 0.0005112841 -0.07882318 0.009685455 0.07348535 0.01010801
0.12591991 0.006154003 -0.01597657 -0.044480972 -0.02873819 -0.068325214 0.111003436 0.031733744
0.0110056875 -0.06923261 0.07516214 0.0682606 -0.10115325 -0.105329 -0.08149267 -0.03180117
0.016784137 -0.0052609346 -0.047596883 -0.013721914 -0.03151571 -0.06265076 -0.021353764 -0.032316536

layer2.0.bias f4 [32]
00000000: 9f22 c8bb 8df0 1c3e a428 bfbc 88d5 78bd
00000010: 81c5 99bc 32e6 8f3c 3b28 6abd 517d e53d
00000020: d5d5 313b 9aa0 dc3d 413f b63d 781f 4dbd
00000030: 3083 3c3d 3bdd 10be 91cf 083d 917d 2b3c
00000040: ba6f c23d 750a 92bd 24e6 53bc b5e2 eebc
00000050: 19ff f23d f8a4 1ebd c002 a43d d47d 543d
00000060: f4ae a2bd 3583 60bd 081f 403c 38e7 00be
00000070: 6691 9cbd bdb9 ed3b 066f 00be e767 27bc
-0.006107643 0.15326138 -0.023334809 -0.060750514 -0.018770935 0.01756582 -0.057167273 0.11205543
0.002713551 0.1077282 0.088987835 -0.05007884 0.046023548 -0.14146893 0.033401076 0.010466949
0.094939664 -0.07130901 -0.012933288 -0.029160837 0.11865062 -0.038731545 0.08008337 0.05187781
-0.07943526 -0.05481263 0.011726148 -0.12588203 -0.0764492 0.0072548077 -0.12542352 -0.010217643

layer2.1.weight f4 [32]
00000000: 5b71 283f da16 a43e 1360 7b3e e566 c03e
00000010: 5964 693f acd4 f73e a0fc 933e 162d 2a3f
00000020: 9f8c f43e 35f0 8e3d 65e4 4b3f cde1 753f
00000030: 531b 843f ba44 273f c4ea 873e aff0 dc3e
00000040: 1b39 523f b03e 033f 4f93 0b3f 7c7e c03d
00000050: aa71 8e3e 0f9b 3c3f dd8b ad3e a4f1 bb3e
00000060: fd5a 833e d4a1 273f 64f2 d63e b220 503e
00000070: 2a67 873f 26fc 593f e874 6c3e 9177 2f3e
0.65797967 0.32048684 0.24548368 0.37578502 0.91168743 0.48404443 0.28903675 0.66475046
0.47763535 0.069794096 0.7964538 0.9604767 1.0320839 0.65339243 0.265463 0.43152377
0.82118386 0.5126753 0.5452165 0.09399125 0.27821094 0.736741 0.3389577 0.36707795
0.25655356 0.65481305 0.41981804 0.20324972 1.0578358 0.85150373 0.23091471 0.17135455

layer2.1.bias f4 [32]
00000000: fe9c 1abe 17e5 153b 6e17 67bd 5a5c 35be
00000010: d801 1bbe 0d65 d5bd cc07 75be 9e14 1dbf
00000020: 19a1 a3be 9859 1e3e 6072 2cbe 1d9a 813d
00000030: 4338 27bf de77 2fbd 92fb c3be 7a4b 75be
00000040: 67ff 28be ce98 f3be 7505 bfbe 2329 493e
00000050: c900 fc3d 93a1 c8be 1318 0f3e 076b 30be
00000060: 9cc6 0dbe c47d fdbb b5cb 123d c539 91be
00000070: 2ee1 0bbf 0a94 13bf d0b7 e8bd 85f6 c43d
-0.1509895 0.0022872144 -0.05641883 -0.1771101 -0.15137422 -0.104196645 -0.23928756 -0.61359584
-0.31958845 0.15463865 -0.16840506 0.06328223 -0.65320224 -0.042838924 -0.3827787 -0.23954573
-0.16503678 -0.47577518 -0.3730885 0.19644599 0.12304837 -0.3918577 0.13974027 -0.17228328
-0.13845295 -0.0077359397 0.0358388 -0.28364387 -0.5464047 -0.57647765 -0.113631845 0.09617332

layer2.1.running_mean f4 [32]
00000000: 7602 403f acfa 543e b009 d03c d981 46be
00000010: 98fe 113d 789c aabd 50a7 d1be bacc 84bd
00000020: e95c 31be 145d ba3e ae4f 2ebd 6a8f 773d
00000030: c2c0 6ebe f25b 2ebe 4401 babe 4087 ea3c
00000040: 61f1 9b3d 2578 dfbe 3d7c 69be 8c3e 52bd
00000050: 8aee 5d3d 5a27 b3be 79d3 c9bd f623 e0bd
00000060: 6a67 bcbe b919 d23c dacf 123e 33e6 36be
00000070: 2099 b2be d600 e2be 5e09 45be d4ff be3d
0.75003755 0.20798749 0.025395244 -0.1938547 0.03564319 -0.08330625 -0.40947962 -0.06484361
-0.17320599 0.36399138 -0.042556457 0.060439505 -0.23315719 -0.17027262 -0.3632909 0.028628945
0.07614399 -0.4364635 -0.228013 -0.05132918 0.054182567 -0.3499096 -0.09854788 -0.10944359
-0.3679765 0.025647031 0.14337102 -0.17861252 -0.3488245 -0.44141263 -0.19241855 0.09326139

layer2.1.running_var f4 [32]
00000000: fa7c c53e ba33 453e ecc5 463d f8bd 333d
00000010: 2fcf 9c3d b43f a13d bd49 b23d 6b38 1f3e
00000020: 4b6e dd3d f027 b63e 423c c03d 7042 d63d
00000030: 6686 583d df9d 813d a5ee f73d e0a5 543d
00000040: d3c1 a83d a16e 7e3d d4d4 fb3d 3df8 013e
00000050: b8f3 3d3d b393 f53d 012f cb3d f480 d03d
00000060: 6bda 913d ba32 c63d ba28 163d 6220 3f3d
00000070: 153d fa3d 9c05 cb3d b143 563d d1e3 803d
0.38571912 0.19258013 0.048528597 0.04388234 0.07656705 0.078734785 0.08705471 0.15548865
0.10812052 0.35577345 0.09386493 0.10461891 0.052862547 0.0632894 0.12106065 0.051916003
0.08240094 0.062117223 0.12296453 0.12692352 0.046375006 0.11991062 0.09921075 0.10180846
0.07121738 0.09677644 0.036659934 0.046661742 0.12218682 0.09913179 0.05231065 0.062934525

layer3.0.weight f4 [64, 32, 2, 2]
00000000: 72e5 933d 3f8f 49bd 64c7 753c 490d 7a3c
00000010: c07f 3d3d 600a afbd 0ddd 393b 26cd 40bc
00000020: d3b2 c7bd 41d7 ef3c 45c6 66bc bef8 083e
00000030: 5cac 863d c730 173d 9ae5 023c 246f 32be
00000040: 8191 3b3d 4441 16bd 4078 a7bd ff5c 693d
00000050: ad53 79bd f542 1bbd 43fb 45be cee9 8abd
00000060: 8732 d23c e750 31bd 2f91 24be 7f7a 643c
00000070: a02a a7bc 8c8e 82bd 999b b03c 94bf 8539
00000080: 0840 0bbe 2b4b 163d c201 ce3d 25bc 513d
00000090: 7874 ea3d 8872 f1bc 4e06 8a3c c6ac 86bd
000000a0: ea6f 97bb fd89 c63d 2564 863d 6a35 3bbc
000000b0: 42fb 4ebe e7bf e73d 77a0 b83a 1651 c4bd
000000c0: d783 a7bd b481 cdbb 58f9 123d c38d 953d
000000d0: 9c24 dd3a b483 b93d 8299 e23d 3461 07be
000000e0: 83b0 66bd 5bcd d7bc a237 49bc 15a3 733d
000000f0: d449 ffbc 70da 86bd 7490 3c3e 62a7 b8bd
00000100: 3c39 6f3e 5aa4 893d 1c35 82be 65a7 9fbd
00000110: a311 95bd b38c 90bd aa3f a83d 4067 e3bd
00000120: 948e 4ebd 07fc cdbd a1a6 a93d a02a 59bd
00000130: 493f 7abb 3d65 1dbe 9ae2 10bd d9e8 c2bd
00000140: 83ec 283c 26b4 01be cf01 df3b 5498 9bbd
00000150: 0827 b8bd c1a2 29be 83ba 833d 5ddf fbbd
00000160: 642b 8fbd 9d90 58bd 55bf 02bd 4823 62bd
00000170: 5023 c43d 4193 c2bd 0b46 30bd 6729 f4bd
00000180: d345 ee3d e0f7 b4bd 1465 6bbe 30e6 003e
00000190: bbbe 403d ee49 353d ba47 82bc 19c7 a43d
000001a0: f113 9abc 93e1 093d 81ac abbd 7ea6 603c
000001b0: 0566 3abe 01ac 8ebd 801d 433e 77fa c63d
000001c0: 465e 8b3d a677 833c 20a5 02be 4f19 5b3c
000001d0: 1a7f bf3c 1191 34be 2cb8 9fbb 690a a03c
000001e0: 1451 bcbd dbd5 c73d 7d2a 0dbd 570b bbbd
000001f0: f4eb f43d 854e 013d dafb 23be 78e8 f3bd
00000200: d1e0 95bd e5db b0bc 624d 1cbd 3ef0 e8bc
00000210: 7cf8 8f3c a4ca dd3d 5738 983d 0e9e 9cbd
00000220: 4c1c bdbd dd54 053d a1b1 aebd ab29 8cbd
00000230: 2558 2ebe dcf4 30bd d748 3fbe 70c0 c7bd
00000240: 630d e2bc 8217 a3bd 5233 3cbb ebfb e6bb
00000250: 6280 f4bc 2cd4 15be cad3 fd3d 3aa5 183e
00000260: f61f 613d 49f0 79bd 5668 523e 9a13 a7bc
00000270: 9512 b5bd 9766 a3bd 8717 4f3d aab9 59bd
00000280: 90e7 ebbd fbe8 b0bd 6596 ba3d db48 343d
00000290: 6021 bfbd 1c28 01bd 3194 31be 0f8b 843c
000002a0: bbb6 d63c 1c84 2bbd f9d8 11be 82c9 3f3c
000002b0: 2268 733d abf1 9dbc f1d4 86bd 8664 0f3d
000002c0: 507e 8fbd 06e3 743c 167c de3d 5668 12bd
000002d0: 3ab0 fcbd 0add ae3c 075a 34be 95c1 ee3d
000002e0: 8903 1b3d 4c7a a8bb 5b41 4c3e 57b4 bc3b
000002f0: fc8e a5bd a01f a23d b6a3 d3bc 2a61 28bb
00000300: 30bb f0bd d363 7cbc 3c71 1dbe 44ca b7bb
00000310: 0a0c 333e d802 1f3e 574c 31bb f957 663d
00000320: 2770 5b3d 0e63 823d e0c9 aebd 0044 07be
00000330: e0d8 1abe f3fd 00bd 65a2 81bd 8fc3 15be
00000340: 7153 7c3c 8c89 ccbc 9f25 eabd f0c6 d23c
00000350: 18f7 efbd a0bf c43d 3daf 40be 027b 0abd
00000360: 60cd 783d 0017 93bd 0360 713b bac5 093c
00000370: eecd dfbd 8f6d 333e f0ae 3b3c 5c7e 3d3d
00000380: bf92 8f3d 4e47 86bc 8b32 033e beee 2cbe
00000390: 6a41 17bc f32a 89bc 4a44 163d 01ce 2a3d
000003a0: 932d dcbd 3316 f5bd cc16 bc3d d5ce b53d
000003b0: 9091 873c 6440 1a3e 6d5f 0a3d d73d 18bc
000003c0: 9fc7 d1bb 5c7a 5bbd cc7c c53d 616a 37bd
000003d0: 4a10 323d 4b0a 093e a53e 823d ecea d2bd
000003e0: 47b4 7939 04f7 c3bd 06e4 d03d 2977 0c3e
000003f0: ce0e 7d3d 1d16 45be 0503 91bd 6205 eebc
0.072214976 -0.049208876 0.015001152 0.0152619565 0.04626441 -0.08546901 0.0028360516 -0.011767661
-0.09750905 0.029277446 -0.014085357 0.13376138 0.06575844 0.036911752 0.007989312 -0.1742521
0.04579306 -0.036683336 -0.08177233 0.056973454 -0.060870815 -0.037905652 -0.1933413 -0.06782876
0.025658859 -0.043290045 -0.16071008 0.013945221 -0.020406067 -0.06374845 0.02155857 0.00025510474
-0.13598645 0.03669278 0.10058929 0.05120482 0.11447996 -0.029473558 0.01684871 -0.06575923
-0.0046214955 0.09694288 0.0656207 -0.011426309 -0.20213035 0.11315899 0.0014085908 -0.095857784
-0.08179443 -0.0062715653 0.035882324 0.073024295 0.0016871872 0.090583235 0.110644355 -0.13220674
-0.05632068 -0.026343038 -0.01228133 0.0594817 -0.031163134 -0.065846324 0.1841448 -0.09016301
0.23361677 0.06720801 -0.25431144 -0.077956 -0.072787546 -0.07058086 0.08215268 -0.11103678
-0.05042894 -0.10057836 0.08283735 -0.053019166 -0.0038184694 -0.1537065 -0.035372354 -0.095170684
0.010310295 -0.12666377 0.0068056355 -0.07597414 -0.089918196 -0.16565992 0.06432059 -0.122984625
-0.06990698 -0.05287229 -0.03192075 -0.055209428 0.09577048 -0.09500743 -0.04303555 -0.11921959
0.11634412 -0.08836341 -0.22987777 0.1258781 0.047056895 0.044259958 -0.015903343 0.08045787
-0.018808337 0.03366239 -0.08382512 0.01371157 -0.1820298 -0.06966401 0.19054222 0.09715741
0.068050906 0.016048264 -0.12758303 0.013372733 0.023376036 -0.17633463 -0.00487425 0.019536214
-0.09195152 0.097575866 -0.034464348 -0.09133022 0.11959067 0.031569023 -0.16014042 -0.11909574
-0.07318271 -0.021589229 -0.038159736 -0.028434869 0.017574541 0.10829666 0.07432621 -0.07647334
-0.09233913 0.032551635 -0.08529974 -0.06843885 -0.17025812 -0.043202266 -0.1868013 -0.097535014
-0.027594274 -0.07963468 -0.0028717113 -0.007049074 -0.029846374 -0.14631718 0.12393911 0.14906779
0.05496212 -0.06102017 0.20547614 -0.020395089 -0.08841435 -0.07978552 0.050559547 -0.05315558
-0.115187764 -0.086381875 0.09110717 0.044014793 -0.09332538 -0.031532392 -0.17341687 0.01617959
0.02621018 -0.041874036 -0.14242925 0.011705758 0.05942548 -0.019280275 -0.06583584 0.035007976
-0.07006514 0.014946705 0.10863511 -0.035744034 -0.123383 0.021345634 -0.17612468 0.116580166
0.03784517 -0.005141532 0.19946806 0.005758803 -0.08083913 0.07916188 -0.0258349 -0.002569268
-0.11754453 -0.015404659 -0.15375227 -0.0056088287 0.17485061 0.15528429 -0.0027053559 0.05623624
0.053573754 0.063665494 -0.08534598 -0.13209534 -0.15121794 -0.031492185 -0.063298024 -0.14625381
0.015400753 -0.024967931 -0.11432957 0.025729626 -0.11717051 0.09606862 -0.18816848 -0.033808716
0.060742736 -0.07182121 0.003683091 0.008408958 -0.1092795 0.17522262 0.011455283 0.046263084
0.070104115 -0.016391423 0.1281225 -0.16887948 -0.0092319045 -0.016744113 0.03668622 0.041700367
-0.1075088 -0.11967125 0.09184036 0.08877341 0.016548902 0.15063626 0.03378241 -0.0092920875
-0.0064019705 -0.053583488 0.09642944 -0.044779185 0.043472566 0.13382833 0.06359605 -0.10298714
0.00023813649 -0.09568599 0.10199742 0.13717331 0.061781697 -0.19246717 -0.07080654 -0.029055301

layer3.0.bias f4 [64]
00000000: f440 ccbd b872 bcbd 4b70 c1bd 7983 8b3d
00000010: ff37 ae3b afde cdbd 3d63 e43d c90d 97bd
00000020: 2f0e da3c 4ac2 1cbd d21e c3bd 9bd6 fc3b
00000030: 6265 c5bd 5a81 e63d 0bda f4bd fd2a e03c
00000040: e1b5 eebb 211f 603d b788 b3bb 8e2c 163d
00000050: 7dcc 733c f1f7 8b3d 7dba 8e3a 977f 2abd
00000060: 5f05 92bb 5f6a 43bb 0097 253c 55c9 dabd
00000070: 0dbf a83d 7fbf 3abc 3d5c 783d ed77 163e
00000080: 3b9f 5c3d 6fcd 16bd 0b6a c33d 0504 d9bc
00000090: 1201 f43b 8dbc 943d 9fcd 92bc 060e a1bd
000000a0: 76c4 66bc 37d4 e43c 7d92 2e3d 655b c3bd
000000b0: 3bdc 333c fc71 50bd 27c3 68bd 0717 b5bd
000000c0: 6112 a93c 4e75 c33d b3c9 8c3d 2da1 71bd
000000d0: 5032 73bd ee7a 873d 3c98 90bc 45d6 1e3c
000000e0: aa88 06bd 5b33 37bc 962b 6e3d 5f62 2fbc
000000f0: c055 363d 8b38 f4ba 7846 803c e4d7 5e3c
-0.09973326 -0.09201568 -0.09445246 0.06812186 0.005316734 -0.10052239 0.11151741 -0.07375676
0.026618091 -0.038271226 -0.09527363 0.0077160127 -0.09638478 0.112551406 -0.11955651 0.027364248
-0.0072848652 0.054717187 -0.005478944 0.036663584 0.014880297 0.068344004 0.0010889318 -0.041625585
-0.0044562067 -0.002981804 0.010106802 -0.10682932 0.08239565 -0.011398195 0.06063484 0.14694186
0.05386279 -0.03681701 0.095417105 -0.026491174 0.0074464167 0.07262526 -0.017920313 -0.07864003
-0.014084926 0.027933223 0.04262017 -0.095389165 0.0109778 -0.050889954 -0.056826737 -0.08842283
0.020638647 0.095438585 0.068744086 -0.0589916 -0.059374154 0.06615244 -0.017650716 0.0096946405
-0.032845177 -0.011181678 0.058147036 -0.010704606 0.04451537 -0.0018632574 0.015658602 0.013601277

layer3.1.weight f4 [64]
00000000: f44c 503e bf69 473f b35c 453f 3f57 393f
00000010: 581f 8d3e 416b da3e 2cba 403e 1fe7 213e
00000020: c6b0 2f3f cfae 5a3f 41a7 453f 5e47 433f
00000030: 4b69 cc3e 2533 0c3f 80ce c73e a026 703e
00000040: a3bd fa3e 04c4 bc3e a777 773f 88fd ac3e
00000050: 9d7a 713f 00a3 b73e d232 113f b742 823f
00000060: 1b27 983e 089f 8a3e fcb2 233f 4e77 fc3e
00000070: e4fd df3e b270 6c3f 6972 063f 97d0 513f
00000080: 4718 af3e 5c36 123f e906 e03e b10d 953e
00000090: 1f0f f63e d2d0 1f3f b42d be3e be5b 713f
000000a0: 4a1c 023f 2cf8 463f d37a 1b3f b287 7f3e
000000b0: c0c5 4f3f e5e2 e73e 1984 d23e fe68 e23e
000000c0: b68a 9ebc 3c27 533f 145d a73e b70f 413f
000000d0: 3efa 373f 6b7e 2f3f 3498 163f 7958 373f
000000e0: 1d22 173e b15d 033f abd2 c43e 7b78 513f
000000f0: 6420 403f 46cd 0c3f 1fc6 313e a728 813e
0.20341855 0.7789573 0.7709457 0.7239875 0.27562976 0.42659953 0.18821019 0.15810822
0.6862911 0.85422987 0.77208334 0.7628077 0.39924082 0.5476554 0.39024734 0.23452234
0.48972806 0.36868298 0.9666695 0.3378718 0.9432772 0.35866547 0.5671817 1.017661
0.29717335 0.27074456 0.63944983 0.49309772 0.4374839 0.9235946 0.52518326 0.8195891
0.3419821 0.57114196 0.43755272 0.29112008 0.4805841 0.6242801 0.37144244 0.9428061
0.50824416 0.7772243 0.6073429 0.24954107 0.8116112 0.45290294 0.41116408 0.44220728
-0.019353252 0.8248174 0.326882 0.75414604 0.71866214 0.68552274 0.58825994 0.71619374
0.14759107 0.51314837 0.38441977 0.81824464 0.75049424 0.5500072 0.17360733 0.25226328

layer3.1.bias f4 [64]
00000000: bb16 04be f00e 08bf 4bec 85bd beed c6be
00000010: f25a 1fbe 753e 8f3d ab52 6dbe d531 63be
00000020: 9d0e a3bd 04fb 2fbe b25d 02bf 21db 1cbe
00000030: 7199 00be ae73 d6be ddef 7abe 22c1 40be
00000040: efe7 8cbe e254 63be e485 e1be 9896 2e3d
00000050: 6ea8 0fbf a45f 90be d9ad 31bd beb9 4ebe
00000060: ba76 6bbe 062b 14be 5490 84be 624f 5abe
00000070: 8f01 80be 5396 b6bd 7d72 adbe 4e90 3cbd
00000080: 231b 05be 8aa4 91be 9e90 dabe 4286 803c
00000090: b486 4cbe 723f 1ebe 4ed4 cdbe a0af 29bf
000000a0: 8427 a0bc efb3 8ebe 80f8 c0be 7ef9 99bd
000000b0: da58 6cbe cd9e 01be a178 42be 962b 9abe
000000c0: 37d4 54bc 1ff8 09bf d63f 20be 3363 3ebe
000000d0: 17c6 7cbd 311e cebe 7541 6ebe 27b2 c7be
000000e0: c3af 0abe fb03 7fbe cf25 8dbd 6fc3 29be
000000f0: aae3 93be 4d31 60be c355 2dbe 5fef ebbd
-0.12899296 -0.5314779 -0.0653921 -0.38853258 -0.15562037 0.069943346 -0.23176067 -0.22186978
-0.07961772 -0.17185599 -0.5092422 -0.15317966 -0.12558533 -0.41885132 -0.24505563 -0.18823674
-0.275207 -0.22200349 -0.44047463 0.042624086 -0.5611638 -0.28197968 -0.043378685 -0.20188043
-0.2299451 -0.14469537 -0.25891364 -0.21319345 -0.2500119 -0.08915391 -0.3387641 -0.046036057
-0.12998633 -0.28445846 -0.4268846 0.01568902 -0.1997326 -0.1545389 -0.40201038 -0.6628361
-0.019550093 -0.27871653 -0.3768959 -0.0751829 -0.23080769 -0.12658234 -0.18991329 -0.30111378
-0.012990049 -0.5389423 -0.15649351 -0.18592529 -0.06171235 -0.4025741 -0.23267157 -0.39003107
-0.1354361 -0.24903862 -0.06891977 -0.16578458 -0.2888463 -0.21893807 -0.16927247 -0.11520266

layer3.1.running_mean f4 [64]
00000000: 93d7 80be 9901 0bbf 1a82 acbd 91ee 1bbf
00000010: 0fef 52be 92bc 2cbe 8d33 24be a8e3 fabd
00000020: 0da9 33be cc39 44be 25cb 47bf 9bcc f2be
00000030: 43f6 e1be 26ea dfbe 341c f9be cf2c 86be
00000040: a6d0 33be 29e0 9b3c 913d 28bf e5fc a8bb
00000050: 45b4 0abf b6c1 c1bb b24d 9f3e ae9e c0be
00000060: d391 eabe a541 14bf 678f cfbe 72f3 1abf
00000070: 84aa acbd 30c1 9fbe 5177 87be d1e1 b4bc
00000080: 33c2 e3bd 5df6 75bf be03 bbbd 3de4 acbe
00000090: 7940 d1be 2e10 b0be 9576 bdbe 6bd1 25bf
000000a0: 8413 d2be 4c1f 01bf f415 b1be dad3 71be
000000b0: e9c0 cdbe 31e4 72be c6f0 d7be 52e6 90be
000000c0: 9c94 5a3e e6f7 02bf 5db2 90be 7f1b cebe
000000d0: 536a b0bd 88e5 02bf c3f7 93be 733b a5be
000000e0: f5a6 febd 21d1 8fbe 080f 603e de20 29be
000000f0: 2923 75be 1d2c 80be 6546 6ebe dcb4 b2be
-0.2516447 -0.5429931 -0.084232524 -0.609109 -0.20599006 -0.16868809 -0.1603529 -0.12250453
-0.17544957 -0.19162673 -0.7804435 -0.47421727 -0.44133195 -0.4373333 -0.4865433 -0.2620606
-0.17560062 0.019027786 -0.6571894 -0.0051571005 -0.5418132 -0.0059129847 0.31113964 -0.37621063
-0.4581438 -0.57912666 -0.40539095 -0.6052772 -0.08430961 -0.31202078 -0.2645822 -0.022080334
-0.11121025 -0.96079046 -0.09131573 -0.33767882 -0.408695 -0.34387344 -0.37004533 -0.6477267
-0.41030514 -0.5043838 -0.3458706 -0.23615971 -0.4018624 -0.2371986 -0.42175883 -0.2830072
0.21345752 -0.51159513 -0.2826108 -0.40255353 -0.0861403 -0.51131487 -0.28899965 -0.3227192
-0.12434188 -0.2808924 0.21880734 -0.16516444 -0.23939194 -0.25033656 -0.23269041 -0.3490361

layer3.1.running_var f4 [64]
00000000: cffa 5c3e 958c 5e3e 7921 ba3e c720 083f
00000010: de90 ba3e 2e8e 053f f30d 3d3e 4239 553e
00000020: afa8 553e 7b80 d23e bf05 b53e 450f 063f
00000030: 96e0 5e3e 7917 6d3e 2981 9e3e 1801 3c3e
00000040: 14d5 a43e a13d 173e 9887 e93e 962a b53e
00000050: 8187 783e 2a72 763e 265c fd3e 86d8 b73e
00000060: 1f62 c43e 87c7 8a3e 6a68 8d3e 574a c33e
00000070: bdf8 783e ceb8 be3e 11b0 d63e a08c 843e
00000080: 18ed de3e e574 043f f4be 9e3e a476 813e
00000090: 00c7 633e 98f2 ec3e ecb9 583e abae 893e
000000a0: 0865 a83e be8f 9a3e 19fb 763e de11 113e
000000b0: a2c8 da3e caf3 2b3e 2c23 a73e 99f2 1c3e
000000c0: 6aac b13e 5d3d b03e c980 4a3e 1e03 ee3e
000000d0: b677 033f 75a0 8e3e 22f9 7d3e f2c1 343e
000000e0: 198d 8f3e 6568 8c3e b641 733e f455 cb3e
000000f0: 070c 243e d50c 153e 5e7a a73e a4b1 523e
0.21580051 0.21733315 0.36353663 0.53175014 0.3643865 0.52170074 0.18462352 0.20822623
0.20865129 0.41113648 0.35355946 0.5236705 0.2176536 0.23153485 0.30957916 0.18359792
0.32193816 0.14769603 0.45611262 0.35384053 0.2427044 0.24066988 0.49484366 0.35907382
0.3835611 0.27105352 0.27618724 0.38142654 0.24313636 0.3725037 0.41931203 0.25888538
0.43540263 0.51740867 0.3100506 0.25285828 0.22243881 0.46278834 0.21164674 0.26891074
0.3288958 0.30187792 0.24119224 0.14166972 0.42731196 0.16792217 0.32644022 0.15326919
0.34701854 0.34421816 0.1977569 0.46486753 0.5135454 0.27856794 0.24802068 0.1765211
0.28037336 0.27423397 0.23755535 0.39714015 0.16020213 0.14555676 0.32710546 0.20575577

layer4.0.weight f4 [128, 64, 2, 2]
00000000: eb70 bebd 6930 263e 9ad0 5f3c e9d1 45bd
00000010: 9a75 bcbc b19c bd3d cabe a03d 3ea0 13bd
00000020: 8885 28bd 0b76 ad3b cdbb dabc a10b bcbc
00000030: 7fe7 11bd 6b89 893d 01d1 6abd f643 a3bb
00000040: 8dba 4abe 7d0e 3ebe aedb 8ebc 3a42 d1bb
00000050: 3199 a6bd 9283 76bd 33a8 053e b6f5 1abc
00000060: c5ae 1cbd b7a2 923d b696 593e a0e3 523e
00000070: 488b 3abe 3db1 b7bc 588b 41bd 90eb fd3c
00000080: 29dd 7a3c a1ad 77bd f184 11bd ed90 a3bc
00000090: 9123 9bbd 3a3f 093e 0fde cbbd 878a 1f3d
000000a0: 129a 6c3d 1027 df3d bf9c b03d 5175 fdbc
000000b0: ec54 59bd 8cab 93bd 8432 af3d 1ba6 f3bd
000000c0: fa1b 90bc 9b9e 2cbe 7817 19bd 80a8 763d
000000d0: eab5 093d b2c7 813d 3956 4a3d e77f 39bd
000000e0: 2939 fbbd 848a 2bbd dd65 f6bd 8bf5 5ebd
000000f0: 1006 413d df2f 9a3d 2569 a9bc bb02 18bc
00000100: 2aa4 14be db0e 80bd 48b9 d63d 025a 493d
00000110: 3c75 8bbd 2c1b 963c afbe 36bd 17b4 8abc
00000120: 04be 90bd 90b6 c1bd 02e9 48bd eafd b6bc
00000130: a267 0a3d 60c8 97bd ada0 80bd 4cf1 cfbc
00000140: 7dc1 b03d b2a3 203e 5a75 8d3c 15e8 1dbd
00000150: 143a daba 82b6 2b3b 1d05 ecbc 68e1 7fbd
00000160: 54a0 5dbd 3f52 d5bd 48e1 a1bc 5a9f 34be
00000170: c64a 04be c15a 90bd a29a 913c d5c5 fbbd
00000180: a375 c1bd 6368 06bd 16e5 053d f903 8bbd
00000190: 6ebd 003c 0c97 f03c eb5b a2ba 9168 9c3d
000001a0: 4624 d2bc 4fd8 edbd 19dd d93d 02b9 c2bd
000001b0: 45eb 5dbe fd74 23be 8b53 85bd a472 febc
000001c0: 71fc d13c f6ec 083c 4221 c7bd 81ae c93d
000001d0: b076 0b3c bada 00be a595 5dbd 4aa5 a3bd
000001e0: c315 c4bd c352 51be 7974 7c3d 3ce6 bdbd
000001f0: dc01 533d 427f fe3c 3527 8fbc b768 b8bb
00000200: 5126 c2bc 2ae5 9d3d db0d d9bd 7348 0b3e
00000210: c3e6 99bd b8bb b93d 6dd3 94bc 7300 233e
00000220: 8231 bcbd 23ea 7cbd d2f3 8f3d b19d 50bd
00000230: 7f0b 32bc 9c51 5dbd f6fa 143e 702a 3cbd
00000240: 4120 8b3d e204 c7bd 5d2d 13bc 2561 bbbd
00000250: cc18 313c 4eba 14be 9e77 a13c 723b d2bd
00000260: b452 f7bb 4bdf 3a3d 3ff4 f3bd 3a27 c0bc
00000270: 98ee bfbc 9a62 a63c 4aa4 5abc 3b2e 873d
00000280: 2ddf 983d 9c0b c13c 657b 3b3d 5f78 b9bc
00000290: b805 2fbd c607 633d 5bf2 5dbc 4a22 98bd
000002a0: 913e 6cbc d265 0b3d 738b 663d 2ac7 1e3e
000002b0: 6b8d 263c 28fa e53b fa0c adbd b17d 47bb
000002c0: 678e acbc 91bf b43d f07e 273e c9fb 203d
000002d0: 1815 fa3c f0a7 9abc 0a0a a63d eecb 13bd
000002e0: 423b e439 3bdb dc3d 5664 153e b3f7 123c
000002f0: 453e 063e 3398 cb3c 9183 e3bb 30ed d7bd
00000300: e892 6dbd 658c 9cbc 2abe 1e3e f41a 663d
00000310: e652 363b 60be c5bc fc40 89bd 7bba d53d
00000320: d870 69bd 7b10 d5bd 30d5 1a3d e22a 183d
00000330: ede5 733c 977f e3bc 065a d13c b872 08be
00000340: 7498 033d 92f5 60bd 962c 51bd b364 03bd
00000350: ce52 bb3c 3503 573d 2585 ef3d e174 e43d
00000360: e95d 8ebd a9b3 403d 6c01 9f3c 849e 3b3d
00000370: 8fa4 05be 411b d63c 4f59 f43d 1d44 bb3d
00000380: 347c 773d c78a 953d 93d0 c4bc d76e af3d
00000390: 1edd 5ebe 9211 87bc 978c 28be c0b6 183e
000003a0: ab00 e5bd 0ab3 84bd e78f f93d 9964 aabd
000003b0: 82f0 cebd f52f 863d 085d edbd d2ae bebd
000003c0: 2b0f 6c3c 8b50 c53c 766d 84bd 32e2 8cbd
000003d0: 96a2 203d 70ad d73d 10c3 b63d b8e2 b1bd
000003e0: a7bc 29bd f423 04bc 489b 8f3d 1474 bdbc
000003f0: bf79 fc3c ad20 093e f4f5 b53c 903c 2fbe
-0.09298881 0.16229405 0.013660574 -0.04829589 -0.023005296 0.09258402 0.0784889 -0.03604149
-0.04114297 0.005293613 -0.026700879 -0.022954764 -0.035621163 0.067156635 -0.057328228 -0.004982467
-0.19797726 -0.18560214 -0.017438736 -0.0063860686 -0.08134688 -0.06018407 0.13052444 -0.009457996
-0.03825261 0.07159942 0.21248898 0.20594645 -0.18217194 -0.022423381 -0.04725203 0.030996114
0.015311518 -0.06046832 -0.035527173 -0.019966567 -0.07575143 0.13403025 -0.09954464 0.03895047
0.05776412 0.108961225 0.08623647 -0.03093973 -0.053059503 -0.07210454 0.08554557 -0.118969165
-0.017591465 -0.16857378 -0.037375897 0.060219288 0.033620752 0.06336917 0.049398635 -0.045287993
-0.12266762 -0.041880146 -0.12031148 -0.054433387 0.047124922 0.07528662 -0.02068002 -0.009277995
-0.14515749 -0.062528335 0.10484558 0.049158104 -0.0680947 0.018323503 -0.044615444 -0.016931577
-0.070674926 -0.09458649 -0.04905034 -0.022337873 0.03379024 -0.074112654 -0.062806465 -0.025383614
0.08630655 0.15687445 0.017267872 -0.03855141 -0.0016649389 0.0026201312 -0.028811032 -0.062470824
-0.05410798 -0.10416078 -0.019760743 -0.17638913 -0.12919149 -0.0704856 0.01777393 -0.12293593
-0.094462655 -0.032814395 0.032689176 -0.06787867 0.007857664 0.0293689 -0.0012387013 0.07637132
-0.025652062 -0.11613523 0.10637874 -0.09507944 -0.2167178 -0.15962596 -0.06510075 -0.031060524
0.025633069 0.008357277 -0.0972314 0.09847737 0.008512184 -0.12583438 -0.05409779 -0.07990511
-0.09574463 -0.20441727 0.061634514 -0.09272429 0.051515445 0.03106654 -0.01747475 -0.0056277174
-0.023699911 0.07709725 -0.10598346 0.13601856 -0.075147174 0.09069008 -0.018167222 0.1591814
-0.0918913 -0.061746728 0.07028927 -0.050931636 -0.010866999 -0.054032907 0.14548859 -0.04593891
0.06793261 -0.09717728 -0.008982983 -0.09149388 0.010809135 -0.14524195 0.019710358 -0.102652445
-0.007547701 0.045623105 -0.119118206 -0.023456205 -0.0234292 0.020310689 -0.013344834 0.06600615
0.074644424 0.023565106 0.045771975 -0.022640405 -0.042730063 0.055427335 -0.013546552 -0.07428415
-0.014419214 0.03403265 0.056285333 0.15505663 0.010165553 0.0070183463 -0.08449741 -0.0030439908
-0.021063996 0.08825601 0.16357017 0.03930262 0.030527636 -0.018878907 0.081073835 -0.036083154
0.000435317 0.107840024 0.14589056 0.008970189 0.13109691 0.024852848 -0.006943174 -0.10543287
-0.05800143 -0.019109914 0.1550223 0.05617805 0.0027820407 -0.02413863 -0.06701848 0.10435959
-0.05699238 -0.10403534 0.037800968 0.03715027 0.014886362 -0.0277708 0.025555622 -0.13325012
0.032127813 -0.054921694 -0.05106791 -0.032078456 0.022866633 0.052493293 0.11695317 0.111551054
-0.06951506 0.047046337 0.019409858 0.04580547 -0.13051055 0.026136043 0.11931097 0.09143851
0.060421184 0.0730186 -0.024025237 0.08566063 -0.21764037 -0.01648787 -0.16459881 0.14913464
-0.11181768 -0.064794615 0.1218565 -0.08319969 -0.10104467 0.06552116 -0.1159001 -0.09310688
0.014407913 0.024086257 -0.064661905 -0.06879081 0.039217554 0.105311275 0.08923924 -0.08685821
-0.04143968 -0.0080652125 0.070120394 -0.02312664 0.030819772 0.13391371 0.022212006 -0.17112947

layer4.0.bias f4 [128]
00000000: 2977 84bc 61a5 70bd 1b3a fe3c 68f0 e838
00000010: 7aec 2fbd 650f b4bd 78c2 bcbc f8ef f1bc
00000020: 522c 743d a274 d7bb 8995 5c3d 6f1c b43c
00000030: 9796 103d 2f11 e93a 65e0 90bd a071 0ebd
00000040: 4ed9 10bd 37a5 cd3c 3940 0bbd 8186 f03c
00000050: cb8c e7bc e53c 743d c51d 353d beb0 5d3d
00000060: 437a 18bc dc4b 55bd b602 a9bd b98c 53bd
00000070: 9d7b 40bd 516e 9dbd b975 083d 0195 02bc
00000080: 2665 07bd ff92 f5bc 2a67 57bd bb5b b73d
00000090: b1ad 81bc 6d8b 3d3d 7801 d0bd cc59 f5bc
000000a0: cccc d53c 0f5c 243d 187f 80bc 35c7 cb3d
000000b0: 8d47 1cbc 2e82 223d 2cd5 523c 5434 05bd
000000c0: dc43 ee3d d89f 4c3d 246a adbd 5e81 acbc
000000d0: 361a 5abc 5d5b dabc c4cf cebc 1c3a 58bc
000000e0: 0738 c3bc 26e6 59bd 247e 6dbd 2279 b5bd
000000f0: 7a38 b0bb 23e3 883d aa79 7c3c 15e6 bebb
00000100: 885a 19bd f84d d7bb e101 c33c 1e26 043d
00000110: 5fe6 e1ba 48ad 32bd 339f 063d b627 1dbd
00000120: 36d3 bb3d 180b 523d 6e19 343d 0234 c13c
00000130: 7aa6 41bd 79f4 58bd bca5 42bd 54c6 a6bd
00000140: 5ad2 273d d631 c03d 0966 513d 6e86 b43c
00000150: ac7d 8a3a bb15 933d e1f3 983c 2aa4 353d
00000160: bd4d 8cbc 324f 8abd 62da 7ebd 6c18 e33d
00000170: a868 4abd 0d7f d9bb b29e 123d 1160 243b
00000180: 6d00 0ebd f2aa ccbd c7be 1cbc da5c 2b3c
00000190: e518 91bd 5da6 523c 4643 113d ee42 b9bb
000001a0: 3144 3cbd 578a 323a b4b8 ddb9 d22d 1c3d
000001b0: 5368 cb3d bf3c 34bd 4785 c3bd e0a3 413c
000001c0: b6dc 3dbb 3d44 1f3c 0dda 60bd 0edd 37bb
000001d0: 3429 88bd 84cc aeba f2f7 c1ba b296 5a3d
000001e0: 4574 a53d fa3d 72bd 1ec7 f4bc 9fc5 c63b
000001f0: 921a fc3b ef6c 403c 3409 09bc c1a6 9dbd
-0.016170101 -0.058751468 0.031033566 0.00011107401 -0.04295013 -0.08791999 -0.023041949 -0.029533371
0.05961258 -0.006575183 0.053853545 0.021986214 0.035299864 0.001778161 -0.0707405 -0.03477633
-0.035363488 0.025103195 -0.033996794 0.029361011 -0.028265378 0.059628386 0.044217844 0.054123633
-0.009306493 -0.0520743 -0.0825247 -0.051647875 -0.046992887 -0.07687057 0.033315394 -0.007970096
-0.033055447 -0.02997732 -0.05258862 0.08953043 -0.015829893 0.046275545 -0.1015653 -0.029950045
0.026098631 0.040126856 -0.015685603 0.09950105 -0.009538543 0.03967493 0.012868207 -0.032520607
0.11634037 0.049957126 -0.0846751 -0.02105778 -0.013311913 -0.026654894 -0.025245555 -0.013197448
-0.023830427 -0.053198002 -0.057981625 -0.08860995 -0.0053778263 0.06683948 0.015409866 -0.0058257678
-0.037439853 -0.006570574 0.023804607 0.032262914 -0.0017234794 -0.043622285 0.032866668 -0.03836795
0.09171145 0.05128011 0.043969564 0.02358437 -0.047277905 -0.052967522 -0.047521338 -0.08143297
0.04097209 0.093845055 0.0511227 0.022036757 0.0010566018 0.07181879 0.018670978 0.044346012
-0.017126912 -0.067533866 -0.062219985 0.110886425 -0.049416214 -0.00663746 0.035795875 0.0025081674
-0.034668375 -0.09993543 -0.009566969 0.010459149 -0.070848264 0.012857047 0.035464548 -0.0056537306
-0.04596347 0.00068107754 -0.0004229002 0.038129635 0.09932008 -0.044003244 -0.09546905 0.011818856
-0.0028970665 0.009720859 -0.05489545 -0.0028055343 -0.06648484 -0.0013336097 -0.0014798625 0.05336637
0.08078817 -0.059141137 -0.029880103 0.0060660387 0.007693597 0.011744722 -0.008364011 -0.076978214

layer4.1.weight f4 [128]
00000000: 2659 a23e 2df1 1d3f 151d 423f 45de cc3e
00000010: 014a 5f3e 678e 803f 113e 0c3f d787 1a3f
00000020: 515f f93e bb55 683f 2cf8 4e3e 842d 1d3f
00000030: 67a1 8d3e 086f 5c3e b11c 6f3e 97f6 923f
00000040: d72b 4f3f 6397 703e 51fc b73e 87e2 643e
00000050: ef03 b33e 7066 3c3f 7abf 623e 4d0f 583f
00000060: a580 803e 6edc 4d3f 80e9 b53e 109b a23d
00000070: 76de 2f3f 301d 523f 3f07 573f 0bff a23e
00000080: 99b3 693f 3eae 283f d64c f73e 389e ce3e
00000090: 4b31 b13e cf2a 093f 73f7 bf3e 5d77 423f
000000a0: 7449 2e3f 7560 263f 59f8 153f 0703 393f
000000b0: 7546 c53e 9ab0 8d3e 1b8d 193f 3be2 0dbe
000000c0: 42b0 6a3f b2bf 113f 2371 883f 208c 623e
000000d0: 0350 eb3e a834 a13e 17e7 d83e 2aed 513f
000000e0: 3af7 0e3f 497b 933e 3013 4d3e 36a7 803f
000000f0: 983c 013f 667c 783f 9926 ab3d f82e ee3e
00000100: 5a62 183f a42c 473f 2812 c33e cda0 b33e
00000110: 191a 3c3f 8a37 9d3e b3da 0e3f 8ad9 d03e
00000120: c414 fa3e 30d8 013f e525 8e3e bdda 233f
00000130: 2dd9 bc3e 8b90 a73e 071f 353e 5e6c d63e
00000140: 70e8 363f 3d6d 293f ce83 e73e 4f76 023f
00000150: 52bb 2a3e f98b d83e f601 813e f2f1 553f
00000160: 2b9e 543f 81a1 0e3f a0cb 1f3f 679b 103f
00000170: c375 013f 0284 f73e 6861 663f 6360 5b3e
00000180: cfab 1b3f 9416 893e 53a7 553e f8a3 203e
00000190: 6986 6f3f 90e9 1b3f 37aa e73e 30c9 973c
000001a0: 4fdb 523e 6468 253e cada 673e 46b2 b33e
000001b0: fff7 d73e af82 fb3e d7e4 443f 9e08 8a3f
000001c0: 906d 2e3f 21e2 693f b725 293f d1d9 e03e
000001d0: 002d a93e fd7e 383f 235a 183f 7b33 923e
000001e0: d7fe 473e 970b 2b3f deb2 b13e a102 663f
000001f0: 6ff1 333f 5134 513e 9efa 3f3f 1b36 f53e
0.3170864 0.6169613 0.75825626 0.40013328 0.21805574 1.0043458 0.54782206 0.60363525
0.48705533 0.90755814 0.20211858 0.61397576 0.27662203 0.2152673 0.23350789 1.1481503
0.8092627 0.2349525 0.3593469 0.22352038 0.3496394 0.7359381 0.22143355 0.8439835
0.25098148 0.80414474 0.3552971 0.07939732 0.68698823 0.82075787 0.8399543 0.31835207
0.9128967 0.6589087 0.4830081 0.40355086 0.3460792 0.53580946 0.37493476 0.75963384
0.6808083 0.6499093 0.58582073 0.72270244 0.38530317 0.276738 0.59980935 -0.13855831
0.916752 0.5693313 1.0659527 0.22123766 0.45959482 0.31485486 0.42363808 0.8200251
0.5584599 0.28804997 0.2002685 1.0051029 0.50483084 0.97064817 0.08356971 0.4652021
0.5952507 0.7780249 0.3809979 0.3508362 0.7347732 0.30706435 0.5580246 0.4079097
0.48843968 0.507205 0.27763286 0.64005643 0.36884442 0.32727465 0.17687617 0.41879553
0.7144842 0.6618231 0.45217746 0.50961775 0.1667302 0.4229429 0.2519681 0.83572304
0.83053845 0.55715185 0.6242008 0.56487125 0.50570315 0.483429 0.8999238 0.21423487
0.60809034 0.26775038 0.2086461 0.15687549 0.9356447 0.60903263 0.4524705 0.01852855
0.20591472 0.16153103 0.22642055 0.3509695 0.42181394 0.4912314 0.7691168 1.078388
0.6813593 0.9136067 0.66073173 0.4391618 0.33042145 0.7206877 0.5951254 0.285549
0.19530807 0.6681456 0.34706777 0.8984776 0.70290273 0.20430113 0.74991786 0.47892842

layer4.1.bias f4 [128]
00000000: 0ef4 16be 7627 63be 6014 87be 20e2 88be
00000010: 89a1 ebbd fb7d bbbe d57e 10be 5e6b 9abe
00000020: fec4 3abe 0685 a5be 6437 90bd f211 6dbe
00000030: 536e b7bd a4b7 03be 1f1d 1cbe 2d55 e1be
00000040: 8c1a 3abe f33a 1bbe b749 89be 4608 22be
00000050: 2ad3 f9bd 174a a6be 84d5 cabd be6e 96be
00000060: 05c1 f9bd c1e6 8abe e4bd 26be 7ea4 5bbd
00000070: ceef 76be d09a 8bbe 5ff0 9bbe b5bb e6bd
00000080: 4b3d 8ebe 73e6 61be 343c 5bbe 52d8 11be
00000090: 745a 2ebe 9051 33be 4142 29be 7dad 97be
000000a0: 7164 1abe f259 99be 1faf 77be bce1 1bbe
000000b0: 682b 3bbe 5850 f8bd 8f1f 4abe 07c9 9cbd
000000c0: c1c2 95be 7fb4 79be 1ca2 c9be a749 d8bd
000000d0: b91a 39be da56 b2bd 0fbb 47be 7aef 5dbe
000000e0: 702c 2bbe f85d fbbd a095 22be 9c4b 8fbe
000000f0: bc0b 5fbe da80 9ebe 5755 0cbd 45f5 36be
00000100: 5ac8 6bbe e529 c9bd e5cc 43be 3314 fcbd
00000110: 28d3 58be 55dc 4cbe 2cd4 66be acaf f1bd
00000120: 7ff0 54be c1ab 9cbd aa7d 05be b04f 85be
00000130: 3ae1 a0bd b6e9 cbbd 7228 aabd a4de 1fbe
00000140: 033b 93be 3cfa 9fbe 8778 1dbe 8082 98be
00000150: 6ea9 43bd 8a1a 1fbe bac4 f8bd 30d7 a5be
00000160: c247 4ebe 049d 37be 464c 54be 1fc8 8abe
00000170: 0a2e 36be 7d11 1bbe 1f38 a2be d934 0abe
00000180: 12bb 41be 0feb 28be 9e57 ffbd 8663 bbbd
00000190: f1d4 adbe 537f b7bd ef11 adbe 5189 20bc
000001a0: 6c84 b1bd 3e64 18be b1b7 f2bd 3ad1 45be
000001b0: 916c f6bd 9558 6dbe b488 59be d525 e5be
000001c0: bc20 33be 8ba1 98be 9702 2cbe 9898 17be
000001d0: d270 18be a3c7 87bd 73ed 73be 4784 08be
000001e0: 82eb 1cbe 0792 58be 1a15 c9bd feac d5be
000001f0: 2d9f 2cbe fafe abbd b59c 76be f99e 11be
-0.14741537 -0.22183022 -0.26382732 -0.2673502 -0.1150542 -0.36619553 -0.14110883 -0.3016004
-0.18239209 -0.3232805 -0.07041815 -0.23151377 -0.089565895 -0.12863022 -0.15245484 -0.44010296
-0.1817419 -0.15159206 -0.26814052 -0.15823469 -0.121984795 -0.324784 -0.09904006 -0.29381365
-0.12195019 -0.27129176 -0.16283375 -0.05362367 -0.24114916 -0.2726655 -0.30456826 -0.11266271
-0.27781138 -0.22060566 -0.21409684 -0.14242676 -0.17026693 -0.17511582 -0.1652918 -0.2962455
-0.15077378 -0.29951435 -0.24187897 -0.1522283 -0.18278277 -0.12124699 -0.19738601 -0.076555304
-0.29250148 -0.2438526 -0.39381492 -0.10560923 -0.180766 -0.08707972 -0.19504951 -0.21673384
-0.1671617 -0.122737825 -0.1587739 -0.27987373 -0.2178182 -0.3095768 -0.034261074 -0.17867
-0.23025647 -0.09822444 -0.1912113 -0.1230854 -0.211743 -0.20005925 -0.22541875 -0.11801085
-0.20794867 -0.07649947 -0.13036218 -0.2603736 -0.078554586 -0.09956686 -0.083084956 -0.15612274
-0.2875596 -0.312456 -0.15378009 -0.29787064 -0.047769003 -0.15537468 -0.121468976 -0.32390738
-0.20144561 -0.1793099 -0.20732221 -0.27105805 -0.17791 -0.1514339 -0.31683442 -0.13496722
-0.18919018 -0.16495918 -0.124678835 -0.09149842 -0.33951524 -0.08959832 -0.33802745 -0.009798364
-0.086678356 -0.1488199 -0.118514426 -0.19318095 -0.12032426 -0.23178323 -0.21243554 -0.44755426
-0.17492956 -0.29810748 -0.16797863 -0.14804304 -0.14886788 -0.066298746 -0.23821048 -0.1333171
-0.15324214 -0.21149455 -0.09818478 -0.41733545 -0.16857596 -0.08398242 -0.24083216 -0.142208
