MP3-ModifiedMNIST/Mini-project3/trained_models/model_john_mar3_2.ckpt (torch_old, 876317 bytes, 34 tensors)

layer1.0.weight f4 [16, 1, 2, 2]
0	0xbe815330	-0.2525878
1	0x3e651baa	0.22373834
2	0xbe85958a	-0.26090652
3	0xbedf8dd3	-0.4366289
4	0xbe41f56f	-0.18941282
5	0x3dcaae86	0.09896569
6	0x3d18c29d	0.037294973
7	0x3ee9c9b3	0.45661697
8	0xbd0d8465	-0.03455009
9	0x3dc7cfff	0.09756469
10	0xbe875a98	-0.26436305
11	0xbde19a48	-0.11015755
12	0xbf38cc89	-0.72187096
13	0xbdf8ea1f	-0.1215403
14	0xbe0d3a2b	-0.1379172
15	0xbd18fd44	-0.037350908
16	0x3e7d6ad3	0.24747781
17	0x3ed7b7d3	0.42132434
18	0xbe4db872	-0.20089892
19	0xbe5f2f51	-0.21795394
20	0xbd009fe2	-0.031402476
21	0x3e3b701e	0.18304488
22	0xbebf6a13	-0.37385616
23	0x3e7479e5	0.23874624
24	0xbd51a74b	-0.051184934
25	0xbd8212ea	-0.06351264
26	0x3f06ad9c	0.52608657
27	0xbed446d7	-0.41460297
28	0xbe9b4775	-0.30327955
29	0x3c82da08	0.015973106
30	0xbe7725fc	-0.24135584
31	0x3ee8e3f2	0.45486408
32	0xbea69e8d	-0.3254284
33	0xbe4db2d4	-0.20087749
34	0xbef7d5f6	-0.48405427
35	0xbec9b282	-0.39394003
36	0xbe8afa23	-0.27143964
37	0x3ed84fc4	0.42248356
38	0x3e90c51d	0.28275385
39	0x3e8bbee2	0.2729407
40	0x3cc11f99	0.023574637
41	0xbe4aa3f9	-0.19789113
42	0x3de71e05	0.11285023
43	0xbf0dd9de	-0.55410564
44	0xbe7e689f	-0.24844597
45	0xbe62534a	-0.22102085
46	0x3ed41f28	0.4143002
47	0x3eca366e	0.39494652
48	0x3d2850e0	0.041092753
49	0x3e279763	0.16366343
50	0x3ebe63fd	0.3718566
51	0x3f0fa419	0.5610977
52	0x3ea5d823	0.32391462
53	0x3d39e3ab	0.045383137
54	0x3e933528	0.28751493
55	0xbe97121b	-0.29506
56	0xbd6d48d9	-0.0579308
57	0xbefc1d17	-0.49240944
58	0xbea424b0	-0.3205924
59	0xbe55fcbe	-0.20897195
60	0x3ea29c60	0.3175993
61	0x3d818d44	0.063257724
62	0xbe682f77	-0.22674356
63	0x3e8ec677	0.27885792

layer1.0.bias f4 [16]
0	0x3e8c2a08	0.27375817
1	0xbd9765a2	-0.07392432
2	0x3c8e2ecf	0.017356304
3	0x3dec1fb1	0.11529482
4	0x3e8a8775	0.2705647
5	0x3ef53111	0.47888997
6	0xbec081a4	-0.37598908
7	0xbe31a8a5	-0.17349489
8	0x3e4a0bd4	0.19731075
9	0x3ed43f34	0.4145447
10	0x3edab269	0.4271424
11	0x3ee6fae1	0.4511328
12	0x3dc8b560	0.098002195
13	0xbedbc999	-0.42927244
14	0x3d3d792f	0.046258148
15	0xbe9fed22	-0.31235605

layer1.1.weight f4 [16]
0	0x3e08a9ad	0.13345976
1	0x3f7cbd75	0.9872659
2	0x3f655844	0.8958781
3	0x3e687571	0.2270105
4	0x3f105457	0.5637869
5	0x3eb593b2	0.35464245
6	0x3ebcc7a1	0.36871055
7	0x3ee7bf72	0.4526325
8	0x3f761d58	0.96138525
9	0xbdb89143	-0.090120815
10	0x3f7c32a3	0.98514766
11	0x3f421b8d	0.7582329
12	0x3f8b32e7	1.0874909
13	0x3f342af0	0.7037802
14	0x3e891ce0	0.26779842
15	0xbdd93d5e	-0.10607408

layer1.1.bias f4 [16]
0	0x3e93f285	0.28895965
1	0xbea4c45c	-0.3218106
2	0x3e2d6063	0.169313
3	0x3e8412c0	0.25795555
4	0xbca6ca8d	-0.020360256
5	0xbeab9627	-0.33512995
6	0x3c3dd6a9	0.0115868235
7	0x3e14f9ca	0.14548412
8	0x3ebac8c5	0.364813
9	0x3d0ec364	0.034854308
10	0x3ea8526d	0.32875386
11	0x3d2e090b	0.042489093
12	0xbe5ce945	-0.2157336
13	0xbe17e76c	-0.14834374
14	0x3e239bda	0.15977421
15	0x3e9a6c8a	0.30160934

layer1.1.running_mean f4 [16]
0	0xc29b6081	-77.688484
1	0x422c1d8b	43.02885
2	0xc206c365	-33.690815
3	0xc2d96908	-108.70514
4	0x41da260e	27.268581
5	0x400d000a	2.2031274
6	0xbe978702	-0.2959519
7	0xc0e57907	-7.171024
8	0xc315f441	-149.95412
9	0x4298069c	76.01291
10	0xc283575d	-65.67063
11	0x4211b3af	36.425472
12	0x42f41b42	122.05324
13	0x421da294	39.408768
14	0xc2e74865	-115.641396
15	0x423408d8	45.008636

layer1.1.running_var f4 [16]
0	0x45297794	2711.4736
1	0x447eeca1	1019.6973
2	0x44093c7b	548.945
3	0x45a3e2c4	5244.3457
4	0x441dba0e	630.9071
5	0x435df78c	221.96698
6	0x439fada6	319.35663
7	0x43c5f7c7	395.93576
8	0x46148c39	9507.056
9	0x45239e96	2617.9116
10	0x45026cf8	2086.8105
11	0x4475b4b8	982.8237
12	0x45c85bf8	6411.496
13	0x44674878	925.1323
14	0x45b152a4	5674.33
15	0x446aa795	938.61847

layer2.0.weight f4 [32, 16, 2, 2]
0	0x3e6cfa6f	0.23142408
1	0x3e13f03e	0.14447114
2	0xbe8e9bc1	-0.27853206
3	0xbe688b23	-0.22709326
4	0x3dea8ef9	0.11453051
5	0x3de98cc1	0.114038
6	0x3b98d1c4	0.004663678
7	0x3d976c3f	0.07393693
8	0xbd44a18d	-0.04800563
9	0xbdb84d00	-0.089990616
10	0xbd044213	-0.032289576
11	0xbd2ebd20	-0.042660832
12	0x3e285636	0.16439137
13	0x3e1e8278	0.15479457
14	0xbe285344	-0.16438013
15	0xbd2325fa	-0.03983114
16	0x3cfce887	0.030872596
17	0x3d871375	0.06595508
18	0xbe0ea2f7	-0.13929354
19	0xbe6a884f	-0.2290356
20	0xbceec93c	-0.02914869
21	0x3ccbaee9	0.024863677
22	0xbe1391b6	-0.14411053
23	0xbde74922	-0.11293246
24	0x3d8e84f1	0.0695895
25	0x3b9e4aba	0.0048306854
26	0xbe2f048b	-0.17091577
27	0xbd99fa04	-0.0751839
28	0xbd5457b4	-0.051841453
29	0xbcef3797	-0.029201312
30	0x3cce3f11	0.025176557
31	0x3d7ef37e	0.06224393
32	0xbd0a5856	-0.03377565
33	0xbde64d66	-0.11245231
34	0x3e09c196	0.13452753
35	0x3de8ed35	0.11373369
36	0x3de90f3a	0.11379857
37	0x3e439a57	0.19101845
38	0xbddd44ab	-0.10804113
39	0xbe1f4356	-0.1555303
40	0xbda32f70	-0.07968032
41	0xbc73a447	-0.01487071
42	0x3e2c2f15	0.16814835
43	0x3e0a9bb8	0.13535964
44	0x3dc8da5e	0.09807275
45	0x3d5fd9aa	0.05465094
46	0x3dd1a0f4	0.102357775
47	0x3d8100b5	0.06298963
48	0xbd9feaea	-0.07808478
49	0x3cee8931	0.029118152
50	0x3e691264	0.22760922
51	0x3e56cf13	0.2097743
52	0xbd4a2eff	-0.049361225
53	0xbda421ac	-0.08014235
54	0xbe3aa744	-0.1822787
55	0xbe6f259d	-0.23354192
56	0x3dd95b7f	0.106131546
57	0x3e3b7614	0.18306762
58	0xbd22ad75	-0.039716203
59	0xbe68e202	-0.22742465
60	0x3e990c2e	0.29892105
61	0x3dc0dc35	0.09417001
62	0xbe563fe0	-0.20922804
63	0xbe4c37cc	-0.1994316
64	0x3c3123a1	0.010811717
65	0x398a39b8	0.00026364415
66	0xbdf7296c	-0.120684475
67	0xbe2f3f35	-0.17113955
68	0xbdb2d490	-0.08731949
69	0x3c9762f2	0.018479798
70	0xbe50ba3f	-0.20383547
71	0xbd869368	-0.06571084
72	0x3b0b4945	0.002125339
73	0x3daf9dc4	0.08575013
74	0x3dcfe82d	0.10151706
75	0x3d60377a	0.054740407
76	0x3e1f824c	0.15577048
77	0x3d7403d8	0.05957398
78	0xbdfa10e7	-0.12210255
79	0x3cbc9569	0.023020463
80	0xbd912d2c	-0.07088694
81	0x3d4f00b3	0.050537776
82	0x3ddb5322	0.10709216
83	0xbcc3511c	-0.023842387
84	0xbc3feae0	-0.011713713
85	0x3ccee168	0.025253966
86	0x3cfcf587	0.030878795
87	0xbcae612c	-0.02128657
88	0x3e30fd7b	0.17284195
89	0x3e34c241	0.17652227
90	0x3dd90b54	0.10597864
91	0x3d1dd705	0.038535137
92	0x3d31b6fa	0.04338739
93	0x3e418c6e	0.18901226
94	0x3d935f2e	0.071958885
95	0x3daf26af	0.085523
96	0xbd161ae5	-0.036646742
97	0xbbdc3591	-0.006720253
98	0xbd8ed7c4	-0.06974748
99	0xbcfbdcab	-0.030744871
100	0xbd6019e6	-0.0547122
101	0x3cbf3a3b	0.023343196
102	0xbdf248f6	-0.118303224
103	0xbdc6cf63	-0.097075246
104	0x3df1c773	0.1180562
105	0x3d807828	0.06272918
106	0xbceed9b8	-0.02915655
107	0xbd0e7ee5	-0.034788985
108	0xbcb7434f	-0.022370962
109	0x3e48b4a9	0.19600166
110	0xbd2374d1	-0.039906327
111	0x3d9e8c58	0.07741612
112	0xbdb7858d	-0.0896102
113	0xbce5788f	-0.028011588
114	0xbe53033d	-0.20606704
115	0xbe336cb5	-0.17521937
116	0x3d8e871d	0.069593646
117	0xbadc45b2	-0.0016805439
118	0x3d76da66	0.060266875
119	0xbe0b14cd	-0.13582154
120	0xbd2dee0d	-0.04246335
121	0xbd6c0787	-0.057624366
122	0x3dc85c66	0.097832486
123	0xbe19aec4	-0.15008074
124	0x3c301c72	0.010748969
125	0x3ddedf26	0.10882406
126	0x3c742974	0.014902461
127	0xbdab6397	-0.08368605
128	0xbd542686	-0.05179455
129	0x3df550dc	0.11978313
130	0xbe223957	-0.15842186
131	0xbd7c6a0d	-0.061624575
132	0xbcaa6422	-0.0207997
133	0xbd807684	-0.06272605
134	0x3d4783d1	0.048709694
135	0x3d2959de	0.04134547
136	0xbcb74146	-0.022369992
137	0xbc46aee0	-0.012126654
138	0x3d928d0f	0.07155811
139	0xbd4f4046	-0.050598405
140	0x3dd2800e	0.10278331
141	0xbd42c5dc	-0.047551975
142	0xbdd2e909	-0.10298354
143	0x3d0e88fb	0.034798604
144	0xbc6a9bfd	-0.014319417
145	0x3db0fca9	0.08641941
146	0xbe097dd2	-0.13426903
147	0xbd0913d4	-0.033466175
148	0x3dc74432	0.09729804
149	0xbd8a0745	-0.06739668
150	0x3dba2f02	0.09090997
151	0xbdbcda5e	-0.09221338
152	0xbd2b4ec3	-0.04182316
153	0x3e139823	0.14413504
154	0xbc50ee45	-0.01275212
155	0xb85abaf8	-5.214938e-05
156	0x3e1cf298	0.15326917
157	0xbd7da0cb	-0.061920922
158	0xbd461e45	-0.04836871
159	0xbd8172ec	-0.06320748
160	0xbe37a18f	-0.17932723
161	0xbd157b37	-0.03649446
162	0xbd0bcd20	-0.03413117
163	0xbd2d4a50	-0.042307198
164	0x3b04da7d	0.002027183
165	0x3e24d6a6	0.16097507
166	0x3c7b23e3	0.01532838
167	0x3dc29ad1	0.09502185
168	0x3b1b9b65	0.0023743745
169	0xbd35a521	-0.044346932
170	0x3cdddab4	0.027081825
171	0x3da7c6d6	0.08192222
172	0x3e989470	0.2980075
173	0x3e6ef817	0.23336826
174	0xbb070e40	-0.002060786
175	0xbd5342d9	-0.051577423
176	0xbe38ea49	-0.18058123
177	0xbbfbf083	-0.0076885833
178	0xbcb0feac	-0.021605812
179	0xbddd18d5	-0.10795752
180	0x3d0c040a	0.03418354
181	0xbd92acf2	-0.07161893
182	0x3ca00cac	0.019537292
183	0x3d6b6359	0.057467792
184	0x3d4cf3d2	0.050037213
185	0xbd27c701	-0.04096127
186	0xbe1e6f43	-0.1547213
187	0x3dc79f75	0.09747211
188	0x3da81ee0	0.08209014
189	0x3e1e060d	0.15431996
190	0xbda2830e	-0.07935153
191	0x3d25a691	0.040442053
192	0xbe6b9d1b	-0.2300915
193	0xbd30930d	-0.04310899
194	0x3b64266f	0.0034812947
195	0x3e0be807	0.1366273
196	0x3c79102b	0.015201609
197	0xbdf0a1f9	-0.11749644
198	0xbe1cd5aa	-0.15315881
199	0xbe26a434	-0.16273576
200	0x3ddd7400	0.10813141
201	0xbd480564	-0.048833266
202	0x3c8e4804	0.017368324
203	0xbdb0342d	-0.08603702
204	0xbe6b3aa0	-0.22971582
205	0xbc43bde4	-0.011947129
206	0xbc06c4ce	-0.008225633
207	0x3dde2ba0	0.108481646
208	0xbcbfd270	-0.023415774
209	0x3c2b3c4f	0.01045139
210	0x3dacd599	0.08439178
211	0x3d26aedd	0.040694106
212	0xbe6bed2d	-0.23039694
213	0x3c900cd4	0.017584242
214	0xbdfad695	-0.122479595
215	0xbd8304d5	-0.06397406
216	0x3d9095cd	0.07059822
217	0x3d557786	0.05211594
218	0xbcdd50c6	-0.027016055
219	0x3e219be3	0.15782122
220	0xbe66c854	-0.22537357
221	0x3d19a784	0.03751327
222	0xbd186d2f	-0.0372135
223	0x3e4d6c01	0.20060731
224	0x3d854424	0.065071374
225	0xbcd8b1a5	-0.026451895
226	0xbcedf2fe	-0.029046532
227	0xbc512350	-0.012764767
228	0xbd80433b	-0.06262823
229	0x3d8ce7b5	0.06880132
230	0x3ddaf7da	0.10691805
231	0x3dda8130	0.10669172
232	0x3e0cc4cf	0.13746952
233	0x3cb57c07	0.022153867
234	0xbd531622	-0.05153478
235	0xbd25332f	-0.040332016
236	0x3e06a7aa	0.13149896
237	0x3dde25ac	0.10847029
238	0xbe27a5e8	-0.16371882
239	0x3bf20b50	0.0073866025
240	0x3e38b593	0.18038015
241	0x3d2a7962	0.041619666
242	0x3d6c2096	0.057648264
243	0xbdc0fcae	-0.09423195
244	0x3da01aa5	0.07817582
245	0xbcc49b09	-0.023999708
246	0x3e505095	0.2034324
247	0x3df2ae31	0.118496306
248	0xbe3fd114	-0.187321
249	0x3da8ffe8	0.08251935
250	0x3e12105d	0.14264055
251	0x3e3ac1c1	0.18237974
252	0xbe838578	-0.25687766
253	0xbb1d3174	-0.0023985775
254	0xbc7c9a8f	-0.015417709
255	0x3e3f0e57	0.18657814

layer2.0.bias f4 [32]
0	0x3da34362	0.079718366
1	0x3de40d02	0.111352935
2	0x3e2dc6f3	0.16970424
3	0x3c26dd77	0.010184637
4	0xbddd28fc	-0.10798833
5	0xbdbac88f	-0.09120285
6	0x3d473bfd	0.048641194
7	0x3e032da5	0.12810381
8	0x3d2647ea	0.040595926
9	0xbd15bb25	-0.036555428
10	0xbd46bbb7	-0.048518863
11	0xbd6a58be	-0.057213537
12	0x3d86471d	0.065565325
13	0xbda4a4c4	-0.08039239
14	0xbc97987c	-0.018505327
15	0xbdf0e014	-0.117614895
16	0x3e01eaf5	0.12687285
17	0x3c63f230	0.0139127225
18	0xbceed374	-0.029153563
19	0x3d87ca8b	0.06630429
20	0xbd945fe3	-0.072448514
21	0xbd2dfc31	-0.042476837
22	0x3d7fe4e2	0.06247414
23	0xbdada281	-0.08478261
24	0x3c621f82	0.013801457
25	0x3d3610a1	0.044449452
26	0xbdd6e639	-0.1049313
27	0xbc936d21	-0.017996373
28	0x3d56154f	0.052266415
29	0xbbb223a2	-0.0054363767
30	0xbe01675e	-0.12637088
31	0x3e413b30	0.18870234

layer2.1.weight f4 [32]
0	0x3f655358	0.895803
1	0x3f16909c	0.58814406
2	0x3ec3a677	0.3821294
3	0x3f041517	0.5159468
4	0x3f3c7688	0.73618364
5	0x3f13157e	0.5745467
6	0x3f4a6aaa	0.79069006
7	0x3ea1192f	0.31464526
8	0x3ecb6c05	0.3973085
9	0x3f52df1e	0.823717
10	0x3f25903f	0.6467323
11	0x3f29678a	0.66173613
12	0x3f2a2939	0.6646915
13	0x3f06beeb	0.5263507
14	0x3f08d698	0.53452444
15	0x3f4af0d4	0.79273725
16	0x3f005860	0.5013485
17	0x3ed70bf6	0.42001313
18	0x3f19b464	0.6004088
19	0x3f23f08d	0.64038926
20	0x3f067c92	0.5253383
21	0x3eb85c6d	0.36008015
22	0x3eeeba62	0.46626574
23	0x3ee1b2df	0.4408178
24	0x3f5faaf2	0.87370217
25	0x3ec69ed9	0.38793066
26	0x3f67b434	0.90509343
27	0x3f3a71d0	0.72829914
28	0x3ef25d21	0.47336677
29	0x3f7b800a	0.9824225
30	0x3e5cb83b	0.21554653
31	0x3f018297	0.5058989

layer2.1.bias f4 [32]
0	0x3d9ee95b	0.07759353
1	0xbb4d95ac	-0.003136973
2	0xbc908827	-0.017643047
3	0x3bd31063	0.0064411624
4	0x3dbfb821	0.09361292
5	0xbd7631b1	-0.060105983
6	0xbda45307	-0.08023649
7	0x3d8e99c9	0.06962926
8	0xbe34de2e	-0.1766288
9	0xbd6ca72f	-0.057776626
10	0x3de36cb3	0.11104717
11	0xbdbb1958	-0.09135693
12	0xbc5111df	-0.012760608
13	0xbc12c9ce	-0.008959247
14	0x3e3ea8ce	0.18619081
15	0x3df1f974	0.118151575
16	0x3d99069f	0.07471966
17	0x3d238f49	0.03993157
18	0xbd04039e	-0.032230012
19	0x3c319d37	0.010840706
20	0x3afc4791	0.0019247403
21	0xbda2e1b4	-0.07953206
22	0xbe0cdeb7	-0.13756834
23	0xbd94c887	-0.0726481
24	0x3d2538b3	0.040337276
25	0xbd099fdd	-0.033599723
26	0xbde87d9c	-0.11352083
27	0x3cd4dd8d	0.02598455
28	0x3e82dbd3	0.25558338
29	0xbde1132a	-0.109899834
30	0x3cfd04bb	0.030886045
31	0x3d032c28	0.032024533

layer2.1.running_mean f4 [32]
0	0x3dd1d520	0.102457285
1	0x3df0c12e	0.11755596
2	0x3e36824e	0.17823145
3	0x3d25ea4b	0.040506642
4	0xbdb4eb07	-0.088338904
5	0xbdc82a09	-0.097736426
6	0x3d83dc7d	0.06438539
7	0x3e5561a6	0.20838031
8	0x3d85a8d2	0.065263405
9	0xbda4ee92	-0.08053316
10	0xbd27cb2f	-0.040965255
11	0x3cf50f03	0.029914385
12	0x3e25ab9d	0.16178747
13	0xbd4deb7e	-0.05027341
14	0xbcb976db	-0.022639683
15	0xbdc19c68	-0.0945366
16	0x3e0ed726	0.1394926
17	0x3d88e91d	0.06685088
18	0x3de0f708	0.109846175
19	0x3e3de324	0.18543679
20	0xbd8b077a	-0.067885354
21	0x3d7ad7f0	0.06124109
22	0x3d9cc752	0.07655205
23	0xbd05e3d1	-0.032687966
24	0x3c75b861	0.014997573
25	0x3de73e2a	0.11291154
26	0xbe061c5d	-0.13096757
27	0x3d86804e	0.06567441
28	0x3d3eb83e	0.046562426
29	0xbcc01e3c	-0.023451917
30	0xbd456fee	-0.048202448
31	0x3e4667b0	0.19375491

layer2.1.running_var f4 [32]
0	0x3ace213d	0.0015726459
1	0x3b3ec434	0.0029108645
2	0x3a76933d	0.00094060955
3	0x3ad074dd	0.0015903969
4	0x3af58000	0.0018730164
5	0x3ac7c0e8	0.0015239986
6	0x3ac9b0e3	0.0015387799
7	0x3b161650	0.0022901483
8	0x3b038d77	0.0020073333
9	0x3b0c73b3	0.0021431267
10	0x3aeed17a	0.0018220388
11	0x3b42ee06	0.0029743924
12	0x3b43ebc7	0.0029895173
13	0x3ac807b3	0.0015261084
14	0x3a37242e	0.0006986287
15	0x3b3de7e8	0.0028977338
16	0x3aacd1ff	0.0013185142
17	0x3b33937a	0.0027401135
18	0x3ba2f3da	0.004972917
19	0x3b514761	0.0031933414
20	0x3a8eb666	0.0010888099
21	0x3ba0acf1	0.0049034287
22	0x3b7649d1	0.003758062
23	0x3b0b7637	0.0021280178
24	0x3acebb15	0.0015772308
25	0x3aedcef4	0.0018143342
26	0x3b11a128	0.00222213
27	0x3b304723	0.002689787
28	0x3a2c68c2	0.00065768894
29	0x3b072b64	0.0020625228
30	0x3b2e2b9f	0.0026576293
31	0x3a9617eb	0.001145122

layer3.0.weight f4 [64, 32, 2, 2]
0	0x3c3419a0	0.010992438
1	0xbd249b15	-0.04018696
2	0xbdc77cdb	-0.09740611
3	0xbda8eb8c	-0.08248052
4	0x3d8884ff	0.06665992
5	0x398edc7c	0.00027248624
6	0x3c6c68a2	0.014429243
7	0x3d91da27	0.071216874
8	0x3d9da117	0.07696741
9	0x3c8c486f	0.017124383
10	0x3d64ee06	0.05589106
11	0x3d608ec8	0.054823667
12	0xbc04a758	-0.0080965385
13	0xbe0cdff6	-0.1375731
14	0xbca34e09	-0.019934671
15	0x3dcbd82a	0.099533394
16	0x3c9af5e7	0.018916083
17	0xbd76c08d	-0.060242224
18	0x3e138498	0.14406049
19	0x3d03ca4d	0.03217535
20	0x3dbbb5f5	0.09165565
21	0xbd5ed71c	-0.054404363
22	0xbd87959b	-0.06620332
23	0xbbb8f0b9	-0.0056439308
24	0x3d394390	0.04523045
25	0x3d44a629	0.048010025
26	0xbddb3d51	-0.107050546
27	0xbd3d8af1	-0.046275083
28	0x3d50cee2	0.05097855
29	0x3d6d6e72	0.057966657
30	0x3ddc5356	0.107580826
31	0xb922ba52	-0.00015518934
32	0xbd5e1cae	-0.05422657
33	0xbdd47a18	-0.1037485
34	0xbd99b619	-0.075054355
35	0xbd39c584	-0.04535438
36	0x3d86e0ef	0.065858714
37	0x3ddb7cc9	0.1071716
38	0xbdb70e1c	-0.08938238
39	0xbdc10c0b	-0.09426125
40	0x3d0891e4	0.033342257
41	0xbdd818ba	-0.10551591
42	0x3cc98906	0.02460147
43	0x3dda4a98	0.10658759
44	0x3da2b377	0.079443865
45	0x3dc72698	0.09724158
46	0xbd30d446	-0.04317119
47	0x3c8bf52f	0.017084686
48	0x3d891c65	0.06694869
49	0x3c83f32f	0.01610717
50	0xbd5386b7	-0.051642146
51	0x3da5c9d3	0.080951355
52	0x3db10148	0.086428225
53	0x3d01f96c	0.031732008
54	0x3d8234b0	0.063577056
55	0x3d15cb4d	0.036570836
56	0x3a85c5ab	0.0010206004
57	0xbe3404d8	-0.17579973
58	0xbcb8d4f6	-0.022562485
59	0x3e01f11b	0.1268963
60	0x3d1accb5	0.03779288
61	0xbdeb0232	-0.11475028
62	0xbd663e1a	-0.05621157
63	0xbd8a1538	-0.067423284
64	0x3d131338	0.035907
65	0x3dfde23e	0.12396668
66	0x3c978c60	0.018499553
67	0xbc4047d7	-0.011735878
68	0xbca4f9e8	-0.020138696
69	0xbc3e7d69	-0.01162658
70	0x3c603be1	0.013686151
71	0x3dd35b08	0.10320097
72	0x3d8a9159	0.06766004
73	0xbb084884	-0.0020795176
74	0x3d19a474	0.03751035
75	0xbbbc65c2	-0.005749435
76	0x3c9457da	0.018108297
77	0xbe3f54dd	-0.18684717
78	0xbde7623e	-0.11298035
79	0x3d8ba57f	0.06818675
80	0xbb8f0302	-0.004364372
81	0x3da93301	0.08261681
82	0x3dd2870b	0.10279664
83	0xbd68de23	-0.05685247
84	0x3daf7293	0.08566775
85	0x3dd4aa49	0.10384042
86	0x3d56b9fb	0.05242346
87	0x3d449716	0.04799565
88	0x3dcc506d	0.099762775
89	0x3e0f1b21	0.13975193
90	0x3e05eefc	0.13079447
91	0xbd3a4610	-0.045476973
92	0x3d876c97	0.06612509
93	0x3c616d86	0.013759023
94	0x3ca89139	0.02057706
95	0x3df913e8	0.12162
96	0xbe1f48f9	-0.1555518
97	0xbda74108	-0.081667006
98	0xbcd17295	-0.025567332
99	0xbdff40ec	-0.12463555
100	0x3de4f0b6	0.111787245
101	0x3da03320	0.07822251
102	0x3ddb61f6	0.10712044
103	0x3d927771	0.07151688
104	0xbe1c4ca9	-0.15263619
105	0x3dab371e	0.08360122
106	0xbbec5e0c	-0.0072133597
107	0xbdb1d458	-0.086830795
108	0x3dab0e71	0.08352364
109	0x3d4d91e4	0.05018796
110	0xbd1942c2	-0.03741718
111	0xbbab653d	-0.0052305744
112	0xbc579ee3	-0.01316044
113	0x3e8f4917	0.2798545
114	0x3e52909c	0.20562977
115	0xbd7831f4	-0.060594514
116	0xbe29f470	-0.16597152
117	0xbd029fa2	-0.03189052
118	0xbd0517c8	-0.032493383
119	0xbc4ced04	-0.012507681
120	0x3d409e80	0.047026157
121	0x3dc5e36c	0.09662518
122	0x3ddff63f	0.109356396
123	0xbbc170f5	-0.005903358
124	0x3d308ef5	0.043105084
125	0xbe07d426	-0.13264522
126	0x3bc711b2	0.0060751075
127	0x3dda085f	0.10646128
128	0x3cd16b78	0.02556394
129	0x3e059bf8	0.13047779
130	0xbda3b563	-0.07993581
131	0xbe3d6432	-0.18495253
132	0x3ca0dbd0	0.019636065
133	0x3d251f4c	0.04031305
134	0x3d728c37	0.05921575
135	0x3e212eff	0.15740584
136	0x3db23c43	0.087029
137	0x3e2ff714	0.17184097
138	0x3d4a1d53	0.049344372
139	0x3d425604	0.047445312
140	0xbd9c3d1e	-0.07628845
141	0xbd3cbd36	-0.046078883
142	0xba8efc66	-0.0010908961
143	0x3dbead91	0.09310449
144	0xbd48df06	-0.049040817
145	0xbbbe8d24	-0.005815165
146	0xbd70d88c	-0.058800265
147	0x3d78ed11	0.06077296
148	0x3cc942d0	0.024567991
149	0x3c337d88	0.010955222
150	0x3d20c6f6	0.039252244
151	0xbcd1e52d	-0.025621975
152	0xbd9386e7	-0.07203465
153	0xbde79ea5	-0.11309556
154	0x3c98fb5a	0.018674541
155	0xbdb7f4b9	-0.08982224
156	0xbc0b5637	-0.008504442
157	0x3dda9ddc	0.106746405
158	0x3c8e3cbb	0.017362943
159	0x3c26dad6	0.0101840105
160	0x3d78e602	0.060766228
161	0xbc8f161c	-0.017466597
162	0xbcb2b1b9	-0.02181326
163	0x3d86a85b	0.0657508
164	0x3e0101fd	0.12598415
165	0x3daa22ba	0.08307405
166	0xbd8b0209	-0.067874976
167	0x3c8824f7	0.016619189
168	0x3caf9a0f	0.021435766
169	0xbd8868f6	-0.06660645
170	0x3e13618f	0.14392684
171	0x3c34a53b	0.011025722
172	0x3d8c463d	0.068493344
173	0x3ca84304	0.020539768
174	0xbd9ef980	-0.07762432
175	0xbd3cfc62	-0.04613913
176	0x3d405d43	0.04696394
177	0x3c424ad4	0.011858661
178	0xbcfecfcf	-0.03110495
179	0xbdc9c322	-0.09851672
180	0x3c8ac1c8	0.016938105
181	0x3d1a3d69	0.03765622
182	0x3ddb6c93	0.10714068
183	0xbb5c2dea	-0.0033596703
184	0xbdf13056	-0.117767975
185	0x3de35571	0.11100281
186	0xbd873485	-0.06601814
187	0xbcd517dd	-0.026012355
188	0xbca07f31	-0.0195919
189	0xbcf9fd6a	-0.030516345
190	0xbdaa0d48	-0.083033144
191	0xbe16cfcb	-0.14727704
192	0x3df0b0ae	0.11752449
193	0x3dce13c6	0.10062365
194	0xbde65158	-0.11245984
195	0x3d338f80	0.043838024
196	0xbdacfdd0	-0.084468484
197	0xbd061e99	-0.032744024
198	0x3acc3dd8	0.0015582396
199	0x386491f0	5.449535e-05
200	0x3cd0b37f	0.025476215
201	0x3d2a77b7	0.041618075
202	0x3d192d96	0.03739699
203	0x3e33bab6	0.17551693
204	0x3d853bd9	0.06505556
205	0x3c0186e8	0.007905699
206	0xbb744384	-0.0037271688
207	0xbd95f532	-0.07322158
208	0x3c2a581d	0.010396984
209	0x3d368139	0.04455683
210	0x3d44c140	0.04803586
211	0x3e14d9b9	0.1453618
212	0x3d6cbe21	0.05779851
213	0xbd1a4d7f	-0.037671562
214	0xbbf372e1	-0.007429466
215	0x3d609491	0.054829184
216	0x3de57118	0.112032115
217	0xbd34a08f	-0.044098433
218	0x3cf86936	0.030323606
219	0xbce9aaa0	-0.028523743
220	0xbc8ce701	-0.017199995
221	0xbd72f5e0	-0.059316516
222	0x3d4f8979	0.050668214
223	0xbc8c96a9	-0.017161684
224	0xbd2d8879	-0.04236648
225	0xbd4718c8	-0.048607618
226	0xbd860c97	-0.0654537
227	0x3d6ba239	0.057527754
228	0x3e378dd9	0.17925204
229	0x3d28235d	0.04104935
230	0x3d78da2f	0.06075495
231	0x3da4a753	0.08039727
232	0xbdbd769b	-0.09251138
233	0xbdd33671	-0.10313118
234	0xbdbcc610	-0.09217465
235	0xbdbb2bf9	-0.091392465
236	0xbda9edc3	-0.082973026
237	0x3e06ea24	0.13175255
238	0x3d329933	0.043603133
239	0x3cbe4266	0.02322502
240	0xbdc3d249	-0.09561593
241	0xbd05337d	-0.032519806
242	0x3e05adc3	0.13054566
243	0x3def3c07	0.11681371
244	0xbe3113bf	-0.17292689
245	0xbe2ea38f	-0.1705458
246	0xbdcb033c	-0.09912726
247	0xbe467c67	-0.19383393
248	0xbcef676b	-0.029224118
249	0xbcb6a795	-0.022296706
250	0x3e1c80c2	0.15283492
251	0x3ce793d2	0.028268728
252	0x3d84aee4	0.0647867
253	0x3d337a19	0.043817613
254	0x3cfcf445	0.030878196
255	0xbd220e06	-0.039564155

layer3.0.bias f4 [64]
0	0xbd41aed7	-0.04728588
1	0xbb5e8155	-0.00339516
2	0xbbcf26e0	-0.006321773
3	0x3e450483	0.19240002
4	0x3d547bd5	0.051875908
5	0xbb88b4ac	-0.0041719284
6	0xbb291236	-0.0025798208
7	0x3cb49ac7	0.02204646
8	0x3cb560da	0.022140909
9	0x3de8617e	0.1134672
10	0xbd9b783e	-0.07591294
11	0x3c9a2874	0.018818118
12	0x3c9540a9	0.018219309
13	0xbd2befa9	-0.041976605
14	0x3db5183a	0.088425115
15	0xbd695cdf	-0.056973334
16	0xbd676b6b	-0.056498926
17	0xbc763095	-0.015026231
18	0xbc55cb9a	-0.013049031
19	0x3d5002e3	0.050784003
20	0xbd6b85fc	-0.057500824
21	0x3d94bb29	0.072622605
22	0x3db0630a	0.0861264
23	0x3d754d61	0.059888247
24	0x3d54b102	0.05192662
25	0xbd037baa	-0.032100357
26	0x3c9fe02d	0.019516075
27	0xbe18334f	-0.14863323
28	0x3d07d039	0.03315756
29	0x3d07bd80	0.033139706
30	0x3d9ba548	0.07599884
31	0xbda3069c	-0.07960245
32	0x3d61cdd9	0.055127952
33	0x3d2e4df5	0.042554814
34	0xbd925a86	-0.07146172
35	0xbceecd78	-0.02915071
36	0x3d54df4e	0.051970772
37	0xbc89f4d3	-0.016840374
38	0xbe33ca3f	-0.1755762
39	0x3cd4138a	0.025888223
40	0xbd1127ae	-0.035438232
41	0x3d7d2016	0.061798178
42	0x3e13e05d	0.14441057
43	0x3d938bd7	0.07204407
44	0x3e304010	0.17211938
45	0xbd1eb187	-0.038743522
46	0xbc3c1210	-0.011478916
47	0xbdb05c62	-0.086113706
48	0xba2b9932	-0.000654596
49	0x3ce503cc	0.027955912
50	0xbd8fe4a8	-0.070260346
51	0xbd7e50a5	-0.062088627
52	0x3e0cc8fc	0.13748544
53	0x3e60b4fb	0.21944039
54	0x3d055393	0.032550406
55	0xbca307a5	-0.019901106
56	0xbe3c2d4f	-0.18376659
57	0x3d9dcf2d	0.07705531
58	0x3de7a4cf	0.113107316
59	0x3ddce3c4	0.1078563
60	0xbd8c13dd	-0.06839726
61	0x3dc99560	0.09842944
62	0xbdb671b1	-0.08908404
63	0xbbdf8336	-0.0068210615

layer3.1.weight f4 [64]
0	0x3f67ac39	0.90497166
1	0x3ec99de7	0.39378282
2	0x3eba9a8f	0.36446044
3	0x3f5bec67	0.85907596
4	0x3ee84edd	0.45372668
5	0x3f3ee5c0	0.7456932
6	0x3f52e966	0.8238739
7	0x3f6604ef	0.8985128
8	0x3f341c93	0.703561
9	0x3f13637a	0.57573664
10	0x3f325e90	0.6967554
11	0x3f08701c	0.53296065
12	0x3ef3d439	0.4762285
13	0x3f28dc7b	0.65961426
14	0x3eda010d	0.42578927
15	0x3f5d4948	0.86439943
16	0x3f1ca0c2	0.61182797
17	0x3f188e0b	0.5959174
18	0x3ee60bc3	0.44930848
19	0x3f6b3612	0.9187938
20	0x3f80797d	1.0037075
21	0x3f8f7609	1.1207896
22	0x3f6b6d93	0.9196407
23	0x3f1cba27	0.61221546
24	0x3f72a2bc	0.9477956
25	0x3f0d776a	0.55260336
26	0x3f795044	0.973881
27	0x3f21e524	0.63240266
28	0x3f575a01	0.8412171
29	0x3f0c5d01	0.5482941
30	0x3f3ec8fc	0.7452543
31	0x3f273ee0	0.65330315
32	0x3f1a4794	0.6026547
33	0x3f5cf010	0.86303806
34	0x3f07baa3	0.5301916
35	0x3f1e8c52	0.6193286
36	0x3f716861	0.94299895
37	0x3ef1d791	0.47234777
38	0x3f4a0fe2	0.78930485
39	0x3f6ba123	0.9204275
40	0x3f20d564	0.6282561
41	0xbec23d10	-0.37937212
42	0x3f0de2dd	0.5542429
43	0x3f398cab	0.7248027
44	0x3f15321e	0.582796
45	0x3f51d01c	0.81958175
46	0x3f6eaef1	0.9323569
47	0x3f057a17	0.5213942
48	0x3ee20843	0.44146928
49	0x3ed1baca	0.4096282
50	0x3f4a03fb	0.78912324
51	0x3f569012	0.83813584
52	0x3f266c03	0.6500856
53	0x3f221a5d	0.6332148
54	0x3f3195e2	0.6936933
55	0x3ec6d3aa	0.38833362
56	0x3f6821d0	0.90676594
57	0x3f431ade	0.7621287
58	0x3f6371f6	0.88845766
59	0x3edefc70	0.4355197
60	0x3f236f07	0.6384129
61	0x3f0dd96e	0.55409896
62	0x3f45206f	0.77002615
63	0x3f105a46	0.56387746

layer3.1.bias f4 [64]
0	0xbd89aba5	-0.06722192
1	0xbe70443e	-0.23463532
2	0xbe93d970	-0.2887683
3	0x3ba4e4d8	0.005032163
4	0xbe81d425	-0.25357166
5	0xbd989341	-0.074499615
6	0xbd80b834	-0.06285134
7	0xbdd8f870	-0.10594261
8	0xbb8fc866	-0.004387903
9	0x3db0b862	0.08628918
10	0xbc73fd8e	-0.014891995
11	0xbddccc79	-0.107811876
12	0xbe58954c	-0.21150702
13	0xbda8a654	-0.082348496
14	0xbe9787f5	-0.29595914
15	0xbd43ca5b	-0.047800403
16	0x3e2714c4	0.16316515
17	0x3dce8bf2	0.10085286
18	0xbe981629	-0.29704407
19	0xbddcb0e5	-0.107759275
20	0x3db85744	0.090010196
21	0x3d19c3c5	0.037540216
22	0x3e0f1337	0.13972174
23	0xbe41b189	-0.1891538
24	0xbd207c5e	-0.039181106
25	0xbe7ed5ea	-0.24886289
26	0xbe2d6d5c	-0.16936249
27	0x3d854461	0.06507183
28	0xbcea9f27	-0.028640343
29	0x3d86c06c	0.0657967
30	0x3e1326fd	0.14370342
31	0x3da2875c	0.07935974
32	0xbde47707	-0.11155515
33	0xbe578e17	-0.21050297
34	0xbe4af037	-0.19818197
35	0x3af4523e	0.0018640233
36	0xbd0f54e8	-0.034993082
37	0xbe72f102	-0.2372475
38	0x3e143928	0.14474928
39	0x3d12cd95	0.03584059
40	0x3de3cf89	0.111235686
41	0xbe8979f3	-0.26850852
42	0xbe77c22d	-0.24195166
43	0x3e899ac2	0.26875883
44	0x3b34fe75	0.0027617489
45	0xbda27659	-0.07932729
46	0x3c17fffb	0.009277339
47	0xbdac0011	-0.0839845
48	0xbe0e844b	-0.13917653
49	0xbeffb7d5	-0.4994494
50	0x3e5e1afd	0.21689983
51	0x3c4ccec0	0.012500465
52	0x3e0d26ee	0.13784382
53	0x3df90581	0.12159253
54	0x3dd956f9	0.10612292
55	0xbe1b4d3d	-0.15166183
56	0xbdfa41eb	-0.12219604
57	0x3cfcc53f	0.030855773
58	0xbdb552b2	-0.088536635
59	0xbeb4959f	-0.35270402
60	0x3deb2da0	0.11483312
61	0xbe821c35	-0.25412145
62	0x3dd58d86	0.10427384
63	0xbe3b9607	-0.1831895

layer3.1.running_mean f4 [64]
0	0xbc70ee26	-0.0147052165
1	0x3b12a275	0.0022374664
2	0x3cae89b7	0.021305902
3	0x3e620792	0.220732
4	0x3d3583af	0.044315036
5	0x3b3da95f	0.0028940064
6	0x3c38e77e	0.011285661
7	0x3df706fe	0.120618805
8	0x3cb8f46f	0.022577493
9	0x3de7590e	0.11296283
10	0xbd8ad733	-0.06779327
11	0x3d1019af	0.035180744
12	0xbbe2e70f	-0.006924517
13	0xbce63c9d	-0.028105075
14	0x3de7acfc	0.11312291
15	0xbdf2d200	-0.118564606
16	0xbd17894e	-0.03699618
17	0xbcd1775a	-0.025569607
18	0xbb5395f5	-0.0032285426
19	0x3d6c7696	0.05773028
20	0xbd6b676a	-0.05747167
21	0xbd96a2ac	-0.07355246
22	0x3dd422e7	0.103582196
23	0x3d8e7424	0.06955746
24	0x3d7d8a76	0.061899625
25	0xbd74d15e	-0.05976998
26	0x3cc80a48	0.024418965
27	0xbe1c7198	-0.15277708
28	0x3d8bdb8c	0.068289846
29	0x3d204c09	0.039135013
30	0x3dac518e	0.08413993
31	0xbd943ecd	-0.07238541
32	0x3d7ba598	0.06143722
33	0x3d9a5fa2	0.07537772
34	0xbd8a6ea2	-0.06759383
35	0xbd0ccc3b	-0.034374457
36	0x3d8f1990	0.069872975
37	0xbbb3407c	-0.0054703336
38	0xbe34f153	-0.17670183
39	0x3d48fa02	0.04906655
40	0x3b4591f6	0.0030146814
41	0x3d8406e1	0.064466245
42	0x3e0d9f46	0.13830289
43	0x3db31eec	0.08746132
44	0x3e38b3ee	0.18037388
45	0xbcda8cd3	-0.026678478
46	0x3b67d87c	0.0035376837
47	0xbd988253	-0.07446732
48	0x3c63a336	0.013893893
49	0x399c221b	0.0002978005
50	0xbd22bbfc	-0.039730057
51	0xbd61a9db	-0.055093627
52	0x3e14ebcb	0.14543073
53	0x3e682a0c	0.2267229
54	0x3d35a8b8	0.044350356
55	0xbc26f60b	-0.010190497
56	0xbe31719a	-0.17328492
57	0x3dc28c72	0.09499444
58	0x3e0881cd	0.13330765
59	0x3dd24771	0.102675326
60	0xbd5a7aa4	-0.053339615
61	0x3e0eb2c6	0.13935384
62	0xbdb66603	-0.08906176
63	0xbb942394	-0.004520843

layer3.1.running_var f4 [64]
0	0x3b3f73c5	0.002921329
1	0x3b511dba	0.0031908588
2	0x3b0e10cd	0.0021677495
3	0x3af16253	0.0018416144
4	0x3acc1665	0.0015570639
5	0x3ab7a443	0.0014010746
6	0x3af0a4eb	0.0018359696
7	0x3b861c97	0.0040927636
8	0x3af859b9	0.0018947638
9	0x3adf082b	0.0017015984
10	0x3ac84bde	0.0015281399
11	0x3ad4058a	0.0016175967
12	0x3bae251b	0.005314482
13	0x3ab9f811	0.001418831
14	0x3b893c4a	0.004188095
15	0x3b724f31	0.0036973471
16	0x3ae6f5ad	0.0017620825
17	0x3b07f1ec	0.0020743562
18	0x3ae56e24	0.0017504138
19	0x3af8687b	0.0018952036
20	0x3ac259a7	0.0014827744
21	0x3c3c60cc	0.011497688
22	0x3b04f22e	0.0020285952
23	0x3b251d44	0.0025194446
24	0x3b210472	0.00245693
25	0x3ba075c7	0.0048968527
26	0x3ab495eb	0.0013777589
27	0x3b00575e	0.0019583325
28	0x3ac68ccc	0.0015148162
29	0x3aceb11d	0.0015769337
30	0x3ae22146	0.0017252348
31	0x3afdd1f8	0.0019364944
32	0x3afdcdda	0.0019363717
33	0x3ac58ae6	0.0015071302
34	0x3a91e8f6	0.001113205
35	0x3a76de40	0.0009417273
36	0x3b1b6eac	0.0023717089
37	0x3add80c8	0.0016899342
38	0x3ab3ec98	0.0013727127
39	0x3b0db273	0.0021621257
40	0x3b051423	0.0020306192
41	0x3ab652d9	0.0013910189
42	0x3b7f1693	0.0038923367
43	0x3aefd2e8	0.0018297108
44	0x3a8fba8d	0.0010965631
45	0x3afd82e3	0.0019341375
46	0x3b59d3fe	0.003323793
47	0x3aa66fe8	0.0012698146
48	0x3ad0030e	0.0015870051
49	0x3b7a8704	0.0038227448
50	0x3ae46837	0.0017426078
51	0x3b057061	0.0020361173
52	0x3b0324a3	0.002001085
53	0x3aaed269	0.0013337854
54	0x3ab07c8e	0.0013464855
55	0x3b2326f6	0.0024895049
56	0x3af1cb88	0.0018447498
57	0x3acd6bfd	0.0015672442
58	0x3b125717	0.0022329742
59	0x3b84e90e	0.0040561026
60	0x3abfa43f	0.0014621093
61	0x3b16ba97	0.00229994
62	0x3af61e97	0.0018777427
63	0x3b88ad9d	0.004171087

layer4.0.weight f4 [128, 64, 2, 2]
0	0x3d4f02cb	0.050539773
1	0x3cdd10e5	0.026985595
2	0x3d88d2a7	0.06680804
3	0xbd2fe420	-0.042942166
4	0x3c056bb8	0.008143358
5	0xbc017fd6	-0.007904014
6	0x3c87217c	0.016495459
7	0xbcc308a1	-0.023807826
8	0xbd999583	-0.0749922
9	0xbd8542f7	-0.06506913
10	0x3d9a0278	0.07520002
11	0xbbbd07b0	-0.0057687387
12	0x3e1f8f4b	0.15582006
13	0x3d8cdcbd	0.0687804
14	0xbe4bc1d5	-0.1989816
15	0xbda54f56	-0.08071773
16	0xbda61778	-0.08109945
17	0xbdbdf2da	-0.09274836
18	0x3ddd051d	0.10791991
19	0x3c8afb8d	0.016965652
20	0x3cae56f9	0.021281706
21	0xbdf8c662	-0.121472135
22	0x3d03f71e	0.03221809
23	0xbdb303b9	-0.087409444
24	0xbd32014d	-0.04345827
25	0x3d3928fd	0.045205105
26	0x3e59ea19	0.21280707
27	0xbb8cf26c	-0.00430136
28	0x3dec1acf	0.11528551
29	0xbd7359b8	-0.059411734
30	0xbca5a884	-0.020221956
31	0xbd934d35	-0.071924604
32	0x3d9719dc	0.07377979
33	0xbd9d9cd1	-0.07695926
34	0xbc0d4627	-0.008622683
35	0xbd0687d2	-0.032844372
36	0xbdfec00a	-0.12438972
37	0xbdc1a50c	-0.09455308
38	0x3cf85002	0.030311588
39	0xbdb62e0c	-0.088955015
40	0x3dc6ab39	0.09700627
41	0xbda78b41	-0.081808574
42	0xbe00d61e	-0.12581679
43	0xbe100dcd	-0.14067765
44	0x3dbb8304	0.091558486
45	0xbcf02a88	-0.029317155
46	0x3dc30c65	0.095238484
47	0xbdaf2b7c	-0.08553216
48	0xbc325ed6	-0.010886868
49	0x3c387e26	0.011260545
50	0xbc33ce30	-0.010974452
51	0xbdc46b34	-0.0959076
52	0xbc8abcbb	-0.016935697
53	0xbdf55c40	-0.11980486
54	0x3d831a88	0.06401545
55	0xbddab6f9	-0.106794305
56	0xbb7348e4	-0.0037122304
57	0xbcb4c34b	-0.02206578
58	0xbc494663	-0.012284848
59	0x3c7b96c0	0.015355766
60	0x3c84bcb5	0.016203264
61	0xbdb3aab1	-0.08772791
62	0xbe8b1b15	-0.271691
63	0x3cfa2d14	0.030539073
64	0xbd9b5fce	-0.07586633
65	0xbc9ff2bf	-0.01952493
66	0x3d891049	0.06692559
67	0x3d5786d4	0.052618816
68	0xbdc2e972	-0.095171824
69	0xbd892b29	-0.06697685
70	0xbd97e39b	-0.07416459
71	0xbdad3275	-0.084568895
72	0xbc750827	-0.014955557
73	0xbd9cf28f	-0.07663452
74	0xbc087b8f	-0.00833024
75	0xbd6d8f8c	-0.057998225
76	0x3d1e51fd	0.03865241
77	0x3d44908c	0.047989413
78	0xbdae9d78	-0.085261285
79	0x3d69a438	0.057041377
80	0x3ddd95d9	0.10819597
81	0x3e1e01f6	0.15430436
82	0x3d7fd9da	0.06246362
83	0x3da5d556	0.08097331
84	0xbab1edac	-0.001357486
85	0x3d8adcfb	0.0678043
86	0xbd84e5ae	-0.064891204
87	0xbdfb4726	-0.1226943
88	0x3cf1ed0b	0.029531976
89	0xbde484cd	-0.11158142
90	0x3beaa8a1	0.0071612154
91	0xbca40a1e	-0.020024356
92	0x3d335811	0.04378516
93	0xbd0b9b31	-0.03408355
94	0x3d753ed9	0.05987439
95	0x3bb4c962	0.0055171708
96	0x3e06e4c3	0.13173203
97	0x3ddc47ee	0.10755907
98	0x3dbf6c6b	0.09346851
99	0x3db62ba0	0.088950396
100	0x3caf0471	0.021364423
101	0x3d2b3a9c	0.04180394
102	0x3cdf0999	0.027226256
103	0xbd835b8c	-0.064139456
104	0x3d549085	0.051895637
105	0x3d95b5f5	0.07310096
106	0xbe2adbcc	-0.16685408
107	0xbe0a9a13	-0.13535337
108	0x3dcceda6	0.10006265
109	0xbe305b64	-0.17222363
110	0x3c73207c	0.014839288
111	0xbe3b33c1	-0.18281461
112	0x3c1d585b	0.009603585
113	0x3a8f5a4c	0.0010936945
114	0x3d81abde	0.06331609
115	0x3cb8f4c2	0.022577647
116	0xbdef452c	-0.11683115
117	0x3d5d3c50	0.054012597
118	0xbe183270	-0.1486299
119	0xbe80922b	-0.25111517
120	0xbd94d284	-0.07266715
121	0x3ca01d30	0.019545168
122	0xbcb11b23	-0.021619385
123	0xbca59da9	-0.02021678
124	0x3e23d16b	0.15997855
125	0x3de6dbac	0.11272368
126	0xbdbd27fa	-0.092361405
127	0xbde30f43	-0.11086895
128	0xbd76f106	-0.06028845
129	0x3d1edf19	0.03878698
130	0x3d9f0fd6	0.07766692
131	0x3d5c75df	0.053823348
132	0xbd8a26f9	-0.06745715
133	0x3ce24dee	0.02762505
134	0xbda0648f	-0.0783168
135	0x3d0cfcd8	0.034420818
136	0x3bd0a092	0.0063667977
137	0x3ceb3a61	0.02871436
138	0x3daa0caf	0.083032005
139	0xbdd11ce6	-0.1021059
140	0xbd9e0988	-0.07716662
141	0x3c5dcf5e	0.01353821
142	0xbd59fb07	-0.053217914
143	0xbda280db	-0.079347335
144	0x3d811fc9	0.06304891
145	0xbd791f95	-0.060821135
146	0x3df4e38a	0.11957462
147	0xbc9a14e4	-0.01880879
148	0x3bd68ada	0.006547314
149	0xbd923223	-0.07138469
150	0x3d4a33ba	0.049365737
151	0x3e0ca89f	0.13736199
152	0xbda18493	-0.07886615
153	0xbd1906a3	-0.037359845
154	0xbd1bb95e	-0.038018577
155	0xbd9a3650	-0.075298905
156	0xbd91d801	-0.071212776
157	0xbd53b17c	-0.051682934
158	0xbc1e7254	-0.009670813
159	0xbcf19d09	-0.029493826
160	0x3c3cadf9	0.011516088
161	0xbd42bd28	-0.047543675
162	0x3ded08a7	0.11573916
163	0x3da34279	0.07971663
164	0xbd5e7a58	-0.054315895
165	0xbd311577	-0.04323336
166	0x3dc44624	0.09583691
167	0x3d08154b	0.03322343
168	0xbda40c74	-0.08010188
169	0xbb621832	-0.0034499285
170	0xbbb5301a	-0.005529416
171	0xbd8e6f41	-0.06954814
172	0x3e48eecd	0.19622345
173	0xbc0824b8	-0.008309536
174	0x3e3edb2f	0.186383
175	0x3e510eeb	0.20415847
176	0x3d9de245	0.07709173
177	0x3c931e6d	0.017958844
178	0xbcdca727	-0.026935173
179	0x3d79d469	0.060993586
180	0xbdc94bc0	-0.09828901
181	0x3ca1ad69	0.019736009
182	0x3e01f76f	0.12692045
183	0x3e4ae1ae	0.19812652
184	0xbe45e9b1	-0.19327427
185	0xbbdc400b	-0.0067215017
186	0xbdc8f7f0	-0.09812915
187	0x3e49137e	0.19636342
188	0x3c0b3826	0.008497274
189	0xbddb30fc	-0.107027024
190	0xbc8fb5a0	-0.01754266
191	0x3e5c2d7b	0.21501724
192	0x3c342b4a	0.010996649
193	0xbcd97b01	-0.02654791
194	0x3e36f479	0.17866696
195	0xbd011347	-0.031512525
196	0xbddfcef2	-0.109281436
197	0x3cb14695	0.021640101
198	0x3d37c665	0.04486694
199	0xbd850f26	-0.0649703
200	0xbc9442b0	-0.018098205
201	0xbd22b914	-0.039727286
202	0x3d8695a4	0.065715104
203	0x3de90378	0.11377615
204	0xbde50255	-0.111820854
205	0xbdb964a4	-0.09052399
206	0x3da74e97	0.08169287
207	0xbbb0a3ef	-0.005390636
208	0xbdd13733	-0.102156065
209	0xbe33af27	-0.17547284
210	0x3b8615a3	0.0040919348
211	0x3df84e28	0.12124282
212	0x3da67e94	0.081296116
213	0xbe580afd	-0.21097942
214	0xb9543fca	-0.00020241659
215	0x3dd52f58	0.10409421
216	0x3c1b5884	0.009481553
217	0xbd89f63e	-0.0673642
218	0x3c95e502	0.018297676
219	0x3cccb164	0.02498693
220	0xbbf9a5c9	-0.00761864
221	0xbd26994d	-0.040673543
222	0xbca0569b	-0.019572547
223	0xbce5daf8	-0.028058514
224	0x3d6a6faa	0.057235397
225	0xbc2cea5c	-0.0105539225
226	0xbccd71e3	-0.02507872
227	0x3dee4f58	0.11636227
228	0x3e1ef817	0.15524326
229	0x3e40d1a0	0.18829966
230	0xbb0e34f3	-0.002169904
231	0x3cbe5803	0.023235327
232	0x3d988e2d	0.07448993
233	0xbd9898bd	-0.074510075
234	0xbdd20349	-0.10254533
235	0x3dd4737e	0.10373591
236	0xbcd3ba00	-0.025845528
237	0xbc1a5b7e	-0.0094212275
238	0x3d0d398e	0.034478717
239	0xbd8ab3d3	-0.0677258
240	0xbde08b69	-0.109640904
241	0xbdb98532	-0.09058608
242	0x3e45901d	0.19293256
243	0xbda0e162	-0.07855488
244	0x3c2555ff	0.010091304
245	0xbca720f9	-0.020401465
246	0xbd4c7350	-0.049914658
247	0x3c9551f8	0.018227562
248	0xbbf50ea5	-0.0074785524
249	0x3c9b63b2	0.018968437
250	0xbcc66220	-0.024216712
251	0x3deec0a7	0.11657839
252	0x3c09692d	0.008386892
253	0x3bfd1ca9	0.007724364
254	0xbd0cdd7d	-0.034390915
255	0x3c58bcbe	0.013228593

layer4.0.bias f4 [128]
0	0x3bb625e8	0.005558718
1	0x3dada3e2	0.08478524
2	0x3d279905	0.040917415
3	0x3d95165b	0.072796546
4	0xbd15a2dd	-0.03653227
5	0xbce00c9b	-0.02734976
6	0xbd0337b9	-0.032035563
7	0xbdb71062	-0.08938672
8	0x3d7c0fb6	0.06153842
9	0x3d3589f0	0.044321
10	0xbd1e63ce	-0.0386694
11	0xbacd5bf6	-0.0015667665
12	0xbd748fbb	-0.059707385
13	0xbd5d6280	-0.054049015
14	0xbcd80898	-0.026371285
15	0xbd7e6381	-0.062106613
16	0x3c1da598	0.009622
17	0x3d2ea940	0.042641878
18	0x3caf854a	0.021425862
19	0x3c9095ff	0.017649649
20	0xbd041ca7	-0.032253888
21	0x3c15d182	0.009144189
22	0xbca12d33	-0.019674873
23	0xbd534da2	-0.05158771
24	0xbc67ebaa	-0.014155308
25	0xbbc6fb4c	-0.0060724374
26	0xbd92e81b	-0.07173177
27	0x3c15abfb	0.009135242
28	0x3dc7bf87	0.09753328
29	0xbcde0db1	-0.027106138
30	0xbdcae63b	-0.09907194
31	0xbb8569a8	-0.004071433
32	0xbc55a9dc	-0.013040986
33	0x3c259fa5	0.010108863
34	0x3d2d8510	0.042363226
35	0x3ded702f	0.11593663
36	0x3e31811f	0.17334412
37	0x3db5d75b	0.088789664
38	0x3cc22b1d	0.023702199
39	0x3d80801b	0.06274434
40	0x3ceea2e4	0.029130407
41	0xbccb48d5	-0.024815002
42	0x3e140b96	0.14457545
43	0xbcf6bfe9	-0.030120807
44	0xbd3f8031	-0.046753112
45	0xbcf876a0	-0.030330002
46	0xbd7a73bb	-0.061145525
47	0x3c526206	0.012840753
48	0x3c4eeb23	0.012629303
49	0xbb78af06	-0.003794612
50	0xbd540953	-0.051766705
51	0xbd4b9c99	-0.04970989
52	0xbd4ad8e1	-0.049523238
53	0xbc8188f4	-0.015812375
54	0xbc573c88	-0.01313699
55	0x3d3abd87	0.045590904
56	0xbdee0c60	-0.11623454
57	0xbdc0a577	-0.0940656
58	0x3e10a097	0.1412376
59	0xbddc10c9	-0.10745389
60	0x3c8110cd	0.015755082
61	0x3cfbae0a	0.030722637
62	0xbd07851c	-0.033085927
63	0x3e14056a	0.1445519
64	0xbe351ead	-0.17687483
65	0x3de4ad5b	0.111658774
66	0xbbf57eb1	-0.0074919094
67	0x3d9ed864	0.07756117
68	0xbc8677c3	-0.016414529
69	0x3d8d8a0a	0.069110945
70	0x3c698bc5	0.014254515
71	0xba818612	-0.0009881875
72	0x3acbf581	0.0015560837
73	0x3c7df0d0	0.015499309
74	0xbc033c68	-0.008010007
75	0x3d7506e5	0.05982103
76	0xbe1344ee	-0.14381763
77	0xbb2b4f9a	-0.0026139976
78	0x3d2fcae6	0.04291811
79	0xb80633e4	-3.1996417e-05
80	0xbc097803	-0.008390429
81	0xbd4c15be	-0.049825422
82	0xbd051bc0	-0.032497168
83	0xbc0a983a	-0.008459145
84	0x3c94d168	0.018166259
85	0x3dd3e5e3	0.10346582
86	0x3dba9017	0.09109514
87	0x3e1de144	0.15417963
88	0xbd73eb9b	-0.059550863
89	0x3c550f9b	0.013004209
90	0x3d747a73	0.05968709
91	0x3da12623	0.07868602
92	0x3ddd8699	0.10816688
93	0x3bec114b	0.00720421
94	0x3e45b60c	0.19307727
95	0x3d73e35b	0.059542995
96	0xbda9704b	-0.08273371
97	0x3bdf9a95	0.0068238475
98	0xbcee019e	-0.029053506
99	0xbd52db56	-0.051478706
100	0xbcb6dc69	-0.022321897
101	0x3d6c2b48	0.057658464
102	0xbd086736	-0.033301555
103	0xbb5dd46f	-0.0033848544
104	0x3da8e0f6	0.08246033
105	0xbb1bd518	-0.0023778137
106	0xbdab4b1f	-0.083639376
107	0x3d2294e8	0.03969279
108	0x3c9051c3	0.017617112
109	0x3c235611	0.00996925
110	0xbca19c7a	-0.019727934
111	0x3d8b5a58	0.06804341
112	0x3e33e85c	0.17569107
113	0xbd77d8ac	-0.06050937
114	0xbcdcb8b9	-0.026943551
115	0x3dc5dba5	0.096610345
116	0xbd243d78	-0.040097684
117	0x3db0f6af	0.08640801
118	0xbdf0e898	-0.11763114
119	0x3c2415ff	0.01001501
120	0xbd12e864	-0.035866156
121	0xbdf8a4c0	-0.121407986
122	0xbca6ab89	-0.020345466
123	0xbcf274d6	-0.029596727
124	0xbdd1a78f	-0.102370374
125	0x3d536eb9	0.051619265
126	0x3c4d89f5	0.012545099
127	0x3d23a710	0.039954245

layer4.1.weight f4 [128]
0	0x3f2418ee	0.6410054
1	0x3f2cf027	0.67553943
2	0x3f2659b9	0.64980656
3	0x3f019391	0.50615793
4	0x3f246346	0.6421398
5	0x3f1170de	0.56812847
6	0x3f68d423	0.90948695
7	0x3f08931b	0.53349465
8	0x3efb2cca	0.4905761
9	0x3efdbf47	0.49559996
10	0x3f375e7e	0.7162856
11	0x3f4ccfd4	0.8000462
12	0x3f79a212	0.97512925
13	0x3f232f5a	0.6374413
14	0x3f5a1661	0.851904
15	0x3f4b8b82	0.7950975
16	0x3f16c6f4	0.5889733
17	0x3f12ea63	0.57388896
18	0x3f358035	0.70898753
19	0x3f1e90db	0.6193978
20	0x3f5fe54d	0.8745926
21	0x3f316b24	0.6930411
22	0x3f2238f2	0.6336814
23	0x3f2162b3	0.6304123
24	0x3f2c6202	0.6733705
25	0x3f151274	0.5823128
26	0x3f13f0a8	0.5778909
27	0x3f2028c1	0.62562186
28	0x3f1f9d88	0.6234975
29	0x3f1543dd	0.58306676
30	0x3f2a78cc	0.6659057
31	0x3f2a978e	0.66637504
32	0x3f5a5601	0.8528748
33	0x3f06577a	0.5247723
34	0x3f22d0cd	0.63599855
35	0x3f3eca80	0.7452774
36	0x3f5f2314	0.871629
37	0x3f4614ec	0.77375674
38	0x3f2b6f7e	0.66967
39	0x3f2399d7	0.63906616
40	0x3f6b3288	0.9187398
41	0x3f1574cc	0.5838134
42	0x3f3d365b	0.73911065
43	0x3f1c078f	0.60949033
44	0x3f20078d	0.6251152
45	0x3f16e3c1	0.58941275
46	0x3f0858af	0.5326032
47	0x3f0497b1	0.5179396
48	0x3f50b475	0.81525356
49	0x3f303cdf	0.6884288
50	0x3f32ca3d	0.6983984
51	0x3f0a2c17	0.53973526
52	0x3eef3ba8	0.46725202
53	0x3f103d8a	0.563439
54	0x3f2e7d5c	0.68160033
55	0x3f7b669e	0.98203456
56	0x3f179de4	0.59225297
57	0x3f1d3ba4	0.6141913
58	0x3f4d29c5	0.8014186
59	0x3f847888	1.0349283
60	0x3f1aa84a	0.6041304
61	0x3f32f250	0.6990099
62	0x3f2ba8df	0.6705455
63	0x3f42a05c	0.7602594
64	0x3f2047a8	0.6260934
65	0x3f102fd7	0.56323
66	0x3f5a0279	0.8516002
67	0x3f136642	0.5757791
68	0x3f0c2a62	0.5475217
69	0x3f1805e3	0.5938398
70	0x3f733cb9	0.9501453
71	0x3f0e681c	0.5562761
72	0x3f483ee2	0.7822095
73	0x3f0e4f07	0.55589336
74	0x3f167283	0.5876848
75	0x3f3cb464	0.73712754
76	0x3f56ea87	0.8395161
77	0x3f376dfc	0.716522
78	0x3f097541	0.5369454
79	0x3f20b5b9	0.62777287
80	0x3f11ec82	0.5700151
81	0x3f4a12a2	0.7893468
82	0x3f11ca77	0.5694956
83	0x3f156ad3	0.58366126
84	0x3f1f3934	0.6219666
85	0x3f77cf4b	0.9680068
86	0x3f3a2b87	0.7272267
87	0x3f533bd7	0.82513183
88	0x3f09c2db	0.5381295
89	0x3f268bcb	0.6505706
90	0x3f11287f	0.5670242
91	0x3f00c532	0.50300896
92	0x3f228028	0.634768
93	0x3f15e7f4	0.5855706
94	0x3f37ff71	0.7187415
95	0x3f106461	0.56403166
96	0x3f200ae0	0.62516594
97	0x3f1e64e5	0.618727
98	0x3f134591	0.57528025
99	0x3f78d8c6	0.9720577
100	0x3f1dd96a	0.6165987
101	0x3f28cdb8	0.659389
102	0x3f1dfb0d	0.617112
103	0x3f09bfb1	0.5380812
104	0x3f28c530	0.65925884
105	0x3f6d65a0	0.9273319
106	0x3f15a254	0.5845082
107	0x3f737a40	0.95108414
108	0x3f2da105	0.6782382
109	0x3f64184d	0.8909958
110	0x3f7f31aa	0.99685156
111	0x3ef398ff	0.47577664
112	0x3f5f9595	0.8733762
113	0x3f61f002	0.8825685
114	0x3f17c03a	0.5927769
115	0x3f1dc668	0.6163087
116	0x3f0dd70f	0.5540628
117	0x3f2551d0	0.6457796
118	0x3f35f137	0.7107119
119	0x3f044ca0	0.5167942
120	0x3f55a6df	0.8345775
121	0x3f1202a8	0.57035303
122	0x3f25d7b5	0.6478227
123	0x3f103c12	0.5634166
124	0x3f21e7a5	0.63244087
125	0x3f0b2bbc	0.5436361
126	0x3f2a8877	0.6661448
127	0x3f0db6fd	0.5535734

layer4.1.bias f4 [128]
0	0x3e11dbda	0.14244023
1	0xbe9463f8	-0.2898252
2	0xbe8e67b4	-0.27813494
3	0xbdc2f068	-0.0951851
4	0xbe873364	-0.26406395
5	0xbc8e75fe	-0.017390247
6	0xbdb2cbd8	-0.08730286
7	0xbdef9334	-0.11697999
8	0xbd01f77c	-0.03173016
9	0xbe4f8aa6	-0.20267734
10	0x3dab0b99	0.083518215
11	0xbe0296c7	-0.1275283
12	0xbdeae610	-0.11469662
13	0xbd55e16c	-0.052216932
14	0xbe9a65fb	-0.3015593
15	0xbd8a055b	-0.06739303
16	0x3dce8dce	0.10085641
17	0xbe820ab4	-0.2539879
18	0x3d8560f1	0.06512631
19	0xbd345643	-0.044027578
20	0xbe23ce17	-0.15996586
21	0xbd1b01a5	-0.037843365
22	0x3ce7de7b	0.02830433
23	0x3c8aa935	0.016926387
24	0xbdba6819	-0.09101886
25	0x3cf0b057	0.02938096
26	0xbef5c417	-0.48001167
27	0xbd580515	-0.05273922
28	0xbcb82870	-0.02248022
29	0xbcd67515	-0.026178876
30	0xbd4ab40b	-0.04948811
31	0xbe504ca1	-0.20341732
32	0xbd775276	-0.060381375
33	0xbecf1af4	-0.4045025
34	0x3d9a12f3	0.075231455
35	0xbd85c80c	-0.065322965
36	0xbe2461c5	-0.16052921
37	0x3b493941	0.0030704292
38	0xbebf1be4	-0.37325966
39	0xbdd3e961	-0.10347248
40	0xbdb2cf3f	-0.08730935
41	0xbea184a6	-0.31546515
42	0x3deffdc5	0.117183246
43	0xbe899663	-0.26872548
44	0xbdadace5	-0.08480243
45	0xbe763a52	-0.24045685
46	0x3e3bf9de	0.18357036
47	0xbe46415b	-0.19360869
48	0xbc4ecac0	-0.012621582
49	0x3dfecbf7	0.12441247
50	0xbe02f708	-0.12789547
51	0xbebcad7e	-0.36851114
52	0xbedd44be	-0.4321651
53	0x3b52dc33	0.0032174706
54	0xbe3540f1	-0.17700554
55	0xbd9e5543	-0.07731106
56	0xbc91606d	-0.017746175
57	0x3d5630af	0.052292522
58	0xbda541cd	-0.08069191
59	0xbd4bd522	-0.049763806
60	0xbb898996	-0.0041973097
61	0xbe56a5bc	-0.2096166
62	0xbe0bdac9	-0.13657679
63	0x3cf47aa8	0.029843643
64	0x3df6e2b0	0.12054956
65	0x3d1b0c10	0.0378533
66	0xbdd1dd1c	-0.102472514
67	0xbe1e3e31	-0.15453412
68	0xbc310a67	-0.010805703
69	0xbe50bf6b	-0.2038552
70	0xbe11420a	-0.14185348
71	0x3d953e55	0.072872795
72	0xbd70cce5	-0.058789153
73	0x3e5ac930	0.2136581
74	0xbe54a92e	-0.20767662
75	0xbe277979	-0.16354932
76	0xbcd5b1d2	-0.026085768
77	0xbebde0a7	-0.3708546
78	0xbe783c1a	-0.24241677
79	0xbe454230	-0.1926353
80	0xbde3aedc	-0.11117336
81	0xbe1be731	-0.15224911
82	0xbe4c1453	-0.19929628
83	0xbe197f5b	-0.14989989
84	0xbdf77994	-0.12083736
85	0xbd93ca29	-0.07216293
86	0xbd686acd	-0.05674248
87	0xbd5c7cad	-0.053829838
88	0xbc541401	-0.012944222
89	0x3ceb2878	0.02870582
90	0xbdb21e1e	-0.08697151
91	0x3d01afb9	0.031661723
92	0xbe12bbb4	-0.14329416
93	0xbd958b57	-0.073019676
94	0xba8e828b	-0.0010872645
95	0xbd3682ee	-0.044558458
96	0xbd83f9ad	-0.06444106
97	0xbee59342	-0.4483891
98	0xbee5e5d1	-0.44901899
99	0x3d76fe96	0.060301386
100	0x3dec8b18	0.115499675
101	0xbc7fd309	-0.01561428
102	0xbe356e9b	-0.17717974
103	0xb9b53950	-0.0003456571
104	0x3d4160a2	0.047211297
105	0xbd0fb274	-0.035082296
106	0xbd33b5fd	-0.04387473
107	0x3d09727a	0.03355644
108	0x3df10ebf	0.11770391
109	0x3db46cd4	0.0880982
110	0xbdc903c7	-0.098151736
111	0xbe140bec	-0.14457673
112	0xbd3382d4	-0.04382594
113	0xbd626ec6	-0.055281423
114	0x3e2a7d96	0.1664947
115	0x3e398e8e	0.18120787
116	0xbd8a491d	-0.067522265
117	0xbe2eee0a	-0.17082992
118	0x3e1b5089	0.1516744
119	0xbd9faff5	-0.07797233
120	0xbd9d2ac1	-0.0767417
121	0x3e0435d1	0.12911154
122	0xbe72ea5b	-0.23722212
123	0xbdaab4be	-0.08335255
124	0x3dca501c	0.09878561
125	0xbd04514b	-0.03230409
126	0xbe738aa0	-0.2378335
127	0xbe93bc7d	-0.28854743

layer4.1.running_mean f4 [128]
0	0x3aa2966f	0.0012404452
1	0x3d9f4216	0.07776277
2	0x3d4daea2	0.05021537
3	0x3db5679a	0.08857651
4	0xbca2e1a8	-0.019882992
5	0xbcc54ba4	-0.02408392
6	0xb932fc98	-0.00017069501
7	0xbd90663e	-0.07050751
8	0x3d8cbfb1	0.068725
9	0x3d5c24f8	0.053746194
10	0xbd0d8f1f	-0.03456032
11	0xbaf8b511	-0.001897486
12	0xbded011a	-0.11572476
13	0xbd44235e	-0.04788529
14	0xbdaa1024	-0.0830386
15	0xbd55b4e6	-0.05217447
16	0x3caeb622	0.021327082
17	0x3c2e99c1	0.010656775
18	0x3cbdb301	0.023156645
19	0x3cabe4d6	0.02098314
20	0xbc8e70a1	-0.01738769
21	0x3c94361f	0.018092213
22	0xbc8e26a2	-0.017352406
23	0xbd346941	-0.04404569
24	0x3bcff719	0.006346595
25	0x3a0edf04	0.0005450102
26	0xbd8111d7	-0.06302231
27	0x3d11d537	0.03560373
28	0x3e04f147	0.12982665
29	0xbc8574a6	-0.016290974
30	0xbdc2a147	-0.095034175
31	0x3c1c374a	0.009534666
32	0xbc0852fa	-0.008320564
33	0xbbbb2104	-0.005710723
34	0x3d53da51	0.051721875
35	0x3e04a029	0.12951721
36	0x3e2ddc1e	0.169785
37	0x3dc72e7e	0.097256646
38	0xbc1b6f20	-0.0094869435
39	0x3d868e3a	0.06570096
40	0x3d84a6f7	0.064771585
41	0xbc597d3f	-0.01327449
42	0x3e1c4b30	0.15263057
43	0xbc5faabe	-0.013651548
44	0xbd2f5be9	-0.04281226
45	0xbd169768	-0.036765486
46	0xbd7dfbfb	-0.062007885
47	0xbb0b325f	-0.002123974
48	0x3d303228	0.043016583
49	0xbba3e703	-0.005001904
50	0xbcf1dff3	-0.029525733
51	0xbd8b6cbe	-0.0680785
52	0xbd2804b8	-0.041020125
53	0xbc266542	-0.010155978
54	0x3c3f189c	0.011663582
55	0x3d4a12a6	0.04933419
56	0xbdd8a578	-0.10578436
57	0xbdceac68	-0.10091478
58	0x3e282b56	0.16422781
59	0xbe498dc2	-0.19682983
60	0x3cd19ca3	0.025587386
61	0x3dbf18f5	0.09330932
62	0xbcece87d	-0.028919453
63	0x3e1f63be	0.15565392
64	0xbe2b7746	-0.16744718
65	0x3df34208	0.11877829
66	0x3ce0f325	0.02745969
67	0x3db26167	0.08709984
68	0xbc1c0ca5	-0.009524499
69	0x3d9058cd	0.070481874
70	0xbc14973b	-0.009069259
71	0x3c30d46e	0.010792835
72	0x3c8e1504	0.017344005
73	0x3ce04292	0.027375493
74	0x3c254871	0.010088072
75	0x3d96d202	0.073642746
76	0xbdfda8ef	-0.12385737
77	0x3cc142cb	0.02359142
78	0x3d64ab07	0.055827167
79	0x3c152149	0.009102174
80	0x3b45cdfc	0.003018259
81	0xbd2de69d	-0.042456258
82	0xbc4aea69	-0.012384989
83	0xbc244e10	-0.010028377
84	0x3ce5b088	0.028038278
85	0x3e10216b	0.14075248
86	0x3dcf3492	0.10117449
87	0x3e25a9e5	0.16178091
88	0xbd7089c1	-0.058725122
89	0x3c955c18	0.01823239
90	0x3d750b72	0.05982537
91	0x3dc2b1ff	0.09506606
92	0x3e0b362c	0.13594884
93	0x3c9d7c79	0.019224392
94	0x3e4c3bdd	0.19944711
95	0x3d9c4e4b	0.07632121
96	0xbda39083	-0.07986548
97	0x3c7dbbe6	0.015486693
98	0xbcd7493a	-0.026280034
99	0xbd2bb3bc	-0.041919455
100	0xbc8523da	-0.016252447
101	0x3d8c8f16	0.06863229
102	0xbccbaf15	-0.024863759
103	0x3c06a7d4	0.008218724
104	0x3dc351dd	0.095370986
105	0x3b8717a3	0.0041226908
106	0xbd864210	-0.06555569
107	0x3d97191f	0.07377838
108	0x3ca894b8	0.020578727
109	0x3ca4e3c8	0.020128146
110	0x3cfed84d	0.031109
111	0x3db3ae82	0.08773519
112	0x3e63405f	0.22192524
113	0xbd5b3854	-0.053520516
114	0xbc4d5687	-0.012532837
115	0x3dd50f1a	0.10403271
116	0xbceede94	-0.029158868
117	0x3dca049d	0.09864161
118	0xbdea3b40	-0.11437082
119	0x3c7ec2a1	0.015549333
120	0xbbb8d316	-0.005640398
121	0xbe054925	-0.13016184
122	0xbaf0ac5b	-0.0018361913
123	0xbc4fbc82	-0.012679221
124	0xbdb3f4e9	-0.08786947
125	0x3d6bda3a	0.057581164
126	0xbc31f71a	-0.010862136
127	0x3d74e7ac	0.059791252
